old_figures/up2sept/559-SIREN-ncc-1e-05-2500-10000/epoch-1000.pth (torch, 534820 bytes, 8 tensors)

layers.0.weight f4 [256, 2]
-0.08069221 0.2000283 -0.38342834 0.06872318 -0.45570022 0.30992445 0.48529506 -0.17858662
0.07390462 -0.25785166 -0.31954286 -0.25289562 -0.23795237 0.09514601 -0.05794417 0.034602366
-0.38254258 -0.31404442 -0.4324895 -0.3594399 0.4182577 0.18570891 -0.47666204 -0.0833513
0.04030924 0.26678285 0.463192 0.12025208 0.35208333 -0.17795004 -0.015880937 -0.3010737
0.115567 0.46096024 0.31367812 0.49716592 -0.22478731 -0.06246987 0.10323131 0.40155756
-0.45927113 -0.24565807 0.07223008 -0.2891642 0.18681175 -0.034006372 -0.12974271 0.26804814
0.35732704 0.4859204 0.22547466 -0.013263089 0.40817207 0.39781204 -0.250373 0.22747989
0.058791395 -0.21579775 -0.11932757 -0.11749093 -0.3496454 -0.15240927 0.16793434 0.3662761
0.037855495 -0.48396704 0.26447242 -0.15106905 0.44634482 -0.4827927 -0.11702405 0.3878973
0.21602972 -0.2491333 -0.432491 -0.0056041484 0.19306198 -0.41477674 -0.41839892 -0.0066062347
-0.102109775 0.32156324 -0.48444733 -0.0795185 -0.38717255 -0.072461404 -0.25550961 0.15748994
-0.41814876 -0.39297926 -0.28277382 -0.43763867 0.3150353 -0.07148193 -0.27768034 0.3503907
-0.11343874 0.258311 -0.15494624 -0.4177947 0.109261364 0.31128973 -0.48692068 0.051826503
0.09944873 0.05724113 -0.012493428 -0.15522507 -0.3874278 0.081097804 -0.3352027 -0.41282007
-0.16046734 -0.34222418 0.1529966 0.35573635 0.3879258 -0.30953905 0.27245468 0.35532844
0.0063270503 0.2105179 0.28301722 0.38249162 0.26734772 0.21339941 -0.18928796 -0.27840924
-0.23728813 0.41107255 -0.12095866 0.017738676 -0.46584558 -0.021891242 -0.14126116 -0.3225471
0.38671368 -0.40396133 -0.071446136 -0.0351405 -0.45172262 0.30192432 -0.158991 0.224675
0.27888373 0.44074413 0.12364567 0.37486792 0.4611635 0.09898586 -0.10221098 -0.13663043
0.08101066 0.17979014 -0.4711524 0.3748319 0.079113655 -0.46556085 0.15998183 0.3169871
0.18653165 0.4074214 0.010369572 -0.4145772 -0.0014325702 0.36325464 -0.23987527 0.21370085
0.11518397 -0.08094853 0.0037919234 0.21262021 -0.34243554 0.3153496 0.33825886 0.28040692
0.4992199 -0.022014353 -0.35274023 0.022996876 -0.14576171 0.17643963 0.4228942 -0.2733258
0.0210702 0.48562148 -0.3990137 -0.08594468 0.48439822 0.34952578 0.14520822 -0.21540226
-0.046624508 -0.4477271 -0.47073466 -0.46807712 0.4803467 0.39502743 0.19842434 -0.12548617
0.4299728 -0.13223332 0.3468138 -0.016024394 -0.23460035 -0.13938437 -0.10693968 -0.45741388
0.14929411 -0.15221617 0.22903866 0.31823632 -0.07917988 0.24264094 0.09995798 0.3354694
-0.3226128 -0.044213638 -0.16681245 0.4376855 -0.44817513 -0.28093678 0.056426212 0.44345608
0.33730796 -0.46716955 -0.35095856 0.48409343 0.07281694 -0.42806506 -0.15744002 0.21856594
-0.10472561 -0.38404435 -0.30828685 -0.25899807 -0.019674134 0.19567849 0.24018733 -0.24239768
-0.08428447 -0.3860184 0.37768906 0.49831796 0.48529294 0.20427254 -0.106571086 -0.012375752
0.1801517 -0.43323022 0.031077541 -0.40605122 -0.49880132 -0.016501203 -0.1589325 -0.31669664
00000000: f541 a5bd 38d4 4c3e b850 c4be bdbe 8c3d
00000010: 8a51 e9be 6bae 9e3e 9878 f83e 69df 36be
00000020: 4e5b 973d 2205 84be 1f9b a3be 897b 81be
00000030: c9a9 73be e9db c23d de56 6dbd 36bb 0d3d
00000040: 9fdc c3be 6eca a0be 446f ddbe 8208 b8be
00000050: e025 d63e 7a2a 3e3e 0c0d f4be 16b4 aabd
00000060: 4d1b 253d c397 883e 8027 ed3e b946 f63d
00000070: 4444 b43e 8938 36be bd18 82bc 5526 9abe
00000080: 64ae ec3d fb02 ec3e 6b9a a03e 888c fe3e
00000090: a52e 66be 68e0 7fbd f06a d33d f498 cd3e
000000a0: 9625 ebbe ca8d 7bbe 5ded 933d 540d 94be
000000b0: 944b 3f3e 444a 0bbd 46db 04be 9b3d 893e
000000c0: 92f3 b63e 8fca f83e d4e2 663e 6d4d 59bc
000000d0: eefb d03e 05ae cb3e e430 80be 7df0 683e
000000e0: 3fcf 703d 16fa 5cbe 0362 f4bd 169f f0bd
000000f0: b904 b3be 2d11 1cbe fbf6 2b3e 8a88 bb3e
00000100: 5d0e 1b3d 87ca f7be ee68 873e d8b1 1abe
00000110: 4f87 e43e 9b30 f7be 4eaa efbd 7a9a c63e
00000120: e536 5d3e cd1c 7fbe 766f ddbe 01a3 b7bb
00000130: 0ab2 453e 9e5d d4be 6238 d6be 1d79 d8bb
00000140: ee1e d1bd f0a3 a43e 7b09 f8be 98da a2bd
00000150: 7b3b c6be a566 94bd 28d2 82be 0b45 213e
00000160: 9817 d6be 9434 c9be bbc7 90be 2d12 e0be
00000170: 4f4c a13e 1e65 92bd 1e2c 8ebe 6966 b33e
00000180: 9252 e8bd 5741 843e 3aaa 1ebe 30e9 d5be
00000190: 6cc4 df3d 5e61 9f3e ab4d f9be 0748 543d
000001a0: c7ab cb3d ad75 6a3d 3cb1 4cbc 52f3 1ebe
000001b0: f05c c6be 9b16 a63d b09f abbe 275d d3be
000001c0: 8d51 24be 0238 afbe 24ab 1c3e 1323 b63e
000001d0: 369e c63e e77b 9ebe 2e7f 8b3e 9ced b53e
000001e0: 2553 cf3b 0192 573e a2e7 903e f1d5 c33e
000001f0: cde1 883e 6085 5a3e b4d4 41be a88b 8ebe
00000200: a9fb 72be 1a78 d23e 2db9 f7bd b350 913c
00000210: 5083 eebe 4355 b3bc c4a6 10be e524 a5be
00000220: 56ff c53e 05d4 cebe 5a52 92bd 7cef 0fbd
00000230: 3048 e7be d395 9a3e 89ce 22be 3411 663e
00000240: d9c9 8e3e 37a9 e13e f139 fd3d b0ee bf3e
00000250: 9f1d ec3e 19b9 ca3d fe53 d1bd d9e8 0bbe
00000260: ebe8 a53d e81a 383e e33a f1be f7e9 bf3e
00000270: 5706 a23d fe5d eebe 47d2 233e 224c a23e
00000280: 2702 3f3e 8a99 d03e 23e5 293c 7643 d4be
00000290: 14c5 bbba 83fc b93e dda1 75be 65d4 5a3e
000002a0: 93e5 eb3d 58c8 a5bd eb81 783b 1db9 593e
000002b0: b653 afbe 8175 a13e 4430 ad3e 7f91 8f3e
000002c0: c099 ff3e 7257 b4bc 5e9a b4be f263 bc3c
000002d0: 8f42 15be 97ac 343e 9785 d83e 5cf1 8bbe
000002e0: 699b ac3c 61a3 f83e 864b ccbe c403 b0bd
000002f0: 0b03 f83e 0bf5 b23e 77b1 143e 6992 5cbe
00000300: 57f9 3ebd 7d3c e5be 2204 f1be cea7 efbe
00000310: 01f0 f53e 0941 ca3e c02f 4b3e 727f 00be
00000320: 6525 dc3e 2c68 07be 9491 b13e 9745 83bc
00000330: 133b 70be c7ba 0ebe 3103 dbbd 2732 eabe
00000340: 8ee0 183e 8ede 1bbe 1c89 6a3e dfef a23e
00000350: 1029 a2bd de76 783e c5b6 cc3d a5c2 ab3e
00000360: 812d a5be 5c19 35bd e2d0 2abe 5018 e03e
00000370: 3677 e5be f2d6 8fbe 2c1f 673d ad0c e33e
00000380: a1b3 ac3e d930 efbe d7b0 b3be 18db f73e
00000390: 0c21 953d 582b dbbe f537 21be c0cf 5f3e
000003a0: 617a d6bd 76a1 c4be c6d7 9dbe 659b 84be
000003b0: a62b a1bc f15f 483e abf3 753e 1937 78be
000003c0: 569d acbd 34a4 c5be 7660 c13e 8823 ff3e
000003d0: 5178 f83e d22c 513e f141 dabd abc3 4abc
000003e0: b079 383e 5ad0 ddbe 5496 fe3c f2e5 cfbe
000003f0: e362 ffbe 882d 87bc 34bf 22be 1026 a2be

layers.0.bias f4 [256]
-0.52881444 0.49473247 0.40686724 -0.6952166 -0.5545414 -0.4658639 -0.38281354 0.08848286
-0.69912916 -0.5242556 0.32287973 -0.2313807 -0.2813721 -0.5854185 0.28643566 0.049814984
-0.27355003 -0.4327622 0.15052848 0.19251719 0.3137961 0.21043643 -0.10786662 -0.54708785
0.45043042 -0.006261921 -0.46993777 0.6097584 0.39425254 -0.5553927 -0.35293487 -0.24064302
-0.40806866 0.3303422 -0.5044135 0.65747976 -0.29212582 0.41717783 0.024013834 -0.31112942
0.47227162 -0.5394279 -0.37385148 0.08465863 0.5608493 -0.30276477 -0.43031725 -0.45130807
-0.31158245 -0.24417679 -0.16489503 -0.40196732 0.22045887 0.005627831 -0.4618217 -0.4039448
0.14939828 -0.010201558 0.5003987 -0.107421085 -0.57307005 -0.52252585 -0.20754561 -0.15687864
0.080556236 -0.15931548 0.2608238 -0.23550732 0.51887804 0.16266264 -0.21714814 0.6302338
0.18083854 -0.48091748 -0.39316967 0.44347712 0.3236553 0.5521331 -0.054465752 0.49465117
0.3522779 0.21900058 -0.16334414 0.6815573 0.14343292 -0.18252002 -0.010149432 0.69540334
0.474721 -0.052548256 0.6933941 0.31074965 -0.3763046 -0.64344984 0.41075283 0.66315126
-0.41188747 0.2903634 0.029531537 -0.15132411 -0.19218132 0.19684719 0.15588734 0.4778113
0.25887764 0.32191548 0.6239414 0.22014953 0.104630604 -0.25753808 0.51857394 0.10454597
0.4554709 0.68253267 -0.15808953 0.4975586 -0.14362028 0.6378271 0.5566961 -0.25351134
0.02555818 -0.3083836 -0.28583744 -0.14278731 -0.004461001 -0.24625888 -0.6674345 -0.42750797
-0.06045054 -0.22597954 0.52535033 0.5753619 0.45061943 0.31318 -0.56047696 0.6682971
-0.62297577 -0.23179495 -0.49757355 0.25443572 -0.5883153 -0.3487489 -0.44904062 -0.4349393
-0.3300221 0.6951665 -0.057931572 0.21534026 -0.70205766 0.6285717 -0.15420502 -0.64865685
0.48761553 -0.19077007 0.64205635 -0.48032007 -0.6567463 -0.5311682 0.30647373 -0.07904933
-0.6547671 0.13142894 -0.044973303 0.2556182 -0.35962766 -0.50436926 0.48212233 -0.34026623
0.49773267 0.5734123 -0.49439228 -0.32614774 0.08561875 -0.6668505 0.21675031 -0.29495186
-0.31371063 -0.5461959 0.33056378 -0.45051172 -0.565086 -0.18593073 -0.3944057 -0.68761325
0.28556308 -0.26902533 0.4959353 0.4975794 -0.45126474 -0.41202986 -0.25076136 0.4139475
-0.0245939 -0.25331837 0.4382383 0.6699642 0.52269185 -0.5407205 -0.14669678 -0.13573919
0.6035125 -0.3658579 -0.40522477 0.011227739 -0.16451575 0.26774785 0.08656505 -0.42166612
0.51415014 0.44044596 0.15501907 -0.63957185 0.3321365 0.4696193 0.19695286 -0.27314144
0.046669155 -0.27200365 0.6656646 0.6827036 -0.08262181 -0.47585332 0.41587648 0.36075935
0.37515336 -0.5314837 0.23949751 -0.30188152 -0.62165445 -0.4937463 0.29966632 0.26485834
-0.6208334 0.40078512 0.54142064 0.5366859 0.39936998 -0.11113563 0.47383586 0.5537741
0.36863282 -0.5087401 -0.2470721 0.5601802 0.5383024 0.45109433 -0.29541475 -0.14015795
-0.52725184 -0.4032072 0.5430396 -0.58032435 -0.1748192 0.15023695 -0.42411277 0.16446614
00000000: 6260 07bf 934d fd3e e750 d03e b7f9 31bf
00000010: 6df6 0dbf b785 eebe 2300 c4be 8036 b53d
00000020: 21fa 32bf 9d35 06bf 7e50 a53e 10ef 6cbe
00000030: 0110 90be fddd 15bf b2a7 923e cc0a 4c3d
00000040: c00e 8cbe 0293 ddbe 2324 1a3e 3a23 453e
00000050: e2a9 a03e a67c 573e 2de9 dcbd f30d 0cbf
00000060: d19e e63e cd30 cdbb af9b f0be 2019 1c3f
00000070: 78db c93e 372e 0ebf e1b3 b4be 206b 76be
00000080: 60ee d0be 9d22 a93e 3e21 01bf 9850 283f
00000090: 8491 95be 5598 d53e a9b8 c43c 5b4c 9fbe
000000a0: 96cd f13e f217 0abf 7669 bfbe 8161 ad3d
000000b0: d293 0f3f fc03 9bbe 8b52 dcbe da11 e7be
000000c0: bc87 9fbe 7b09 7abe 3eda 28be a9ce cdbe
000000d0: f8bf 613e ab69 b83b e573 ecbe dad1 cebe
000000e0: ddfb 183e 6f24 27bc 211a 003f 96ff dbbd
000000f0: b8b4 12bf 41c4 05bf d686 54be cba4 20be
00000100: abfa a43d 9923 23be b28a 853e d528 71be
00000110: 31d5 043f 0991 263e 155c 5ebe 0157 213f
00000120: bd2d 393e d13a f6be 894d c9be 6f0f e33e
00000130: 26b6 a53e 9858 0d3f 7b17 5fbd eb42 fd3e
00000140: c55d b43e b041 603e b043 27be 8a7a 2e3f
00000150: 14e0 123e 87e6 3abe ce49 26bc f405 323f
00000160: a20e f33e d73c 57bd 4782 313f 941a 9f3e
00000170: ffaa c0be 21b9 24bf 324e d23e 48c4 293f
00000180: eae2 d2be 83aa 943e 1fec f13c b5f4 1abe
00000190: 2ecb 44be 4f92 493e eea0 1f3e afa3 f43e
000001a0: 9c8b 843e 1bd2 a43e a0ba 1f3f e16e 613e
000001b0: 9248 d63d 08dc 83be 43c1 043f 331c d63d
000001c0: 7b33 e93e 76ba 2e3f 39e2 21be 00c0 fe3e
000001d0: 3211 13be a348 233f a383 0e3f 3dcc 81be
000001e0: 635f d13c 75e4 9dbe 4959 92be d636 12be
000001f0: 972d 92bb 4a2b 7cbe fddc 2abf 53e2 dabe
00000200: fc9a 77bd 2e67 67be 5c7d 063f eb4a 133f
00000210: 97b7 e63e 2159 a03e 6b7b 0fbf 8515 2b3f
00000220: 577b 1fbf a85b 6dbe f6c1 febe 6645 823e
00000230: d59b 16bf 378f b2be a7e8 e5be 5db0 debe
00000240: a8f8 a8be 6ff6 313f a849 6dbd 2882 5c3e
00000250: 0dba 33bf 13ea 203f ece7 1dbe 600e 26bf
00000260: bea8 f93e 3b59 43be ce5d 243f 83ec f5be
00000270: 8720 28bf a4fa 07bf 20ea 9c3e 9de4 a1bd
00000280: d19e 27bf 4f95 063e ed35 38bd 64e0 823e
00000290: 1e21 b8be 581e 01bf bdd8 f63e 6037 aebe
000002a0: d1d6 fe3e 26cb 123f fc20 fdbe d6fc a6be
000002b0: e258 af3d b7b6 2abf cbf3 5d3e ee03 97be
000002c0: ae9e a0be 7fd3 0bbf a83f a93e 79a9 e6be
000002d0: 7aa9 10bf a064 3ebe 8bef c9be 6c07 30bf
000002e0: 5335 923e b0bd 89be 3beb fd3e bac2 fe3e
000002f0: 2c0c e7be 94f5 d2be cb63 80be edf0 d33e
00000300: 2679 c9bc f2b2 81be c560 e03e c682 2b3f
00000310: 22cf 053f a96c 0abf ae37 16be 37ff 0abe
00000320: cc7f 1a3f ba51 bbbe 9f79 cfbe 8df4 373c
00000330: d176 28be 3f16 893e 0449 b13d 9fe4 d7be
00000340: 589f 033f 2282 e13e 52bd 1e3e fbba 23bf
00000350: cc0d aa3e f171 f03e 03ae 493e 32d9 8bbe
00000360: 2828 3f3d 1044 8bbe ff68 2a3f aac5 2e3f
00000370: a035 a9bd 0ca3 f3be c3ed d43e 73b5 b83e
00000380: 1a14 c03e 510f 08bf d63e 753e 3790 9abe
00000390: bf24 1fbf 51cc fcbe dd6d 993e 839b 873e
000003a0: f0ee 1ebf b533 cd3e 8b9a 0a3f 3f64 093f
000003b0: 397a cc3e 149b e3bd 9d9a f23e 24c4 0d3f
000003c0: 71bd bc3e cb3c 02bf 7800 7dbe f867 0f3f
000003d0: 30ce 093f d6f5 e63e 9a40 97be 9185 0fbe
000003e0: faf9 06bf 2d71 cebe a504 0b3f 2390 14bf
000003f0: ce03 33be b7d7 193e 4f25 d9be d069 283e

layers.1.weight f4 [256, 256]
0.0048731063 -0.00026517105 -0.0036998696 0.004236089 -0.001262546 -0.0012450949 0.0034141082 -0.0007430922
-0.00014307145 -0.0041249394 -0.0031540638 0.0027836517 0.003708319 0.00050427864 -0.00030500127 0.0042001363
-0.00025415895 -0.0033306163 -0.0022188174 0.0029695912 0.00232871 0.0032637052 -0.0013390405 0.0016508563
0.002675427 0.0017154273 0.004578328 0.00012168431 0.00069000234 -0.0027492307 -0.0009652046 0.0019969004
0.004331619 0.0030161615 0.0004563617 -0.0019137004 -0.0032935482 0.0011983048 -0.0016630794 0.002060582
-0.0013583332 0.0003126155 0.003807647 0.0020658246 0.0036757851 0.0031836608 -0.0026204449 -0.0015656427
0.0015752782 0.0022635704 -0.0001426608 -0.0007612674 0.002678838 -0.0022587508 -0.0032082426 0.00033775604
0.0029405581 -0.0028861118 -0.0009883493 0.0020550007 -0.0024333806 -0.0015063693 0.0016232891 0.002322194
0.0039384877 0.0036089255 0.00039974635 -0.0014186539 0.003196762 0.00060168374 0.004324729 0.0023694732
-0.0026225178 -0.002598276 0.00042418612 -0.0034730479 -0.0006862437 0.0011952772 0.00036125354 0.004319368
0.0026118518 0.0020609624 0.0041550887 -0.0017747852 -0.0041670487 9.064815e-05 0.0021299014 0.00050438935
-0.0006900254 -0.0025673173 -0.0029770404 -0.0002855467 0.004125783 0.0048968527 0.0013669194 -0.0018722669
-0.0029560735 -0.003995624 0.004008784 -0.0006019707 -0.0024777662 -0.003191304 0.0036320637 0.0038297456
-0.0014287347 -0.0009829901 -0.00223691 -0.003203913 -0.0013238543 0.0019832812 0.00042591884 0.0018786618
-0.0023808882 0.0010737 0.0007672682 -0.0032936414 0.0028509228 -0.0035766463 -0.0010702644 0.0039837467
0.0027986728 -0.0001351717 0.00068326347 -0.0032699092 0.0028259612 0.0041034753 -0.0009334848 -0.004015336
0.003421603 -0.0024460517 -0.0009731045 0.00056641595 -0.0013402193 -0.0038328506 0.002154256 0.00036379084
0.0033140488 -0.0041502933 0.0041755503 -0.0010701792 0.002295427 -0.0033658813 -0.000423055 -0.0031874669
0.0039032002 -0.0005487034 0.001811059 -0.00016266564 -0.0038968874 -0.0022148963 -0.0010297839 -0.0020789045
-0.0025853368 0.0020387317 0.0036612465 0.001735062 -0.0033135791 0.003478807 0.00058343017 0.004533494
-0.0018409794 -0.00025563367 -0.00052696466 -0.0008183574 0.0041810884 0.0011446169 0.0019433473 0.0020724055
-0.0024205502 0.002454697 -0.0016625548 -0.0019180711 -0.00279733 -0.0035760636 -0.002389131 0.0008308414
0.0013020223 0.0028555386 0.0006346931 0.00197053 0.003281722 0.0011768419 -0.0043161004 0.00069972704
-0.0010294411 -0.0039189463 -0.0016084256 -0.00072325754 -0.0034354376 -0.0036913084 -0.002117425 0.001971777
0.0039114924 0.000685648 0.0033842577 0.004082219 -0.002092273 0.0012930149 0.0009813703 0.0034558435
-0.00040962515 0.004044071 0.00082690426 -0.0038127634 -0.0009779031 0.0029323625 -0.0044184076 0.0015398925
0.0037277522 -0.0028756994 -0.002046835 -7.3288444e-05 -0.0007853236 0.0047745844 0.002806502 -0.00080387597
-0.0017737388 -0.0019731708 0.003293027 0.0023916247 -0.0028597303 -9.755308e-05 -0.0014638307 -0.0036541065
0.002554959 -0.0004792309 0.004938124 0.003883195 -0.0003834398 -0.0010100716 -0.00050141406 0.003727431
-0.004022618 0.0037327125 -0.00083576265 0.0031472272 -0.0039168308 0.0034535318 -0.0013893011 0.002309093
-0.0029993358 8.753287e-05 -0.00102225 -0.0014104724 -0.0028536743 -0.003912141 -0.001595243 -0.0037387689
0.004586823 -0.0023316778 0.0030061137 0.0012507128 -0.0019661966 0.0011572525 0.004970141 0.0006035626
00000000: 94ae 9f3b a806 8bb9 8379 72bb e4ce 8a3b
00000010: 047c a5ba 7432 a3ba 3bbf 5f3b 13cc 42ba
00000020: 7305 16b9 802a 87bb 69b4 4ebb ed6d 363b
00000030: 4507 733b 9131 043a 94e8 9fb9 4ca1 893b
00000040: a340 85b9 7846 5abb 9469 11bb 799d 423b
00000050: 459d 183b e3e3 553b be82 afba 8c61 d83a
00000060: 3756 2f3b 30d8 e03a cd05 963b c430 ff38
00000070: 46e1 343a 702c 34bb c905 7dba 6ede 023b
00000080: 41f0 8d3b cbaa 453b d543 ef39 21d5 faba
00000090: 92d8 57bb 7010 9d3a affb d9ba d40a 073b
000000a0: 190a b2ba 8be6 a339 b789 793b c962 073b
000000b0: 71e5 703b f7a4 503b c5bb 2bbb 4036 cdba
000000c0: 9179 ce3a 6958 143b 3897 15b9 ca8f 47ba
000000d0: 728f 2f3b 8d07 14bb 6141 52bb d914 b139
000000e0: 61b6 403b ec24 3dbb 808b 81ba 31ad 063b
000000f0: 5a79 1fbb 5e71 c5ba 8bc4 d43a f32f 183b
00000100: 6e0e 813b b983 6c3b 0c95 d139 20f2 b9ba
00000110: c480 513b 50ba 1d3a 75b6 8d3b 2a49 1b3b
00000120: 8cde 2bbb d647 2abb 4c65 de39 139c 63bb
00000130: 09e5 33ba d9aa 9c3a a166 bd39 7c89 8d3b
00000140: 9a2b 2b3b 3611 073b 6927 883b e99f e8ba
00000150: bd8b 88bb 5b1a be38 d195 0b3b ff38 043a
00000160: d2e2 34ba 7040 28bb 731a 43bb 6eb5 95b9
00000170: 9431 873b c775 a03b 342a b33a da66 f5ba
00000180: afba 41bb b9ed 82bb 1e5c 833b 92cd 1dba
00000190: 0562 22bb 3225 51bb eb07 6e3b 78fc 7a3b
000001a0: 6244 bbba add7 80ba 1f99 12bb bef8 51bb
000001b0: 2e85 adba f0f9 013b dc4d df39 6e3d f63a
000001c0: ad08 1cbb 65bb 8c3a 7f22 493a 22da 57bb
000001d0: 8cd6 3a3b 2b66 6abb 1d48 8cba 178a 823b
000001e0: f069 373b e0bc 0db9 091d 333a f94b 56bb
000001f0: c333 393b 7276 863b 1bb5 74ba 1493 83bb
00000200: f93c 603b f04d 20bb f017 7fba 887b 143a
00000210: 4caa afba 9030 7bbb 6b2e 0d3b 2ebb be39
00000220: 8330 593b 2fff 87bb 0ed3 883b 4145 8cba
00000230: e06e 163b 1e96 5cbb 7bcd ddb9 d2e4 50bb
00000240: d5cc 7f3b ddd6 0fba 0e61 ed3a 3a91 2ab9
00000250: ec62 7fbb cb27 11bb d0f9 86ba 3b3e 08bb
00000260: c16e 29bb 3e9c 053b 86f1 6f3b 056b e33a
00000270: a228 59bb b2fc 633b 56f1 183a b48d 943b
00000280: 054d f1ba 9206 86b9 0024 0aba 0987 56ba
00000290: 8301 893b f806 963a eab7 fe3a 32d1 073b
000002a0: 18a2 1ebb fbde 203b 15ea d9ba c967 fbba
000002b0: 6953 37bb 645c 6abb f892 1cbb d3cc 593a
000002c0: 9ea8 aa3a fd23 3b3b 8861 263a 0224 013b
000002d0: 2912 573b 4340 9a3a 136e 8dbb e36d 373a
000002e0: 50ee 86ba 816a 80bb cfd1 d2ba fe98 3dba
000002f0: 1425 61bb e1e9 71bb 7fc4 0abb ee38 013b
00000300: fa2b 803b 0fbd 333a 6cca 5d3b 23c4 853b
00000310: 841e 09bb 617a a93a 53a1 803a 6f7b 623b
00000320: f5c2 d6b9 2084 843b 9bc4 583a 8edf 79bb
00000330: fc2c 80ba e12c 403b 4ac8 90bb 38d6 c93a
00000340: 4e4d 743b 3b76 3cbb 3124 06bb 6fb2 99b8
00000350: 2dde 4dba 1e74 9c3b 4aed 373b 34bb 52ba
00000360: cc7c e8ba 5050 01bb d3cf 573b cebc 1c3b
00000370: 506a 3bbb 6995 ccb8 02de bfba bc79 6fbb
00000380: 1971 273b 4841 fbb9 fdcf a13b 347d 7e3b
00000390: 6b08 c9b9 6164 84ba 5471 03ba ea47 743b
000003a0: 2ad0 83bb 86a0 743b 1517 5bba b641 4e3b
000003b0: c258 80bb a654 623b 3619 b6ba 2754 173b
000003c0: 8190 44bb da91 b738 05fd 85ba 9adf b8ba
000003d0: b604 3bbb 6b31 80bb 7917 d1ba 2206 75bb
000003e0: 0f4d 963b 10cf 18bb 3802 453b f5ee a33a
000003f0: 4edb 00bb f3ae 973a 91dc a23b 6738 1e3a

layers.1.bias f4 [256]
0.051502913 -0.036476742 0.0031117096 0.05934435 0.043606214 -0.008017993 -0.04021947 -0.05845471
-0.020198226 0.054340806 0.009131973 -0.035724323 -0.00084226916 0.0074088536 0.024527447 0.044757403
0.05929405 -0.013682501 0.013052509 0.038091063 -0.011109914 0.016153282 -0.051258422 0.0018710884
-0.0027694826 0.027963182 0.021913126 0.050994765 0.05505659 0.052641377 0.03681575 -0.03345573
0.046357565 0.022867708 -0.061664227 0.03619004 -0.00574451 -0.010566109 -0.009286005 -0.041955143
0.010159571 0.0059751463 -0.031679817 0.02653608 0.04744941 -0.024906045 0.0028709604 -0.011204579
0.036757536 0.03644936 -0.059487034 -0.05445172 0.0022018799 -0.019450992 -0.033358082 -0.030918544
0.021583281 0.051598188 -0.05239051 -0.019530514 -0.018348597 -0.0305944 -0.0121325245 0.007831921
-0.016033575 -0.011481284 0.021437244 0.0030665451 0.024440732 0.043421533 -0.029605882 -0.039174665
-0.023722379 -0.045821343 -0.040863127 -0.01261024 -0.0013807185 -0.040512618 0.021584144 0.050245147
-0.061389353 0.010928366 -0.02529758 -0.04147974 0.022204375 -0.059298683 -0.05618563 0.009055196
-0.01602283 -0.0144676175 0.059228543 -0.021445243 0.03064618 0.020336132 0.046871655 0.04166613
-0.020823011 0.018770263 0.0497819 0.012707311 0.01656628 -0.010982131 -0.04460171 -0.009655831
-0.050397642 0.058458626 0.05587195 0.00051554054 -0.018324053 -0.034766406 -0.020081945 -0.009166221
-0.014441376 0.059998695 -0.035221286 0.04156887 -0.01705826 -0.04607067 0.014855629 0.009088096
0.055453926 -0.058546353 0.0058443076 -0.04979627 -0.009148604 -0.004186672 -0.060587212 -0.023660028
-0.023625273 0.060171578 -0.019953473 -0.020511724 0.04076803 0.047185194 0.044596735 -0.012219604
-0.03236364 -0.04832492 -0.048459124 -0.0071490095 0.06193828 -0.00085327215 -0.010363849 0.013967725
0.029709551 -0.013998846 0.048188236 0.029261023 0.00027254035 0.029275315 -0.0390711 -0.0068150447
0.025828557 0.022516707 -0.0014618421 -0.019456204 0.009151218 -0.0006401048 -0.0614508 0.05040185
-0.03258474 0.045151286 0.036818538 -0.024986774 0.005384321 -0.023977702 0.026848301 0.0006003417
0.050211117 -0.03632103 0.055844683 0.02821854 0.062092908 0.01600119 0.011454086 0.043281358
-0.059959967 0.009291463 0.021224895 -0.050201133 -0.040447526 -0.0152168125 -0.030033851 0.0549446
0.0228162 -0.014096713 0.0008628253 -0.061703652 -0.016418368 0.033278167 0.0003085994 0.004195981
0.0027284985 0.010356362 0.00929403 0.010097303 0.0066377325 0.06102132 0.014926261 0.04944935
-0.0037235254 0.04231935 0.03300868 -0.020126078 -0.019734975 -0.038654123 0.014557584 0.0393441
-0.033574272 -0.037680857 -0.031817738 -0.02892473 0.039180826 0.051105615 -0.023436392 -0.004451343
0.017839579 -0.018268608 0.05816674 -0.028920302 -0.017878532 -0.04707865 -0.043837655 -0.004385013
-0.06067772 -0.060331855 0.0048249117 -0.047433518 0.035816684 -0.050645463 0.06120071 0.0014066757
0.027059393 -0.0048100413 0.018637905 -0.0002857932 -0.0544544 0.06181666 -0.0055541834 0.02904452
-0.02780297 0.010041538 0.017304868 0.059276853 -0.05794382 0.06093813 0.0035826762 -0.01818264
0.0078297965 0.05760073 0.007839704 -0.018690966 -0.015507567 -0.04856111 -0.059538897 0.061170794
00000000: b8f4 523d a368 15bd d3ed 4b3b 1013 733d
00000010: 6e9c 323d e65d 03bc 2cbd 24bd 356e 6fbd
00000020: c076 a5bc 7794 5e3d 459e 153c ab53 12bd
00000030: bacb 5cba f8c5 f23b c9ed c83c 8a53 373d
00000040: 51de 723d 922c 60bc 31da 553c 6005 1c3d
00000050: 5b06 36bc e353 843c 5af4 51bd 4f3f f53a
00000060: 3580 35bb 0b13 e53c 2883 b33c e3df 503d
00000070: 0583 613d 7c9e 573d 1dcc 163d e008 09bd
00000080: 6ee1 3d3d 0f55 bb3c a193 7cbd 023c 143d
00000090: 713c bcbb 791d 2dbc 5424 18bc 28d9 2bbd
000000a0: 5474 263c 29cb c33b b2c2 01bd 3162 d93c
000000b0: 505a 423d c307 ccbc b926 3c3b 6993 37bc
000000c0: 128f 163d ed4b 153d ada8 73bd c408 5fbd
000000d0: 6a4d 103b b057 9fbc 7ca2 08bd e348 fdbc
000000e0: 6ccf b03c 9f58 533d 6e97 56bd 75fe 9fbc
000000f0: cc4f 96bc 1ba1 fabc 7fc7 46bc 7551 003c
00000100: d858 83bc ff1b 3cbc 299d af3c 17f8 483b
00000110: ee37 c83c c7da 313d 0988 f2bc 9d75 20bd
00000120: 6f55 c2bc 29af 3bbd 1860 27bd 2e9b 4ebc
00000130: 3af9 b4ba 8ff0 25bd 3bd1 b03c dbcd 4d3d
00000140: 6773 7bbd e40c 333c df3c cfbc a9e6 29bd
00000150: f3e5 b53c 2de3 72bd e722 66bd 3f5c 143c
00000160: 4f42 83bc 9609 6dbc a199 723d efad afbc
00000170: b30d fb3c f697 a63c 7efc 3f3d 1baa 2a3d
00000180: 0595 aabc 18c4 993c 1be8 4b3d 5332 503c
00000190: 02b6 873c 65ee 33bc 48b0 36bd 7e33 1ebc
000001a0: c26d 4ebd 5072 6f3d fcd9 643d 5725 073a
000001b0: 531c 96bc 3867 0ebd e482 a4bc eb2d 16bc
000001c0: 859b 6cbc 31c1 753d 3244 10bd 1f44 2a3d
000001d0: c4bd 8bbc 99b4 3cbd 0665 733c 3de6 143c
000001e0: a823 633d 4dce 6fbd 9b81 bf3b 2cf7 4bbd
000001f0: 07e4 15bc 5a30 89bb 4c2a 78bd add2 c1bc
00000200: ca89 c1bc 7976 763d 7775 a3bc 3408 a8bc
00000210: 61fc 263d 4345 413d 11ab 363d bc34 48bc
00000220: bc8f 04bd 5af0 45bd 137d 46bd 3d42 eabb
00000230: feb2 7d3d 20ae 5fba 22cd 29bc e3d8 643c
00000240: 7261 f33c 6a5b 65bc 0761 453d d0b4 ef3c
00000250: bfe3 8e39 c9d2 ef3c 0509 20bd bd50 dfbb
00000260: 6996 d33c f574 b83c 489b bfba 9e62 9fbc
00000270: feee 153c b5cc 27ba d6b3 7bbd 2c72 4e3d
00000280: 9477 05bd 8ef0 383d 09cf 163d 10b1 ccbc
00000290: f56e b03b e36c c4bc f8f0 db3c 4060 1d3a
000002a0: 2caa 4d3d 5cc5 14bd 65bd 643d 912a e73c
000002b0: 2255 7e3d ed14 833c eba9 3b3c cb47 313d
000002c0: 9598 75bd 383b 183c d5df ad3c b49f 4dbd
000002d0: 4eac 25bd f04f 79bc 8d09 f6bc 970d 613d
000002e0: 0ae9 ba3c e6f5 66bc 3a2f 623a f8bc 7cbd
000002f0: d07f 86bc b04e 083d 83cb a139 717e 893b
00000300: 9cd0 323b bbad 293c fd45 183c 296f 253c
00000310: 5681 d93b 7ef1 793d 478d 743c 678b 4a3d
00000320: 6406 74bb 0e57 2d3d 1c34 073d 72df a4bc
00000330: 3eab a1bc c953 1ebd ef82 6e3c 4727 213d
00000340: 2d85 09bd 3e57 1abd 5153 02bd 8ef3 ecbc
00000350: 137c 203d 1f54 513d adfd bfbc 92dc 91bb
00000360: 4f24 923c 0ca8 95bc 3f40 6e3d 45ea ecbc
00000370: 0076 92bc 8bd5 40bd 1d8f 33bd 28b0 8fbb
00000380: 3389 78bd 891e 77bd 4b1a 9e3b a649 42bd
00000390: 84b4 123d 9e71 4fbd 98ad 7a3d 3460 b83a
000003a0: a9ab dd3c 8d9d 9dbb 85ae 983c 84d6 95b9
000003b0: 940b 5fbd 7733 7d3d deff b5bb c6ee ed3c
000003c0: 0ec3 e3bc 4385 243c f0c2 8d3c 49cc 723d
000003d0: 8056 6dbd 439a 793d 55cb 6a3b c3f3 94bc
000003e0: 8c48 003c beee 6b3d 1a72 003c cc1d 99bc
000003f0: 7313 7ebc 04e8 46bd 0fdf 73bd 3a8e 7a3d

layers.2.weight f4 [256, 256]
-0.0016704733 0.0044319467 0.004158514 0.0038617528 -0.00371757 -0.0042529977 -0.0043158657 0.0009416136
0.0027280166 -0.0037002603 -0.001740569 -0.00413319 0.0011381757 0.0019851755 0.00359572 0.0022870174
-0.0036160904 0.00046670504 -0.0024624448 -0.0038468444 0.0014074469 0.004286209 -0.002215459 -0.00023628514
0.0045246496 0.0019953763 0.0037355826 -0.004068126 0.0036044822 -0.002893104 -0.0023295914 0.001036267
-0.0027292955 -0.0045926496 0.0029427032 -0.004633653 -0.0040783156 0.0011333317 -0.001261155 0.0031648043
0.0048843264 -0.0029639774 -0.0037036312 0.0023687736 0.001843058 -0.001894304 -0.001148847 -0.004389319
-0.00041032545 -0.0022126806 -0.0008966835 0.0038960373 -0.001692217 0.0023747024 0.0044240383 0.001261937
0.0038608392 -0.0028145125 -0.002373054 -0.002570157 -0.00047950976 -0.0033693877 -0.0031302308 0.0040561436
0.0026035008 0.0012369382 -0.0036178287 -0.0043999855 -0.0008886961 -0.00036435318 -0.00085570884 -0.0012048009
0.004307015 0.00044351083 -0.0026526852 -0.0024603624 -0.002421032 0.0006379831 0.00071256096 0.0026463124
-0.00013339768 -0.0042212415 0.003019787 -0.0021147784 0.0038950194 -0.004404907 0.0033413325 -0.0043410943
-0.00091338286 0.00014215778 -0.004403683 0.0022306528 -0.004656114 -0.0017289943 -0.00097589317 -0.0017279233
-0.0011202631 -0.0033140085 0.00018743624 -0.0019870466 -0.0005718108 0.0030286738 -0.003593931 0.002599911
0.0008915873 -0.0017117508 0.002501861 0.00045126793 0.0036989732 -0.0034433543 0.0030834347 -0.003911997
-0.0007065404 -0.0040192935 0.0002587443 0.002255018 0.0032110366 0.00045653773 0.0028358873 0.00240724
0.0005502262 0.0029416503 -0.0033550572 -0.003324719 0.00035110238 -0.0005781378 -0.0019154408 -0.0010681399
-0.0042486205 0.0045406744 -0.00056206726 -0.0015295508 0.00010147215 0.0036644028 0.0002910196 -0.00060124724
-0.0022973418 -0.00033855133 0.0014477426 0.003477892 0.00042342924 0.0028779611 -0.001624878 0.0043084114
-0.0018366079 -0.0035829653 0.0037547455 -6.149749e-05 0.0019744327 0.0041730017 -0.003941745 -0.00040212958
0.0029848465 -0.0045814607 0.0021280437 -0.0028158475 -0.0013651041 0.0038250117 -0.0037403184 0.0036407167
0.0026159605 -0.003403515 -0.00079890183 0.0012945926 -0.0015038472 0.0019604943 -0.003777953 -0.0011601776
1.27544645e-05 0.00015800915 -0.002551726 -0.0006350468 0.001457389 -0.0010535684 0.0039260555 -0.0001314447
-0.0036065634 -0.004956172 0.00058025337 0.00048413163 -0.000727061 0.0028123853 -0.0028393476 -0.0036753938
0.00078633043 -0.0034169934 0.002665866 -0.0003925088 0.0010329821 -0.0042988593 0.0012340843 -0.002148838
-0.00022162404 -0.0026365651 -0.0039542066 0.001184291 0.0045809536 -0.0011525421 6.112145e-05 -0.0010450854
0.0041353945 -0.003378282 0.00010697806 -7.5221724e-05 0.0044313064 0.0012022147 -0.00075232313 0.0013506331
-0.002658905 0.003449716 -0.0020960802 0.0013322684 0.0037485734 0.0022755824 0.00039652572 -0.0011554145
0.0044183824 0.0012031214 -0.0027891642 0.004217265 -0.002853621 -0.002148708 -0.00068118615 0.003626009
-0.003820506 0.0008901258 0.00066302856 -0.0024710877 0.0023118115 0.0024614464 -0.0040069995 0.004091742
0.003946352 0.0020235078 0.0031176363 -0.00026915089 0.0028811812 -0.0010871213 0.00090581086 0.004395794
-0.0021379248 -0.0014392267 -0.003867117 -0.00015170309 -0.004466825 -0.0030052336 0.0021671997 0.0013336332
0.004614479 -0.0044913236 -0.0043581123 -0.0009840757 0.0016063718 -0.0032765195 0.001199536 -0.00081515533
00000000: c8f3 daba dd39 913b 2544 883b 7615 7d3b
00000010: 7aa2 73bb bb5c 8bbb 1b6c 8dbb 9ed6 763a
00000020: 86c8 323b 1180 72bb ce23 e4ba b66f 87bb
00000030: d72e 953a b819 023b 2ca6 6b3b c9e1 153b
00000040: eefb 6cbb 17b0 f439 f860 21bb 571b 7cbb
00000050: 157a b83a 5473 8c3b 3c31 11bb 4fc3 77b9
00000060: 8343 943b dcc4 023b add0 743b ea4d 85bb
00000070: 2d39 6c3b 3b9a 3dbb 0fac 18bb 5ad3 873a
00000080: fbdd 32bb f07d 96bb 5eda 403b e6d5 97bb
00000090: 64a3 85bb 4d8c 943a 574d a5ba 9b68 4f3b
000000a0: b30c a03b 4a3f 42bb 9fb8 72bb 6d3d 1b3b
000000b0: c492 f13a 4b4a f8ba e994 96ba 47d4 8fbb
000000c0: f320 d7b9 9f02 11bb 690f 6bba a954 7f3b
000000d0: 61cd ddba e5a0 1b3b 86f7 903b 9467 a53a
000000e0: 2206 7d3b af73 38bb 3d85 1bbb 1470 28bb
000000f0: b666 fbb9 f2d0 5cbb 8f24 4dbb 66e9 843b
00000100: 7f9f 2a3b c220 a23a 1819 6dbb c12d 90bb
00000110: 63f7 68ba a806 bfb9 a651 60ba 69ea 9dba
00000120: dc21 8d3b 0487 e839 acd8 2dbb 083e 21bb
00000130: 2daa 1ebb 523e 273a 28cb 3a3a c16d 2d3b
00000140: abe0 0bb9 5752 8abb 9ee7 453b 1898 0abb
00000150: 9543 7f3b 0a57 90bb 42fa 5a3b bd3f 8ebb
00000160: 1670 6fba 3010 1539 c54c 90bb 2530 123b
00000170: 5192 98bb 6c9f e2ba 15d3 7fba 7c7b e2ba
00000180: cbd5 92ba d62f 59bb 888a 4439 1c39 02bb
00000190: 93e5 15ba b77c 463b 2888 6bbb 4563 2a3b
000001a0: 69b9 693a d35c e0ba 43f6 233b 2898 ec39
000001b0: 796a 723b e6a9 61bb 7313 4a3b 3630 80bb
000001c0: 2037 39ba 47b4 83bb 12a8 8739 edc8 133b
000001d0: 4170 523b 755b ef39 4bda 393b c9c2 1d3b
000001e0: 0e3d 103a b4c8 403b 85e0 5bbb 87e3 59bb
000001f0: 2a14 b839 2c8e 17ba 870f fbba d400 8cba
00000200: 0338 8bbb f0c9 943b b257 13ba 357b c8ba
00000210: 72cd d438 7a26 703b fd93 9839 059d 1dba
00000220: 008f 16bb 977f b1b9 2ec2 bd3a 58ed 633b
00000230: b6ff dd39 2d9c 3c3b dcf9 d4ba 932d 8d3b
00000240: 56ba f0ba 2fd0 6abb 2d12 763b 37f8 80b8
00000250: 7c65 013b adbd 883b c129 81bb ebd4 d2b9
00000260: 6a9d 433b 1420 96bb a676 0b3b 158a 38bb
00000270: 4bed b2ba 0cad 7a3b 2120 75bb 1799 6e3b
00000280: 8970 2b3b 820d 5fbb 656d 51ba 52af a93a
00000290: bd1c c5ba a37b 003b 8997 77bb 1a11 98ba
000002a0: 02fc 5537 42af 2539 dc3a 27bb 4579 26ba
000002b0: dc05 bf3a e417 8aba 24a6 803b 6bd4 09b9
000002c0: 185c 6cbb 6267 a2bb 251c 183a 0cd3 fd39
000002d0: 3d98 3eba ff4f 383b 5914 3abb e0de 70bb
000002e0: be21 4e3a a3ef 5fbb cfb5 2e3b a4c9 cdb9
000002f0: 2165 873a 72dd 8cbb ffc0 a13a 85d3 0cbb
00000300: c063 68b9 39ca 2cbb 4a92 81bb 363a 9b3a
00000310: d31b 963b e510 97ba 542e 8038 3ffb 88ba
00000320: 3482 873b 2b66 5dbb 6959 e038 5bc0 9db8
00000330: 7e34 913b a293 9d3a 8d37 45ba ba07 b13a
00000340: 0641 2ebb a114 623b 645e 09bb 829f ae3a
00000350: a0aa 753b f021 153b c8e4 cf39 4771 97ba
00000360: 14c8 903b 0eb2 9d3a 69ca 36bb fc30 8a3b
00000370: d103 3bbb 57d1 0cbb a191 32ba 56a2 6d3b
00000380: 7461 7abb 5557 693a 18cf 2d3a f9f1 21bb
00000390: c381 173b 3850 213b 264d 83bb 0514 863b
000003a0: 6650 813b d49c 043b 4251 4c3b d21c 8db9
000003b0: 33d2 3c3b bd7d 8eba f073 6d3a 980a 903b
000003c0: 6d1c 0cbb 6fa4 bcba 756f 7dbb 7d12 1fb9
000003d0: 725e 92bb 74f3 44bb 9407 0e3b 4ecd ae3a
000003e0: 0e35 973b f42b 93bb 7fce 8ebb 1afc 80ba
000003f0: e58c d23a e0ba 56bb c039 9d3a 26b0 55ba

layers.2.bias f4 [256]
0.029936858 0.036395535 -0.023771236 0.036007125 0.023936544 0.019191088 -0.0354167 0.0050646807
0.017222734 -0.04378844 -0.05776389 0.010288723 -0.028442096 0.027919896 -0.022136334 -0.032340195
-0.0120554315 0.026101125 0.060144477 -0.04109669 0.03445787 0.039833162 0.011200221 -0.0069990153
0.0125603285 0.00446144 -0.058138825 -0.031810284 0.00016648104 -0.024747279 0.04114594 0.028589869
-0.02667041 -0.0013611994 -0.032282107 0.0027733794 0.017427834 -0.059886232 0.057158615 0.025261614
0.037931077 0.009767615 0.010886694 -0.04450819 0.042715754 0.045705866 -0.0051834327 -0.031716008
0.03310323 0.045160327 0.006833233 0.05469119 0.035929084 0.02029254 -0.06229685 -0.009844499
0.026437512 -0.062165365 0.013850802 0.019932192 0.02543218 0.05176799 0.023895402 0.015014714
-0.053234044 -0.050167333 0.045620717 0.03474392 0.011856833 -0.023189163 0.04515338 -0.02231664
0.03038149 -0.007352872 0.033331025 0.02215856 -0.009157726 0.021226605 -0.032456994 -0.035745367
0.026835859 0.02572848 -0.009613491 0.0017720958 -0.029463362 0.044920903 -0.014313467 0.017397476
-0.012780276 0.043314245 -0.0445749 0.041240927 0.061212443 -0.04133764 -0.05325754 0.032516554
0.015404803 0.038927 0.010386779 0.02169027 -0.029327378 0.050955743 0.017462835 0.0005891423
-0.0036916474 0.013024054 0.015894819 0.041161515 0.009645239 -0.020709792 0.028736442 0.061765313
0.028734699 0.04662874 -0.037026744 0.024924457 0.058671504 -0.041940846 0.006604539 -0.018873181
0.011366302 0.042691197 0.018779173 -0.02119506 0.05602633 -0.050300427 0.025258098 0.02864545
0.0032897354 -0.043587122 0.04796657 -0.004641932 0.007470355 -0.018788416 0.04435723 -0.03076952
-0.05157838 0.012754286 0.004250598 -0.035006676 -0.02028975 0.0046025226 -0.03088184 -0.027300287
-0.021000411 -0.004245554 -0.048251223 0.012069965 -0.035829358 0.005092526 0.025584118 -0.018953964
0.04204358 -0.055397302 0.048505325 -0.0011566671 0.014326769 0.052932605 -0.06171859 0.009894244
-0.009393036 -0.03203288 0.027041983 0.042455968 -0.020386228 -0.012971134 0.033479333 0.014493056
-0.017417088 0.011156641 -0.04545931 0.05596636 0.022336802 0.042881645 -0.060891703 -0.045304533
-0.024821045 0.047190994 0.013187502 0.056942493 -0.048357155 2.3149856e-05 0.036755666 0.054426212
0.04858498 -0.040511582 0.02675189 0.03636484 -0.030358741 -0.015433652 0.023806589 0.021760745
0.059415095 -0.04946655 -0.00013969041 -0.021080613 -0.04734793 0.04908407 0.032627065 0.045660328
0.0146599915 0.0053793024 -0.04003138 -0.041900296 0.010413012 0.051309016 -0.013144819 0.0009732256
0.033820126 0.025127668 -0.020682128 0.03338858 0.02738141 0.03976743 0.03262145 -0.03927545
0.031032836 0.05033966 0.008935713 0.03804139 0.014096928 0.0014332319 0.036312506 0.044499718
0.037575804 0.00889574 0.020878922 0.017334286 -0.01342454 -0.05565125 -0.044870052 -0.046165865
0.051845316 -0.059519157 -0.058756243 -0.00995291 0.007905916 -0.04371239 -0.0009838318 -0.05449907
0.060949396 -0.028369438 0.03513312 -0.01994656 -0.03677029 -0.023286631 0.045042954 0.009293314
-0.014833067 0.03264587 -0.03282699 -0.036241252 -0.04058113 0.052071422 -0.0019641384 -0.038539913
00000000: 243e f53c 7c13 153d e5bb c2bc 357c 133d
00000010: 9216 c43c a136 9d3c 1a11 11bd 9ff5 a53b
00000020: b116 8d3c 825b 33bd d499 6cbd 0892 283c
00000030: 66ff e8bc 44b8 e43c 4257 b5bc 2777 04bd
00000040: 2584 45bc 07d2 d53c 0e5a 763d 0155 28bd
00000050: b223 0d3d 1928 233d 2281 373c ff57 e5bb
00000060: d6c9 4d3c 4531 923b fa22 6ebd 804b 02bd
00000070: 6a91 2e39 ceba cabc a588 283d 4d35 ea3c
00000080: e77b dabc 466a b2ba 3e3a 04bd 96c1 353b
00000090: d1c4 8e3c 444b 75bd 271f 6a3d 72f1 ce3c
000000a0: 9e5d 1b3d 5908 203c 1b5e 323c 384e 36bd
000000b0: b7f6 2e3d 1336 3b3d c9d9 a9bb a5e8 01bd
000000c0: 4197 073d 09fa 383d 50e9 df3b df03 603d
000000d0: 602a 133d 8a3c a63c fb2a 7fbd d24a 21bc
000000e0: 7b93 d83c 1ca1 7ebd 79ee 623c d648 a33c
000000f0: 2657 d03c ac0a 543d 4ac0 c33c 4600 763c
00000100: f10b 5abd 437c 4dbd cadc 3a3d a44f 0e3d
00000110: 2943 423c 33f7 bdbc c0f2 383d 63d1 b6bc
00000120: 9ae2 f83c 5cf0 f0bb 1d86 083d de85 b53c
00000130: 490a 16bc 6be3 ad3c a0f1 04bd bc69 12bd
00000140: e0d6 db3c 89c4 d23c e781 1dbc ab45 e83a
00000150: 265d f1bc fbfe 373d 0883 6abc 2785 8e3c
00000160: 5d64 51bc 476a 313d 2c94 36bd 3fec 283d
00000170: e6b9 7a3d a851 29bd 9424 5abd 1430 053d
00000180: 6d64 7c3c eb71 1f3d 4f2d 2a3c cbaf b13c
00000190: f83f f0bc f8b6 503d 380e 8f3c ac70 1a3a
000001a0: 91ef 71bb d762 553c da35 823c fa98 283d
000001b0: 1107 1e3c 95a7 a9bc b068 eb3c a0fd 7c3d
000001c0: 0865 eb3c c7fd 3e3d 5ba9 17bd 602e cc3c
000001d0: 8851 703d 2aca 2bbd e46a d83b ee9b 9abc
000001e0: ba39 3a3c f7dc 2e3d c8d6 993c 43a1 adbc
000001f0: dd7b 653d d207 4ebd 12ea ce3c dda9 ea3c
00000200: 9a98 573b 6988 32bd 9878 443d 591b 98bb
00000210: e1c9 f43b 2aea 99bc edaf 353d 5c10 fcbc
00000220: da43 53bd 5af7 503c 9a48 8b3b 2963 0fbd
00000230: b136 a6bc c2d0 963b eafb fcbc daa4 dfbc
00000240: 0e09 acbc 4a1e 8bbb 13a3 45bd 1ac1 453c
00000250: cec1 12bd 34df a63b c995 d13c 5845 9bbc
00000260: e435 2c3d 48e8 62bd 85ad 463d 4f9b 97ba
00000270: d3ba 6a3c dccf 583d a2cc 7cbd 781b 223c
00000280: 40e5 19bc e934 03bd 2687 dd3c 4fe6 2d3d
00000290: 0501 a7bc e184 54bc a021 093d 4874 6d3c
000002a0: 48ae 8ebc 58ca 363c 8b33 3abd fb3c 653d
000002b0: abfb b63c aaa4 2f3d 9469 79bd 3f91 39bd
000002c0: 8155 cbbc 584b 413d 6410 583c 883c 693d
000002d0: 2712 46bd f031 c237 1c8d 163d 05ee 5e3d
000002e0: 0b01 473d 79ef 25bd c826 db3c 4cf3 143d
000002f0: e5b2 f8bc 6edd 7cbc 0906 c33c 9743 b23c
00000300: 3e5d 733d 709d 4abd dc79 12b9 40b1 acbc
00000310: e7ef 41bd 610c 493d f5a3 053d 5306 3b3d
00000320: 7630 703c dc44 b03b f2f7 23bd a59f 2bbd
00000330: 569b 2a3c 6729 523d 5e5d 57bc 1020 7f3a
00000340: f986 0a3d 8ad8 cd3c 916d a9bc 77c2 083d
00000350: fb4e e03c 2ce3 223d 129e 053d 4bdf 20bd
00000360: 9338 fe3c f630 4e3d 1967 123c 4ad1 1b3d
00000370: cdf6 663c 48db bb3a 6cbc 143d 5645 363d
00000380: 16e9 193d 70bf 113c 460a ab3c a200 8e3c
00000390: 9af2 5bbc 91f2 63bd a9c9 37bd 6b18 3dbd
000003a0: c15b 543d 5cca 73bd 63aa 70bd 8811 23bc
000003b0: d187 013c c30b 33bd ebf3 80ba 6b3a 5fbd
000003c0: 13a6 793d 0667 e8bc bfe7 0f3d f866 a3bc
000003d0: 729c 16bd 9bc3 bebc f67e 383d fc42 183c
000003e0: 6406 73bc adb7 053d 9875 06bd b571 14bd
000003f0: 6638 26bd d848 553d c6b8 00bb 07dc 1dbd

layers.3.weight f4 [2, 256]
-0.0024725234 -0.0010194995 -0.0007301072 0.0035491043 -0.00031197496 0.00059055845 -0.0025598726 -0.0022361665
0.0031892306 0.0006249674 0.0008744866 0.0022812164 -0.0018517851 -0.002407585 -0.0006996093 -0.0032114463
0.000814812 -0.0018597945 0.0007691164 -0.0038725822 -0.004336057 -0.0032855691 2.4685047e-05 -0.0026007027
0.00043109263 0.004148665 -0.0022367963 0.003535968 0.00050653075 -0.0014395269 -0.00022152365 0.0015361675
-0.0032830117 -5.5476565e-05 0.0024310946 -0.0028391266 -0.0005073519 -0.00085390813 -0.0026565492 0.00022397381
0.0019257677 0.002442823 -0.0010770721 0.00064655876 -0.0040895436 0.00034437055 -0.0016353833 0.0032484818
0.0038977305 -0.0021141076 -0.0014576513 0.0035146754 -0.0021577731 0.0016124625 -0.0021519526 -0.0034047086
-0.0003713028 -0.00026632712 -0.0004150226 0.00031010545 0.0022273671 0.0035545365 -0.0008327158 0.000327591
0.0022887196 0.001120027 0.0019572612 0.0016462136 0.00085912726 -0.004145886 -0.0032763162 -0.002652856
0.00328349 -0.0010259306 0.0032397478 0.0017145764 -0.0015214881 0.00022593314 -0.00010405631 0.0042326585
0.0037671393 0.0027957421 -0.0013578607 0.0027675102 -0.0024950458 -0.004409283 0.0030959714 -0.0017522757
-0.0027836077 0.0037685584 -0.000365433 0.0004705971 0.00097503443 -0.0017518053 0.0010708265 -0.003029565
0.0046529127 0.004023728 0.0017716355 -0.0036003743 0.00024836636 -0.0010700681 -0.0033091353 0.0009544105
-0.0041550887 -0.0009133946 -0.0014173244 0.0013102182 -0.0020332607 0.003171763 -0.0040928074 -0.0026033258
-0.0045196447 0.0029193761 0.0031975927 0.00095525285 -0.0028071648 -0.0017189732 0.0012947008 -0.0005389529
-0.0044847373 0.0024554483 -0.0034602934 -0.0011167785 0.0002722317 -0.00063702365 -0.0029810423 0.002044136
-0.0016964437 0.00082388124 0.003803252 0.001939815 0.0033260537 -0.0018210275 0.0028119546 0.00056763185
0.0027458575 -0.0002979544 -0.0033118438 -0.000734714 -0.0020225074 9.1856804e-05 0.0013175483 -0.0043015517
0.002978772 -0.0008302663 -0.00013246095 -0.00012223206 -0.001006047 0.00082009344 -0.0024419315 -0.00094506226
-0.003190544 0.0037251357 0.0043294504 0.00025524778 -0.00028757745 -0.0026991866 -0.0038065584 0.0038484717
-0.0013028685 -0.0037401668 -0.0029267366 0.002715467 -0.0032342374 -0.0020746025 0.0020978986 -0.0017604473
-0.00037478638 0.002691072 0.00034676082 -0.0036408221 0.002451537 -0.0028074726 0.0029474893 -0.003895844
-0.0004486595 -0.003999546 0.0010206905 -0.0033642913 -0.0038460426 -0.00454185 -0.0034156868 -0.0041863928
-0.002754426 -0.0046968474 0.0040205717 0.0014967872 -9.52756e-05 0.004346304 -0.0010877334 0.001027772
-0.00332967 0.0013314234 0.0021173544 -0.0035822762 0.0004707412 -0.0041118963 -0.0004391186 0.0032917382
-0.0034720653 0.0022207487 0.00032787456 -0.0035673461 -0.0024670206 -0.004314435 0.0030176311 0.0014788706
-0.00064670894 0.0037088797 0.0007234368 0.0011841201 -0.0008696972 0.0017633152 0.0023038199 0.00359763
0.0040265718 -0.003038276 -0.003141098 -0.0007289585 -0.00029217426 -0.004188602 0.0032585766 0.0039358637
-0.0034120036 -0.00020172875 0.0029080764 0.004468504 0.0015057957 -0.0022081311 0.0042412747 -0.0018994277
-0.00018545124 0.0032774594 0.0012237163 -0.0010152926 -0.00041766698 -0.0007896389 0.0034148514 -0.00042157175
-0.0038095252 -0.0017113477 0.0022628927 0.0016377227 -0.00021079068 -0.0013786934 -0.0045424593 0.0032038344
-0.0046400297 0.003902619 0.002413531 -0.003881039 -0.004113622 0.0029213454 0.0023112462 -0.0038407221
00000000: 0f0a 22bb baa0 85ba aa64 3fba 1798 683b
00000010: 9290 a3b9 b5cf 1a3a 89c3 27bb a68c 12bb
00000020: 6902 513b dad4 233a cd3d 653a 7680 153b
00000030: 99b7 f2ba 93c8 1dbb fc65 37ba 2177 52bb
00000040: 1c99 553a 59c4 f3ba 879e 493a 26cb 7dbb
00000050: 7c15 8ebb b452 57bb bc12 cf37 8d70 2abb
00000060: 4604 e239 86f1 873b 3797 12bb b3bb 673b
00000070: b4c8 043a 82ae bcba cd48 68b9 3a59 c93a
00000080: cc27 57bb 82af 68b8 0053 1f3b a410 3abb
00000090: cfff 04ba ced8 5fba 8019 2ebb 83da 6a39
000000a0: 0b6a fc3a c517 203b 8b2c 8dba d37d 293a
000000b0: 9401 86bb a28c b439 5c5a d6ba 7be4 543b
000000c0: 1171 7f3b d78c 0abb a90e bfba 7856 663b
000000d0: 6d69 0dbb 4359 d33a c607 0dbb 8821 5fbb
000000e0: 6bab c2b9 d2a1 8bb9 6497 d9b9 a695 a239
000000f0: 05f9 113b 3af3 683b 9d4a 5aba 85c0 ab39
00000100: 58fe 153b dfcd 923a 6545 003b c3c5 d73a
00000110: 0e37 613a 36da 87bb 77b7 56bb 8adb 2dbb
00000120: d22f 573b 8578 86ba f351 543b a3bb e03a
00000130: ab6c c7ba 77e8 6c39 ce38 dab8 1db2 8a3b
00000140: 1ce2 763b c538 373b 3ffa b1ba 1e5f 353b
00000150: ec83 23bb bf7b 90bb c8e5 4a3b 9eac e5ba
00000160: 306d 36bb ebf9 763b 9697 bfb9 79ba f639
00000170: 7499 7f3a d59c e5ba fa5a 8c3a ab8b 46bb
00000180: 7677 983b 7ad9 833b 3936 e83a 42f4 6bbb
00000190: 2b37 8239 8741 8cba 14de 58bb 6831 7a3a
000001a0: 6927 88bb e070 6fba 84c5 b9ba a1bb ab3a
000001b0: 7440 05bb 5add 4f3b f51c 86bb 8f9c 2abb
000001c0: 8719 94bb 0153 3f3b b48e 513b ef69 7a3a
000001d0: 69f8 37bb 2b4f e1ba f3b2 a93a 8448 0dba
000001e0: b4f4 92bb 96eb 203b 17c6 62bb de60 92ba
000001f0: 52ba 8e39 effd 26ba 975d 43bb e9f6 053b
00000200: 345b deba bcf9 573a fb3f 793b 6441 fe3a
00000210: ecf9 593b 8baf eeba c548 383b 21cd 143a
00000220: d8f3 333b c336 9cb9 850b 59bb d299 40ba
00000230: 0b8c 04bb 3fa3 c038 96b1 ac3a 08f4 8cbb
00000240: 8037 433b 3aa6 59ba 37e5 0ab9 6b2b 00b9
00000250: 56dd 83ba 8afb 563a d008 20bb 0ebe 77ba
00000260: 7218 51bb 6821 743b 10de 8d3b c7d2 8539
00000270: fec5 96b9 d6e4 30bb 7477 79bb a436 7c3b
00000280: 03c5 aaba 961d 75bb 7ece 3fbb faf5 313b
00000290: 80f5 53bb 0ef6 07bb e67c 093b cfbe e6ba
000002a0: fa7e c4b9 b25c 303b 73cd b539 dc9a 6ebb
000002b0: f7a9 203b 93fd 37bb aa2a 413b 6b51 7fbb
000002c0: 0f3a ebb9 a00e 83bb b1c8 853a 717b 5cbb
000002d0: e30d 7cbb cdd3 94bb b7d9 5fbb 022e 89bb
000002e0: 9a83 34bb 03e8 99bb 00bf 833b d82f c43a
000002f0: b3ce c7b8 716b 8e3b 4792 8eba 4eb6 863a
00000300: 9836 5abb 2883 ae3a 50c3 0a3b 9fc4 6abb
00000310: d0cd f639 16bd 86bb 8039 e6b9 34ba 573b
00000320: 978b 63bb fb89 113b 94e6 ab39 23ca 69bb
00000330: bdad 21bb 1b60 8dbb 73c3 453b aad6 c13a
00000340: e787 29ba ad10 733b 06a5 3d3a 7a34 9b3a
00000350: 64fc 63ba 0a1f e73a affb 163b 37c6 6b3b
00000360: 55f1 833b d01d 47bb e1da 4dbb 9417 3fba
00000370: f72e 99b9 8a40 89bb d88d 553b 6bf8 803b
00000380: ec9b 5fbb 2687 53b9 6d95 3e3b 876c 923b
00000390: 1f5e c53a 4bb6 10bb 64fa 8a3b 38f6 f8ba
000003a0: b075 42b9 a5ca 563b 1b65 a03a 9113 85ba
000003b0: 50fa dab9 c5ff 4eba b3cb 5f3b 6706 ddb9
000003c0: 3aa9 79bb 4d4f e0ba 0a4d 143b dba8 d63a
000003d0: b107 5db9 46b5 b4ba e9d8 94bb 6cf7 513b
000003e0: 640b 98bb 15c3 7f3b 552c 1e3b 0859 7ebb
000003f0: 90cb 86bb 0b74 3f3b 4778 173b a0b4 7bbb

layers.3.bias f4 [2]
-0.05639567 -0.03199072
00000000: 25ff 66bd b408 03bd
