old_figures/up2sept/559-SIREN-ncc-1e-05-2500-10000/epoch-500.pth (torch, 534808 bytes, 8 tensors)

layers.0.weight f4 [256, 2]
00000000: 4b31 a5bd b1d5 4c3e 7651 c4be abde 8c3d
00000010: 5f63 e9be 76b6 9e3e ef78 f83e 13e3 36be
00000020: dc79 973d 6207 84be aaa2 a3be 077c 81be
00000030: 3ad1 73be 71be c23d cf23 6dbd c9ea 0d3d
00000040: f4de c3be 41ce a0be 8d76 ddbe 7108 b8be
00000050: ac38 d63e d931 3e3e 4e15 f4be dab1 aabd
00000060: 0078 243d 9395 883e 296a ed3e 1d95 f63d
00000070: 8144 b43e 5925 36be 91a3 82bc 2d37 9abe
00000080: c89f ec3d fdff eb3e 9aa2 a03e 908f fe3e
00000090: 2649 66be 46be 7fbd 884a d33d db9a cd3e
000000a0: 5c2a ebbe 2494 7bbe 0b41 943d 590e 94be
000000b0: 3d49 3f3e 9786 0bbd 01df 04be 2c41 893e
000000c0: cdf5 b63e 4fd2 f83e de7b 673e 3c8b 5abc
000000d0: c00b d13e 9ab1 cb3e 023b 80be b602 693e
000000e0: cd06 713d 7f08 5dbe 2975 f4bd 35bb f0bd
000000f0: 3bfa b2be 171f 1cbe 6b1c 2c3e 7296 bb3e
00000100: 5fef 1a3d 65ce f7be 0776 873e 16b8 1abe
00000110: bc9f e43e 0528 f7be 4a79 efbd 0aa0 c63e
00000120: 9c31 5d3e 7323 7fbe 7e81 ddbe 6522 b6bb
00000130: 37d2 453e e966 d4be 8143 d6be 3afd d7bb
00000140: 1363 d1bd 48a7 a43e e317 f8be 96c9 a2bd
00000150: cc3d c6be 7f68 94bd 15ce 82be 1a53 213e
00000160: ca1b d6be b335 c9be 83fc 90be 4916 e0be
00000170: 0a5b a13e b76a 92bd b939 8ebe b770 b33e
00000180: c6a1 e8bd d83f 843e 8dd6 1ebe acf6 d5be
00000190: 5bc4 df3d 9563 9f3e 0683 f9be a838 543d
000001a0: 58ca cb3d 7b8c 6a3d 549e 49bc 90f5 1ebe
000001b0: e979 c6be a728 a63d 61bf abbe 5163 d3be
000001c0: f466 24be f344 afbe 39a6 1c3e 2628 b63e
000001d0: 17b9 c63e f989 9ebe 4e82 8b3e 89ef b53e
000001e0: 6ba9 c93b fa90 573e 1ddb 903e d8de c33e
000001f0: 84eb 883e cc87 5a3e 29cd 41be c989 8ebe
00000200: 5cfa 72be 2f71 d23e c7dc f7bd ad4b 913c
00000210: 11a3 eebe cb70 b3bc 4da2 10be a420 a5be
00000220: af1d c63e bce6 cebe 1e5a 92bd 90fb 0fbd
00000230: 3a6e e7be 8db2 9a3e 0ae1 22be 1b0a 663e
00000240: 02d7 8e3e 87b2 e13e 6077 fd3d f6fa bf3e
00000250: ca39 ec3e 6bbc ca3d 4145 d1bd 60e6 0bbe
00000260: 7cb5 a53d ac18 383e 5c42 f1be 66e1 bf3e
00000270: 0e0f a23d f667 eebe 9ab9 233e 2452 a23e
00000280: f60b 3f3e 33a6 d03e 5464 2a3c b242 d4be
00000290: f222 bbba 44fe b93e 6dbf 75be 67d2 5a3e
000002a0: d4ed eb3d 98cb a5bd b2a0 793b 60c9 593e
000002b0: c64d afbe 0c80 a13e 9725 ad3e fa94 8f3e
000002c0: aa92 ff3e bd75 b4bc e0a5 b4be 6c15 bc3c
000002d0: 4d37 15be 0bba 343e 1789 d83e 79f5 8bbe
000002e0: 6a10 ac3c 8bae f83e 3f4a ccbe 550b b0bd
000002f0: e119 f83e 0af7 b23e c1b8 143e 8f8f 5cbe
00000300: bb83 3fbd d93d e5be 0506 f1be 60b2 efbe
00000310: 5afa f53e 554c ca3e 13fa 4a3e f47b 00be
00000320: dc28 dc3e 5f5b 07be 4cac b13e bd58 83bc
00000330: b760 70be a7c1 0ebe 3e2f dbbd fa38 eabe
00000340: 1806 193e eee3 1bbe dba1 6a3e 32f2 a23e
00000350: d350 a2bd e780 783e a7ab cc3d 96c1 ab3e
00000360: 2b32 a5be 39ee 34bd 9be0 2abe 5a24 e03e
00000370: de6d e5be e3d3 8fbe 4eef 663d 4514 e33e
00000380: cfd9 ac3e c849 efbe 72ce b3be 42f1 f73e
00000390: 3677 953d 5a29 dbbe 6f1e 21be f5dc 5f3e
000003a0: eb41 d6bd 3d9e c4be 75f4 9dbe 5f9b 84be
000003b0: af10 a1bc fa67 483e 0c2c 763e fc5a 78be
000003c0: 0e83 acbd efa2 c5be de6a c13e be2d ff3e
000003d0: 2395 f83e 362f 513e d430 dabd 816a 4abc
000003e0: 8195 383e 77cf ddbe 5f03 fe3c 0beb cfbe
000003f0: 92b7 ffbe eff3 87bc 40cb 22be 702f a2be
-0.080660425 0.20003392 -0.383434 0.06878408 -0.45583627 0.30998582 0.48529765 -0.1786006
0.0739629 -0.25786883 -0.3196004 -0.25289938 -0.23810282 0.0950898 -0.057895478 0.034647737
-0.38256037 -0.3140736 -0.4325451 -0.3594394 0.41840112 0.18573703 -0.47672504 -0.08334704
0.040153503 0.26676616 0.46370056 0.1204016 0.35208514 -0.17787685 -0.015947135 -0.3012022
0.11553913 0.4609374 0.31374055 0.49718904 -0.22488841 -0.06243732 0.1031695 0.40157208
-0.45930755 -0.2456823 0.072389685 -0.28917196 0.18680282 -0.0340639 -0.12975694 0.26807535
0.35734406 0.48597953 0.22605845 -0.01333886 0.40829277 0.39783937 -0.2504502 0.2275494
0.058844376 -0.21585272 -0.11936409 -0.11754457 -0.34956536 -0.15246235 0.16807716 0.36638218
0.03782594 -0.48399654 0.26457235 -0.15109286 0.44653118 -0.4827272 -0.11693056 0.38793975
0.21600956 -0.24915867 -0.43262857 -0.0055582994 0.19318472 -0.41484764 -0.41848376 -0.0065914663
-0.10223975 0.32158875 -0.48455724 -0.07948606 -0.38719022 -0.072464935 -0.25547853 0.15754357
-0.41818076 -0.39298782 -0.2831765 -0.43767002 0.3151477 -0.071492605 -0.27778414 0.35046932
-0.11358981 0.2582996 -0.15511532 -0.41789758 0.10926124 0.31130663 -0.48732775 0.051811844
0.099507034 0.05726288 -0.012305815 -0.15523362 -0.38764885 0.081132226 -0.33544448 -0.4128671
-0.16054899 -0.34232292 0.15297784 0.35577506 0.38813087 -0.3096464 0.27247852 0.35534313
0.0061542294 0.21051398 0.2829217 0.38255954 0.26742184 0.21340865 -0.18925919 -0.27839497
-0.23728317 0.41101977 -0.12102657 0.01773628 -0.46608785 -0.02190437 -0.14124413 -0.32251465
0.38694522 -0.4041041 -0.07146095 -0.035152018 -0.45201284 0.30214348 -0.15906158 0.22464792
0.27898413 0.44081518 0.123762846 0.37496156 0.4613784 0.09899219 -0.10218287 -0.136621
0.08091256 0.17978162 -0.4712094 0.37476653 0.07913028 -0.4656369 0.1598877 0.31703293
0.18656906 0.407518 0.010399897 -0.41457134 -0.0014277382 0.36326802 -0.23998804 0.21369325
0.115199715 -0.08095473 0.0038090167 0.21268225 -0.34239024 0.31543005 0.3381774 0.28043348
0.49916583 -0.022028798 -0.35282803 0.022959433 -0.14571877 0.17649095 0.4229209 -0.27335718
0.02100392 0.48570666 -0.39900395 -0.085959114 0.48457244 0.349541 0.14523603 -0.21539138
-0.046756487 -0.4477375 -0.47074905 -0.46815777 0.48042566 0.39511362 0.19821958 -0.12547284
0.42999923 -0.13218449 0.34701765 -0.016033525 -0.23474394 -0.1394106 -0.1070237 -0.45746595
0.14943731 -0.15223667 0.22913305 0.31825405 -0.07925572 0.24267922 0.099936776 0.33546132
-0.32264838 -0.0441725 -0.16687243 0.43777734 -0.44810385 -0.28091344 0.056380562 0.44351402
0.33759925 -0.46735978 -0.35118443 0.48426253 0.07298128 -0.42804986 -0.15734266 0.21861632
-0.104617916 -0.38401976 -0.30850568 -0.2589979 -0.019661276 0.19570914 0.2404024 -0.24253458
-0.08423434 -0.3860087 0.37776846 0.49839586 0.48551282 0.20428166 -0.106538445 -0.012354494
0.18025781 -0.43322346 0.031007467 -0.4060901 -0.4994474 -0.016595809 -0.15897846 -0.31676817

layers.0.bias f4 [256]
00000000: 8b5f 07bf 2a4f fd3e d642 d03e 9bf9 31bf
00000010: 7cf6 0dbf 818a eebe cd02 c4be 8d28 b53d
00000020: 38fa 32bf 7337 06bf fd50 a53e 43f4 6cbe
00000030: fe0f 90be 7dce 15bf 96aa 923e c8af 4b3d
00000040: 1f0d 8cbe c793 ddbe 4329 1a3e 6728 453e
00000050: b4a1 a03e 1a80 573e 03da dcbd 2a14 0cbf
00000060: 3d9a e63e 1950 cbbb 2098 f0be 151a 1c3f
00000070: 2ed9 c93e 9e31 0ebf 0ab9 b4be e973 76be
00000080: 4203 d1be 8e1f a93e 0224 01bf 5a53 283f
00000090: a198 95be d998 d53e 9307 c53c dc51 9fbe
000000a0: e3cd f13e fa16 0abf c163 bfbe c87d ad3d
000000b0: fd93 0f3f b80d 9bbe c750 dcbe 7a17 e7be
000000c0: 728b 9fbe 0610 7abe b4d2 28be d1e2 cdbe
000000d0: f0d3 613e 6e5f ba3b 0a7a ecbe 19cb cebe
000000e0: 09fc 183e 6e51 26bc 4819 003f 9cb3 dbbd
000000f0: 5fb3 12bf f6c6 05bf 6c8b 54be ef97 20be
00000100: ece4 a43d ce1e 23be ca89 853e 3c26 71be
00000110: 8edb 043f 4f76 263e a54f 5ebe ec57 213f
00000120: 6e27 393e 3534 f6be a548 c9be 980a e33e
00000130: d8a1 a53e 4950 0d3f 21cf 5ebd 0a4b fd3e
00000140: 454b b43e 5144 603e 6c3b 27be b17b 2e3f
00000150: ead3 123e 06de 3abe 872d 25bc a202 323f
00000160: e210 f33e 0822 57bd 0685 313f e011 9f3e
00000170: bdae c0be 3fb2 24bf 8350 d23e 9ec5 293f
00000180: 31e6 d2be 58b0 943e aaab f23c 54f3 1abe
00000190: b3c0 44be ae8a 493e 0ba0 1f3e 70a0 f43e
000001a0: bf8a 843e f2d0 a43e 71b7 1f3f 7f71 613e
000001b0: 4554 d63d f8d1 83be acc3 043f 603b d63d
000001c0: 9f32 e93e 62b7 2e3f 1fee 21be b2c9 fe3e
000001d0: 0e0e 13be e54b 233f ba82 0e3f 10ca 81be
000001e0: a238 d13c e1ea 9dbe 7c5a 92be 8033 12be
000001f0: 8a6e 94bb 1921 7cbe abe3 2abf 22e1 dabe
00000200: 3369 77bd e161 67be 4483 063f 3c43 133f
00000210: 29c0 e63e fc56 a03e 4278 0fbf fe10 2b3f
00000220: 5d7f 1fbf 925e 6dbe ecc8 febe e641 823e
00000230: 5a9c 16bf 418a b2be b5e9 e5be 44b5 debe
00000240: 80fe a8be 68f6 313f 0e29 6dbd 499b 5c3e
00000250: 03b8 33bf 31ea 203f 84de 1dbe 290f 26bf
00000260: 56a2 f93e 5568 43be 1565 243f 9ded f5be
00000270: e51e 28bf 22fb 07bf 2dec 9c3e b9ba a1bd
00000280: 91a6 27bf 6786 063e ee56 38bd 12dc 823e
00000290: de21 b8be 6825 01bf 07cd f63e f436 aebe
000002a0: 9cd6 fe3e abc5 123f d920 fdbe 3700 a7be
000002b0: 480b af3d 98b4 2abf d902 5e3e a501 97be
000002c0: f397 a0be 9ed8 0bbf 3442 a93e 8e9a e6be
000002d0: efa9 10bf ad6a 3ebe decc c9be 4603 30bf
000002e0: 4f26 923e 72bc 89be 78e0 fd3e 91cc fe3e
000002f0: 0af7 e6be b2fd d2be 035b 80be 8f00 d43e
00000300: de4c c9bc 17ac 81be 6f66 e03e 3086 2b3f
00000310: c6d3 053f 4a6f 0abf bf30 16be 25f1 0abe
00000320: 577e 1a3f a14a bbbe 2f7d cfbe 162f 373c
00000330: e85e 28be 7520 893e 80ef b03d ace2 d7be
00000340: da9d 033f 7d85 e13e 92c0 1e3e acbc 23bf
00000350: 6913 aa3e 8980 f03e 50be 493e 6ddc 8bbe
00000360: 4961 3f3d f642 8bbe 9e69 2a3f fec8 2e3f
00000370: 1d0d a9bd 48a0 f3be 45ee d43e babb b83e
00000380: 4315 c03e 6015 08bf 6c41 753e ad8c 9abe
00000390: 6825 1fbf 13d0 fcbe b46c 993e bba6 873e
000003a0: 23f1 1ebf ae3e cd3e cba0 0a3f 4266 093f
000003b0: 9879 cc3e ac90 e3bd 759a f23e fec0 0d3f
000003c0: b6b2 bc3e 9738 02bf 47d5 7cbe 776a 0f3f
000003d0: ebcf 093f 7004 e73e 7e40 97be 0b78 0fbe
000003e0: 47f4 06bf ed69 cebe dcff 0a3f 4791 14bf
000003f0: 560c 33be 3ce0 193e ec25 d9be f168 283e
-0.5288016 0.4947446 0.40675992 -0.6952149 -0.5545423 -0.46590045 -0.38283387 0.08845625
-0.69913054 -0.5242836 0.32288352 -0.23140053 -0.281372 -0.585182 0.28645772 0.049728185
-0.2735376 -0.43276808 0.15054803 0.19253694 0.3137337 0.2104496 -0.1078377 -0.5471827
0.4503955 -0.0062046167 -0.46991062 0.609773 0.39423507 -0.5554446 -0.35297424 -0.24067654
-0.40822798 0.33031887 -0.5044557 0.65752184 -0.2921801 0.41718176 0.024051463 -0.3111714
0.47227392 -0.5394131 -0.37380794 0.084712565 0.5608519 -0.30283904 -0.43030378 -0.451351
-0.31161076 -0.24420175 -0.16486627 -0.4021211 0.22053504 0.0056876456 -0.46186858 -0.40389326
0.14939894 -0.01015125 0.50038576 -0.10727617 -0.5730495 -0.52256715 -0.2075631 -0.15682958
0.08051476 -0.1592972 0.26081687 -0.23549742 0.51897514 0.16256069 -0.2171007 0.63024783
0.18081447 -0.48086706 -0.39313236 0.4434402 0.3235004 0.5520063 -0.054396752 0.49471313
0.35213676 0.2190106 -0.16331261 0.6815749 0.14338651 -0.18248758 -0.010081655 0.6953527
0.47473818 -0.05252269 0.693436 0.31068325 -0.37633315 -0.6433448 0.4107705 0.66317165
-0.41191247 0.2904079 0.029622871 -0.15131885 -0.19214134 0.19681808 0.15588395 0.47778654
0.25887105 0.32190663 0.62389284 0.22015952 0.10465292 -0.2574613 0.5186107 0.10460544
0.45546433 0.6824857 -0.15813492 0.49763256 -0.1436083 0.6378768 0.5566822 -0.25349474
0.0255397 -0.3084326 -0.2858466 -0.14277458 -0.004529779 -0.24622001 -0.66753644 -0.42749888
-0.06040306 -0.22595932 0.52544045 0.57524467 0.45068482 0.31316364 -0.56042874 0.66822803
-0.62303716 -0.23180607 -0.49762666 0.25440902 -0.58832324 -0.34871104 -0.44904867 -0.4349767
-0.33006668 0.6951661 -0.05790048 0.21543612 -0.70202655 0.6285735 -0.15416914 -0.6486688
0.48756665 -0.19082768 0.6421674 -0.48032847 -0.6567214 -0.53117573 0.30648938 -0.07896943
-0.65488535 0.13137208 -0.045004778 0.25558525 -0.3596334 -0.504477 0.48203298 -0.340263
0.4977311 0.5733287 -0.49439123 -0.3261735 0.085470736 -0.66681814 0.21680774 -0.29493442
-0.31365928 -0.54627407 0.3305832 -0.4503979 -0.565093 -0.18595381 -0.39414114 -0.68754995
0.28544852 -0.26901585 0.4958532 0.49765447 -0.4511035 -0.4120918 -0.25069436 0.41406676
-0.024572786 -0.25326607 0.4382815 0.6700163 0.52276266 -0.54076064 -0.14667033 -0.13568552
0.6034903 -0.36580375 -0.40525195 0.01118066 -0.16442454 0.26782575 0.08639431 -0.42165124
0.5141274 0.44047156 0.15503147 -0.63959765 0.33217934 0.46973065 0.19701505 -0.2731661
0.046723638 -0.27199525 0.6656741 0.6827544 -0.08254454 -0.47583222 0.41588035 0.36080724
0.3751622 -0.53157616 0.23950738 -0.30185452 -0.6216645 -0.49377498 0.29965746 0.26494393
-0.62086695 0.40086883 0.541516 0.5367166 0.3993652 -0.11111578 0.47383466 0.5537261
0.36855096 -0.508676 -0.24690734 0.5602183 0.5383288 0.45120573 -0.2954139 -0.14010637
-0.5271649 -0.4031519 0.5429666 -0.58034176 -0.17485175 0.15026945 -0.42411745 0.16446282

layers.1.weight f4 [256, 256]
00000000: 5c27 9c3b 71f3 3db9 de79 75bb 35b7 883b
00000010: a46e adba 921f a3ba 843c 5f3b 678a 68ba
00000020: ec21 aeb8 46d6 87bb ad92 4bbb 866d 433b
00000030: 9cef 7a3b bd79 fd39 3f1f 53b9 08db 893b
00000040: 4a49 c4b9 bdaa 5bbb 70ef 00bb 39f9 463b
00000050: 404d 203b fc39 4c3b 8bf6 b5ba b887 db3a
00000060: 9e49 323b 96da e63a 831c 963b 37d7 0339
00000070: da4d 2a3a 1e8c 2bbb 0ac1 5bba e00f 053b
00000080: a054 8e3b de86 4b3b 2b03 c239 93fa 03bb
00000090: 7f86 5dbb 506e 923a f065 d6ba 58f1 0d3b
000000a0: 0ac9 cdba 5f3b 6a38 edd8 7b3b 19bb 033b
000000b0: 94bc 713b 0180 533b 9c4e 2cbb a77a c9ba
000000c0: 12f9 bf3a 7bf1 133b 3486 67b9 79b9 3cba
000000d0: aa35 363b 8470 12bb da80 4dbb 4823 9f39
000000e0: 1550 443b aca0 39bb b0e7 6dba 9f0c 0d3b
000000f0: 59df 25bb 8161 b9ba 6455 cf3a 29f2 173b
00000100: d99e 853b a435 713b 0d32 5039 8944 b1ba
00000110: 6056 583b 5c95 103a fa24 8b3b f254 1d3b
00000120: 8444 2cbb 1cf9 2abb 9860 dc39 970c 5dbb
00000130: 3517 41ba 40f1 a53a 563a d639 f651 8c3b
00000140: 8a36 273b 3871 073b 11db 883b f367 e4ba
00000150: fbb5 89bb 208f 5db6 302c 143b 0989 f439
00000160: 0587 46ba f1a7 32bb b8f4 3cbb 5e99 c5b9
00000170: e335 893b a67f 9b3b 8f3a b93a 98af f6ba
00000180: d988 44bb dbb4 84bb 4199 843b ae8d 0aba
00000190: ba35 19bb 9e53 4cbb 8f83 793b 1c44 823b
000001a0: 6cc9 b8ba 1b9e 84ba cc51 13bb f87a 57bb
000001b0: 6deb acba c845 013b 16b5 1a3a d759 ee3a
000001c0: 78ad 21bb 2d2d 7b3a 9c05 423a e771 54bb
000001d0: a4b8 333b 462a 69bb 2b60 7eba deb5 813b
000001e0: 9006 323b 0794 dcb8 7e2c 383a 1125 50bb
000001f0: fe1c 393b fac2 853b 674f 64ba feb8 82bb
00000200: 6c2d 5c3b d4d0 23bb acc6 60ba 4448 143a
00000210: 4918 8cba 12f3 7ebb 899e 073b 268f b939
00000220: c8d3 5c3b 1745 84bb fdd2 863b 2c65 85ba
00000230: 1aee 1e3b 1449 54bb d209 87b9 002b 44bb
00000240: 83f5 813b d6a3 34ba 411c ee3a 6cd9 82b9
00000250: 612b 82bb 7a3f 0fbb 30d3 96ba 9a04 0abb
00000260: 4ee8 27bb 8eae 033b 92cc 6f3b 3acb dd3a
00000270: a4d4 4fbb 5579 563b e04e 283a ac15 953b
00000280: 5dd4 e5ba d83a 84b9 7c5a c7b9 b10b 66ba
00000290: 115d 853b 870f 963a 99b7 f33a 6271 163b
000002a0: 97c0 14bb 3336 1a3b ebf9 e7ba b09e faba
000002b0: c921 37bb e666 6cbb 7bf7 1fbb a278 623a
000002c0: b666 9e3a 51bf 3f3b 9887 143a 937c 033b
000002d0: 5ccd 5a3b 2414 a13a 5b7c 91bb 04c0 3e3a
000002e0: 9a15 97ba 3c87 82bb afb2 c2ba 479d 2fba
000002f0: eb78 58bb e100 72bb e494 09bb 4e45 f33a
00000300: 327a 803b 4741 323a 49ad 613b 2a14 853b
00000310: 49b7 0dbb 5402 b63a d086 833a 79b7 603b
00000320: 510c cfb9 0105 863b fcc8 4a3a 31c0 75bb
00000330: c11d 6fba b611 393b beb9 8abb 86ac d83a
00000340: a952 763b 35b9 3dbb 65ad 10bb 55cb 8438
00000350: 524f 4fba 2220 9d3b cbab 2c3b cfda 4aba
00000360: 2d7d daba 9946 f7ba 7d00 5a3b 46b9 203b
00000370: a2a5 35bb 8315 2ab9 7ba7 c9ba 8055 73bb
00000380: ae75 2a3b 6a17 09ba 8073 a03b 5c56 713b
00000390: 579e c5b9 b46b 82ba eab6 f2b9 5195 6a3b
000003a0: 0b22 86bb 794f 723b be1d 73ba b48a 4e3b
000003b0: be63 86bb 6808 5e3b 358e b6ba 899f 1d3b
000003c0: 508c 43bb 31fd dcb7 88c5 85ba f028 cdba
000003d0: ac05 42bb dd56 76bb 02cd cfba 77bf 71bb
000003e0: 46f2 923b b145 1abb 42d3 4a3b 275e aa3a
000003f0: ae2d 01bb 9d24 923a 39e3 a23b 94b6 033a
0.004765434 -0.00018115134 -0.0037456672 0.0041722306 -0.0013231826 -0.0012445322 0.003406317 -0.0008870721
-8.303285e-05 -0.0041454164 -0.0031062767 0.002981992 0.003828979 0.00048346622 -0.00020134168 0.0042070188
-0.00037438638 -0.0033518516 -0.0019673966 0.003036095 0.0024460107 0.003116249 -0.001388268 0.0016748821
0.0027204524 0.0017612751 0.0045810356 0.00012573307 0.0006496586 -0.0026176046 -0.0008382952 0.0020303652
0.004343584 0.003105573 0.00037004924 -0.0020138368 -0.003380209 0.0011171792 -0.0016357284 0.0021658745
-0.0015700173 5.584524e-05 0.0038428858 0.0020100533 0.0036886083 0.0032272341 -0.0026291972 -0.0015371636
0.0014646372 0.0022574353 -0.00022079871 -0.00071992684 0.0027802982 -0.0022344897 -0.003135732 0.0003035313
0.002995496 -0.0028324528 -0.00090753566 0.0021522415 -0.0025310128 -0.0014143438 0.0015818295 0.002318511
0.004077774 0.0036805654 0.00019855071 -0.0013524453 0.0033010468 0.00055154203 0.0042463513 0.002400693
-0.0026285956 -0.0026088422 0.00042033638 -0.0033729428 -0.0007365824 0.0012660399 0.00040860724 0.0042822314
0.0025514686 0.002066685 0.0041765054 -0.0017425999 -0.004202602 -3.3014876e-06 0.0022609346 0.00046641406
-0.000757322 -0.0027260745 -0.0028832387 -0.00037689036 0.004187332 0.0047454415 0.0014131832 -0.0018820642
-0.0029988794 -0.00404988 0.0040465896 -0.0005285394 -0.002337797 -0.003117777 0.00380728 0.0039754044
-0.0014098114 -0.001011792 -0.0022479175 -0.0032879692 -0.0013192721 0.001972543 0.00059016177 0.0018184733
-0.0024670046 0.0009581622 0.00074013486 -0.0032416524 0.0027423287 -0.0035578175 -0.0009703661 0.003958448
0.0027164556 -0.0001051799 0.0007025673 -0.0031760375 0.002824604 0.004082081 -0.00087093416 -0.003989338
0.003359641 -0.0024996297 -0.00085745263 0.00056565204 -0.001068839 -0.0038902205 0.002069386 0.00035392604
0.0033695567 -0.0040365565 0.004114507 -0.0010177246 0.0024250806 -0.003239219 -0.00025756523 -0.0029932857
0.003966035 -0.00068908685 0.0018166379 -0.00024957524 -0.0039724563 -0.0021857903 -0.001150703 -0.0021059872
-0.0025620642 0.0020093056 0.003659044 0.0016921528 -0.0031712437 0.0032726128 0.00064204447 0.0045497026
-0.0017534603 -0.00025220844 -0.00038023654 -0.0008775546 0.0040699323 0.0011448719 0.0018594145 0.0022955765
-0.00226978 0.002353084 -0.0017698383 -0.0019120779 -0.0027943722 -0.0036072074 -0.0024408984 0.00086391915
0.0012085054 0.002925832 0.0005665957 0.0020063266 0.0033386564 0.0012289328 -0.004439873 0.00072765374
-0.0011526824 -0.0039834064 -0.0014854277 -0.00066991564 -0.0033031057 -0.0036926793 -0.0020993287 0.0018560083
0.003920817 0.0006799888 0.0034435561 0.0040612416 -0.002162414 0.0013886192 0.0010034684 0.0034289046
-0.00039491293 0.004089952 0.00077356375 -0.0037498588 -0.000912156 0.0028239316 -0.004233568 0.0016530908
0.003758589 -0.0028949503 -0.0022076007 6.332124e-05 -0.0007908243 0.0047950903 0.0026347514 -0.00077382935
-0.0016669385 -0.0018865644 0.0033264451 0.0024524494 -0.0027717133 -0.00016220477 -0.0015384996 -0.003712982
0.0026010084 -0.0005229624 0.004896581 0.0036825156 -0.0003769274 -0.0009950311 -0.00046294119 0.0035794566
-0.0040934137 0.003697364 -0.0009274146 0.003151578 -0.0041012457 0.0033879522 -0.0013927879 0.002405139
-0.0029838271 -2.6343945e-05 -0.0010205964 -0.0015652459 -0.0029605431 -0.0037588396 -0.0015853944 -0.0036887804
0.0044844477 -0.0023540074 0.0030948673 0.001299803 -0.0019711065 0.0011149828 0.0049709347 0.00050244597

layers.1.bias f4 [256]
00000000: 91a3 523d 9f72 15bd 60ae 4b3b bee5 723d
00000010: c829 323d 0d51 03bc 578c 24bd f561 6fbd
00000020: 7a71 a5bc 51af 5e3d a892 153c 9e82 12bd
00000030: 692f 5aba b02c f33b 44f6 c83c 056b 373d
00000040: bceb 723d a187 60bc 9ea4 553c dc2a 1c3d
00000050: f9f0 35bc c689 843c 5414 52bd 8959 f53a
00000060: 4f9e 33bb 3241 e53c 985c b33c a5d2 503d
00000070: ee77 613d 277c 573d 12c7 163d 991b 09bd
00000080: db30 3e3d 876f bb3c d18f 7cbd 4149 143d
00000090: 1f25 bcbb e924 2dbc 645f 18bc bb05 2cbd
000000a0: 29ba 263c bb45 c43b 7bb9 01bd c378 d93c
000000b0: 06ad 423d 2c86 ccbc 4bca 3a3b 5fbd 37bc
000000c0: 39df 163d f85c 153d 3bce 73bd f6fe 5ebd
000000d0: 66bb 0f3b 113c 9fbc b3a1 08bd c392 fdbc
000000e0: ece6 b03c f447 533d fb63 56bd d3d4 9fbc
000000f0: 50bf 96bc aff2 fabc b703 47bc 0868 003c
00000100: 9521 83bc 661c 3cbc 2b98 af3c 108f 493b
00000110: 7d85 c83c 1f64 323d c08d f2bc 5577 20bd
00000120: c1bc c2bc f9ba 3bbd 5366 27bd e1a8 4ebc
00000130: 2cc0 b7ba 32c6 25bd e0db b03c 881a 4e3d
00000140: fe5c 7bbd 0f01 333c 3e30 cfbc 4eb1 29bd
00000150: 32f8 b53c ddca 72bd 8842 66bd 88db 143c
00000160: 5e44 83bc e079 6dbc aa62 723d a7aa afbc
00000170: fe05 fb3c 2601 a73c 8b2d 403d d2a2 2a3d
00000180: b5ae aabc 9794 993c 86b0 4b3d 766b 503c
00000190: 4ec0 873c 87a0 34bc 7ca2 36bd 3fb3 1ebc
000001a0: b799 4ebd 169f 6f3d 32a4 643d 5719 093a
000001b0: ea1b 96bc 3822 0ebd 7984 a4bc 6c2f 16bc
000001c0: c1e1 6cbc efad 753d e25c 10bd 6639 2a3d
000001d0: 75ce 8bbc 4999 3cbd db78 733c 7e79 153c
000001e0: 4cfd 623d 4fa1 6fbd c435 c13b 6f14 4cbd
000001f0: 67fa 15bc 087e 8abb d712 78bd a7b0 c1bc
00000200: 4faa c1bc e867 763d 2e75 a3bc 1921 a8bc
00000210: 14d3 263d 9a46 413d 6fa4 363d 8326 49bc
00000220: eb90 04bd f376 45bd 538b 46bd 070d eabb
00000230: 3ab3 7d3d dde1 5bba fda6 29bc e8ac 643c
00000240: a0e8 f33c 7c79 65bc 637f 453d 97f4 ef3c
00000250: f064 8a39 55d4 ef3c af31 20bd c679 dfbb
00000260: eb8b d33c ad74 b83c eb4f bfba 57a9 9fbc
00000270: 2d08 163c e779 2dba b1b2 7bbd 46b0 4e3d
00000280: 3ca3 05bd 8dc5 383d a2d1 163d 51db ccbc
00000290: ee27 b03b bd8b c4bc a301 dc3c 0330 203a
000002a0: 4732 4d3d d6d5 14bd fa69 643d d062 e73c
000002b0: e53a 7e3d 0440 833c fdcd 3b3c f877 313d
000002c0: 5d88 75bd 41ac 183c 9116 ae3c 8e74 4dbd
000002d0: e41c 26bd 5d91 79bc 611d f6bc 7edc 603d
000002e0: e904 bb3c 7af8 67bc 13c6 623a 7acf 7cbd
000002f0: 1387 86bc b066 083d 1e94 9639 e1c7 893b
00000300: 38ba 323b 4aea 293c 1e57 193c 19c5 253c
00000310: 9250 da3b 6d1b 7a3d 59dd 743c 0c70 4a3d
00000320: da31 74bb 4a29 2d3d 2357 073d 09cc a4bc
00000330: e556 a2bc 636e 1ebd 0b90 6e3c cd28 213d
00000340: 64ae 09bd 4f7a 1abd 488c 02bd 4d41 edbc
00000350: 37ba 203d 3953 513d 6511 c0bc af28 92bb
00000360: c493 923c 75b9 95bc 4196 6e3d 7ae1 ecbc
00000370: 1991 92bc 2ea8 40bd 1ecc 33bd 3f9b 8fbb
00000380: d77b 78bd 4a05 77bd bc2d 9e3b e05e 42bd
00000390: 69c0 123d 1c28 4fbd 6cae 7a3d e292 b63a
000003a0: eceb dd3c ecf6 9dbb f6e2 983c 4ce6 96b9
000003b0: 9dcb 5ebd e0ef 7c3d da6e b5bb 32cc ed3c
000003c0: d3d6 e3bc 37da 243c d103 8e3c dae4 723d
000003d0: aece 6dbd 269c 793d 5524 6b3b 1717 95bc
000003e0: 7580 003c dfde 6b3d 8857 003c 535d 99bc
000003f0: dd7d 7ebc 4da6 46bd f1a5 73bd 2f8e 7a3d
0.05142552 -0.036486264 0.0031079277 0.05930113 0.043496877 -0.0080149295 -0.0401729 -0.05844303
-0.020195711 0.054366414 0.009129204 -0.035769098 -0.00083231047 0.0074210986 0.024531491 0.044779796
0.059306845 -0.013704211 0.013039736 0.03812681 -0.011104816 0.016178977 -0.051288918 0.00187187
-0.0027407592 0.02798519 0.021894738 0.050982136 0.055046014 0.052608635 0.036810942 -0.033473585
0.04643331 0.022880329 -0.06166059 0.036202673 -0.00574173 -0.010567882 -0.009300087 -0.041997653
0.01017622 0.005989758 -0.03167103 0.026546841 0.04752829 -0.024966322 0.0028501924 -0.011214583
0.036833975 0.036465615 -0.05952285 -0.05444237 0.0021931767 -0.019437822 -0.033357333 -0.03095377
0.021594487 0.05158229 -0.052341443 -0.019510662 -0.018401772 -0.030633299 -0.012146882 0.007837303
-0.016007224 -0.01148138 0.021434864 0.0030755438 0.024477715 0.043552514 -0.029608607 -0.039176304
-0.023771646 -0.045832608 -0.04086907 -0.012613506 -0.0014019064 -0.040472217 0.02158922 0.05031827
-0.06136798 0.010925545 -0.025291558 -0.041428857 0.022213075 -0.059275497 -0.056215793 0.009085543
-0.016023811 -0.014494389 0.059176125 -0.021443678 0.030642506 0.02038629 0.046918433 0.041659184
-0.02083526 0.018747611 0.049728893 0.012720933 0.01657119 -0.011024601 -0.04458855 -0.00968629
-0.050439563 0.058501326 0.05582065 0.0005229911 -0.018323857 -0.034700602 -0.0200827 -0.00916658
-0.014458121 0.05998033 -0.03524483 0.041558646 -0.01706622 -0.04604462 0.014860357 0.009123204
0.055417344 -0.058503445 0.005896302 -0.049824174 -0.009153939 -0.00422645 -0.060564842 -0.023643805
-0.02364078 0.060157686 -0.019953337 -0.020523595 0.040728644 0.04718647 0.04459041 -0.012277248
-0.032364767 -0.048209142 -0.048472714 -0.0071426663 0.061938502 -0.0008387843 -0.0103547545 0.01395724
0.02977401 -0.014006015 0.04821719 0.029291434 0.00026396615 0.029276052 -0.039109882 -0.0068199364
0.025823554 0.022516573 -0.0014595961 -0.019489927 0.009157223 -0.0006617591 -0.06144971 0.050461076
-0.032626376 0.045110274 0.036821015 -0.025006922 0.0053758537 -0.023992414 0.02685625 0.000611067
0.050096776 -0.036336742 0.05576513 0.02824536 0.062067885 0.016021736 0.011462686 0.0433273
-0.0599445 0.009318412 0.021250995 -0.050159983 -0.040554896 -0.015232411 -0.030043306 0.054897778
0.02282949 -0.0141583625 0.0008650731 -0.061721303 -0.01642183 0.033301055 0.00028720585 0.0042047356
0.002727164 0.0103708 0.009359149 0.0101177925 0.0066624368 0.06106131 0.0149453515 0.049423262
-0.003726116 0.042275704 0.033042084 -0.020116823 -0.019816825 -0.03867949 0.01456071 0.03934555
-0.033613577 -0.0377143 -0.031872064 -0.028961802 0.03924009 0.051104758 -0.023445794 -0.0044604163
0.017892726 -0.01827691 0.058248762 -0.02891611 -0.017891454 -0.04703539 -0.043895833 -0.0043825204
-0.060664978 -0.06030778 0.0048272293 -0.04745376 0.035828028 -0.05057536 0.061201498 0.0013929273
0.027090035 -0.004820695 0.01866291 -0.00028781814 -0.0543934 0.0617522 -0.005536896 0.029028032
-0.027812397 0.010061792 0.017335804 0.05930028 -0.058058433 0.06093993 0.003587981 -0.018199487
0.007843127 0.057585593 0.007833369 -0.018721258 -0.015532938 -0.04849844 -0.059484426 0.061170753

layers.2.weight f4 [256, 256]
00000000: 3f51 daba 3fb0 913b 8b46 883b ba62 7c3b
00000010: 6dd3 73bb 9d55 8bbb 4132 8dbb fe79 783a
00000020: d67f 333b 49bb 72bb 04f9 e9ba b97d 87bb
00000030: e8e7 8f3a d5c7 033b a7c2 6a3b 2e30 153b
00000040: 4ba6 6dbb 0575 f239 6dde 20bb 0a5e 7cbb
00000050: 10cb ba3a dd04 8c3b 3338 10bb 69c2 81b9
00000060: 1f39 943b c984 013b 2987 733b e554 85bb
00000070: 95ff 6b3b d14a 3ebb 8376 19bb 2acf 883a
00000080: d96a 33bb 38f7 95bb 9e77 413b e3f2 97bb
00000090: 1577 85bb 64be 953a 9a2b aaba 8cd9 4f3b
000000a0: 48ad 9c3b 9506 41bb fe3b 73bb d78e 1a3b
000000b0: 7795 ef3a 7bbf f7ba f5e2 99ba f704 90bb
000000c0: 7c8d d8b9 f5ee 10bb 19ac 6dba 19af 7f3b
000000d0: d6d8 e3ba b950 1b3b 234d 913b 4d88 a83a
000000e0: da48 7e3b 4a08 39bb 4ba3 1bbb 2b25 27bb
000000f0: a164 f5b9 3e7a 5cbb b858 4ebb fef7 853b
00000100: 982c 2b3b b632 a43a b411 6dbb fc32 92bb
00000110: 7d36 69ba 8849 bbb9 21fb 5aba d662 9cba
00000120: d1d1 8c3b 4622 ec39 f5fb 2cbb 7901 22bb
00000130: d94f 20bb 3dcc 223a f96e 393a 7c85 2d3b
00000140: e825 0fb9 f357 89bb f6c2 463b 0fb3 09bb
00000150: c609 7e3b e31d 90bb 0891 5b3b 8a74 8fbb
00000160: c3d4 6aba 7044 0339 b65a 90bb 09cb 113b
00000170: 869a 98bb 370e e4ba a4b3 80ba 2d0c e4ba
00000180: e00c 90ba 77fb 59bb 164e 3e39 0e79 00bb
00000190: 9cb5 19ba a692 473b 394b 6bbb 42ba 283b
000001a0: 5a06 6a3a 8723 e1ba 0c9f 233b 0afe f239
000001b0: d73d 733b 086e 61bb 0222 4b3b fdb3 7fbb
000001c0: 18e6 38ba 6d5f 83bb fcd4 8939 fc6e 133b
000001d0: bc48 523b e92f f539 9afb 3a3b 4a5e 1e3b
000001e0: e9d7 0e3a 8a89 413b c4aa 5abb 7b5a 59bb
000001f0: 30b3 b039 0ebe 14ba 6276 f9ba cab8 8aba
00000200: 6f12 8bbb 55bd 943b 51ab 18ba 7123 c6ba
00000210: 30f1 b538 472f 703b 90e8 8f39 75fb 22ba
00000220: 9e44 16bb ff72 adb9 9238 bd3a 4190 643b
00000230: 86d3 dd39 2be3 3b3b e473 d3ba a7f2 8c3b
00000240: 70df f1ba fe04 6cbb b3d0 763b 2f88 82b8
00000250: c8ea 023b ee11 883b cbf0 80bb 7278 e5b9
00000260: 9f35 423b 6dda 96bb ada3 0c3b 9bbf 38bb
00000270: 62a4 b2ba 1540 753b dd56 75bb 18de 6d3b
00000280: 3c91 2b3b d231 5fbb d802 55ba 19a3 ab3a
00000290: 858f c7ba e8b9 003b 115c 78bb e8ec 96ba
000002a0: 6ed0 4237 c1ad 2339 0d83 27bb 13f5 27ba
000002b0: 034b bd3a ecc8 89ba 6c4b 803b edab 00b9
000002c0: fcff 6bbb c8de a2bb cc06 163a 7ace 013a
000002d0: ea66 3cba 791e 373b e9c7 38bb e523 71bb
000002e0: 6832 4f3a 6032 60bb 68d9 2f3b 209e cdb9
000002f0: ecef 8d3a 591e 8dbb 5dca a33a f934 0fbb
00000300: 7fa8 7eb9 3daa 2bbb dc7f 82bb d0cc 9c3a
00000310: c784 963b 3649 96ba 66d2 a038 14bf 89ba
00000320: f594 853b 3f46 5dbb fb3d d938 559c b2b8
00000330: d472 913b 690d 9e3a b915 46ba 241d b03a
00000340: d5d1 2dbb d0b4 623b 5ab0 09bb 0541 ad3a
00000350: cd39 753b 85a6 143b a3b3 cd39 1d1c 9fba
00000360: 292f 913b 235d 9e3a 547b 38bb 0e77 8a3b
00000370: 5507 3abb 885d 0cbb c26f 31ba 4664 6e3b
00000380: b9c9 79bb 2acf 673a 6d07 2a3a 8fd3 21bb
00000390: c433 163b 7c69 213b d659 83bb 820f 863b
000003a0: a826 813b 8e10 043b b3b4 4d3b 8837 85b9
000003b0: d3f0 3c3b c713 8eba ea86 6b3a c7ba 8f3b
000003c0: 30d2 0abb c07d bcba 7f73 7dbb 1262 21b9
000003d0: 81fa 91bb 4b00 45bb ac8c 0d3b c627 b03a
000003e0: 4426 983b b325 93bb b97e 8ebb a77e 7aba
000003f0: 83c3 d23a 45a8 55bb e840 9e3a 470d 54ba
-0.0016656293 0.004446059 0.0041588 0.0038510994 -0.0037204877 -0.0042521493 -0.0043089692 0.00094786275
0.0027389429 -0.00370379 -0.0017850702 -0.0041348604 0.0010979148 0.0020108123 0.0035821588 0.0022764313
-0.0036262448 0.00046245023 -0.0024546639 -0.00385082 0.0014251191 0.0042730407 -0.0022006154 -0.00024749644
0.004523411 0.0019762984 0.003715942 -0.004068958 0.0036010493 -0.0029036293 -0.0023416586 0.0010437716
-0.0027376919 -0.00457659 0.002952076 -0.0046371087 -0.0040730336 0.0011424539 -0.0012982965 0.0031715361
0.004781399 -0.0029453386 -0.0037114616 0.0023583674 0.0018278797 -0.001890167 -0.0011740612 -0.004395123
-0.00041304145 -0.0022115086 -0.0009066477 0.0039014278 -0.0017383348 0.0023699237 0.0044342442 0.0012858004
0.0038800747 -0.00282337 -0.0023748453 -0.0025504332 -0.00046805016 -0.0033642198 -0.0031485986 0.004088401
0.002611911 0.001252732 -0.0036173882 -0.004461644 -0.0008896364 -0.00035722204 -0.0008353461 -0.0011931311
0.004297473 0.00045038963 -0.0026395295 -0.0024720116 -0.0024461655 0.00062102434 0.0007073726 0.0026477268
-0.00013651664 -0.0041913926 0.0030328608 -0.0021011268 0.003876315 -0.004398094 0.0033503193 -0.004377906
-0.00089580956 0.00012518629 -0.004405345 0.0022246263 -0.0046570925 -0.0017399256 -0.0009819162 -0.0017398648
-0.0010990165 -0.0033261457 0.00018148901 -0.0019603404 -0.0005863549 0.00304524 -0.003590299 0.0025745784
0.0008927338 -0.0017176726 0.0024966625 0.0004634711 0.0037115717 -0.003439786 0.0030995612 -0.0039017193
-0.00070533296 -0.0040091784 0.00026289362 0.0022496572 0.003208681 0.00046765737 0.0028531314 0.0024165087
0.0005449043 0.0029531443 -0.0033365944 -0.0033165503 0.0003370284 -0.00056740723 -0.0019032473 -0.0010583636
-0.004244141 0.0045391717 -0.0005823868 -0.0015116764 8.675677e-05 0.0036649273 0.00027448358 -0.00062172796
-0.0022929083 -0.0003308281 0.0014436415 0.003487602 0.00042310002 0.0028669338 -0.001613256 0.0043013874
-0.001845343 -0.0036013718 0.0037661016 -6.224249e-05 0.0019976366 0.004152528 -0.0039349548 -0.00043768022
0.0029634011 -0.004603675 0.0021459863 -0.0028190378 -0.0013629312 0.003742223 -0.0037435808 0.0036295708
0.0026179096 -0.0034056795 -0.0008125729 0.0013094872 -0.0015225267 0.0019642059 -0.0037896673 -0.0011514695
1.161183e-05 0.0001560962 -0.002556029 -0.00064070633 0.0014441911 -0.001051215 0.003915241 -0.00012271079
-0.0036010733 -0.0049704053 0.0005723059 0.0004951727 -0.0007186966 0.0027941747 -0.0028195328 -0.0036795076
0.00079039345 -0.0034209713 0.0026832465 -0.0003921846 0.0010828949 -0.0043065962 0.0012496222 -0.0021851643
-0.00024286097 -0.0026194 -0.003982527 0.0011962894 0.004593465 -0.001146591 7.668584e-05 -0.0010509216
0.004076595 -0.0033763794 0.00010358911 -8.5168205e-05 0.0044387374 0.001205844 -0.00075563375 0.0013436419
-0.0026522775 0.0034592636 -0.0021009655 0.001321823 0.0037418485 0.0022682261 0.00039234487 -0.0012139116
0.0044306708 0.00120822 -0.0028149681 0.004225618 -0.0028385718 -0.0021418054 -0.00067686674 0.0036375686
-0.003811462 0.00088428205 0.0006486092 -0.002469275 0.0022919038 0.0024629524 -0.004008512 0.004091204
0.0039413758 0.002015147 0.0031388223 -0.0002540911 0.0028830066 -0.0010839634 0.00089846423 0.0043862793
-0.002118241 -0.0014380738 -0.0038673577 -0.0001539069 -0.004454911 -0.003005999 0.002159874 0.0013439588
0.0046432335 -0.004490578 -0.0043486026 -0.0009555616 0.0016079996 -0.0032601517 0.0012073787 -0.00080891367

layers.2.bias f4 [256]
00000000: c235 f53c 710f 153d d8ae c2bc bc6c 133d
00000010: f922 c43c f82e 9d3c 9917 11bd 7af2 a53b
00000020: a834 8d3c 1360 33bd 0a9a 6cbd 157a 283c
00000030: e3a8 e8bc e3b6 e43c 3684 b5bc a789 04bd
00000040: 3390 45bc 11d0 d53c dd53 763d 1a59 28bd
00000050: d10f 0d3d 3426 233d 6993 373c 5291 e5bb
00000060: a9b4 4d3c f371 923b 3626 6ebd 6348 02bd
00000070: 33fa 2739 5bab cabc 0e82 283d b76b ea3c
00000080: 6188 dabc 6326 b2ba e034 04bd cdd6 353b
00000090: 6ec9 8e3c 874b 75bd 7235 6a3d dacf ce3c
000000a0: dc57 1b3d cc02 203c d45c 323c b356 36bd
000000b0: d1f2 2e3d 8145 3b3d 5975 a9bb f8ed 01bd
000000c0: 00a3 073d 1313 393d 1211 e03b 7707 603d
000000d0: df1f 133d 334f a63c 111e 7fbd 9e07 21bc
000000e0: 36a5 d83c 78ac 7ebd 01d7 623c 5a3e a33c
000000f0: 1f6c d03c ed15 543d 24cc c33c 67eb 753c
00000100: 8505 5abd 2885 4dbd d3d4 3a3d 014b 0e3d
00000110: 7d45 423c 55de bdbc 4df3 383d 89aa b6bc
00000120: 73ca f83c d109 f1bb 3782 083d 037c b53c
00000130: 9e06 16bc 98ea ad3c adef 04bd 9062 12bd
00000140: d5be db3c f5b5 d23c 494e 1dbc 5a81 e83a
00000150: ab5a f1bc 1cf9 373d 3c89 6abc 1b84 8e3c
00000160: 3c64 51bc da60 313d 798a 36bd 3be8 283d
00000170: 96ba 7a3d 534b 29bd e927 5abd cc2d 053d
00000180: f753 7c3c 926c 1f3d 7e27 2a3c a797 b13c
00000190: f92f f0bc b8ae 503d 9b18 8f3c a1e9 193a
000001a0: 15a2 71bb 6240 553c eb38 823c fd9b 283d
000001b0: ee1c 1e3c 2492 a9bc e650 eb3c cc01 7d3d
000001c0: 6f75 eb3c 36f5 3e3d d2ad 17bd 592a cc3c
000001d0: 6957 703d edc7 2bbd ea1e d83b 9dbd 9abc
000001e0: 6a43 3a3c dfd8 2e3d 7ee3 993c c0b0 adbc
000001f0: bc7d 653d 7901 4ebd 25ed ce3c 2197 ea3c
00000200: 6540 573b be80 32bd 0475 443d 92f8 97bb
00000210: fe9e f43b 4ada 99bc 78c6 353d 9216 fcbc
00000220: 8e3c 53bd 441c 513c 260d 8b3b b863 0fbd
00000230: 9635 a6bc 8090 963b 7fe3 fcbc 4a92 dfbc
00000240: f2fe abbc 248a 8bbb f998 45bd 0c7f 453c
00000250: 3ac1 12bd 5000 a73b 5a8e d13c 7e43 9bbc
00000260: a934 2c3d 98ed 62bd 49b0 463d fab3 96ba
00000270: f6ae 6a3c 58dd 583d 85ce 7cbd 75f6 213c
00000280: 1ae6 19bc c144 03bd 1080 dd3c 58d5 2d3d
00000290: 96f0 a6bc d383 54bc 8d20 093d 834f 6d3c
000002a0: 0bbc 8ebc b9af 363c eb4d 3abd 4443 653d
000002b0: 60e9 b63c 95a6 2f3d 1860 79bd 7b8b 39bd
000002c0: 0d5f cbbc 3256 413d a282 583c 773d 693d
000002d0: 9017 46bd 2280 8137 3293 163d 5cf1 5e3d
000002e0: ca01 473d 97f6 25bd ca1d db3c 59e3 143d
000002f0: e7b1 f8bc 0ed1 7cbc c4f4 c23c 034b b23c
00000300: 5e61 733d a79c 4abd c9a5 12b9 10eb acbc
00000310: aaea 41bd 5c08 493d fea7 053d 9202 3b3d
00000320: 8642 703c 113c b03b defa 23bd 599b 2bbd
00000330: 6286 2a3c e81e 523d 2b44 57bc 9983 7f3a
00000340: 038b 0a3d 70eb cd3c 4f69 a9bc 00c1 083d
00000350: 6e51 e03c 54dd 223d 7192 053d 19ce 20bd
00000360: 8133 fe3c 0f2e 4e3d aa5e 123c 87d7 1b3d
00000370: 8ae2 663c 1152 bc3a f4bd 143d c027 363d
00000380: 11eb 193d 1699 113c 2204 ab3c fdf3 8d3c
00000390: 8644 5cbc 13e5 63bd 52c3 37bd ff1f 3dbd
000003a0: d554 543d 8cd3 73bd 36ae 70bd 2c0a 23bc
000003b0: 9523 013c 6a07 33bd a318 83ba b82f 5fbd
000003c0: 24ac 793d 136b e8bc 59d1 0f3d 4b73 a3bc
000003d0: c894 16bd 60bc bebc ce8a 383d 864b 183c
000003e0: d5e7 72bc eb94 053d 0e74 06bd d46d 14bd
000003f0: 3534 26bd 994f 553d 21d8 00bb e2de 1dbd
0.02993286 0.03639168 -0.023765013 0.03599237 0.023942458 0.019187436 -0.035422895 0.005064306
0.017237023 -0.043792795 -0.05776409 0.010283013 -0.028400844 0.027919238 -0.02215777 -0.032357838
-0.012058306 0.02610019 0.060138572 -0.0411006 0.03443891 0.039831355 0.011204579 -0.007005849
0.01255528 0.00446915 -0.05814191 -0.031807315 0.00016019568 -0.024739912 0.041139655 0.028615816
-0.026676359 -0.0013591762 -0.032276988 0.002774644 0.017430034 -0.05988648 0.057179876 0.025245596
0.037925586 0.009766292 0.01088639 -0.044516277 0.042712037 0.04572058 -0.0051714596 -0.031721085
0.033114433 0.045184206 0.0068379724 0.05469462 0.035919067 0.020301437 -0.062284533 -0.009828476
0.026445966 -0.062176198 0.013845206 0.019927192 0.025442181 0.051778723 0.023901053 0.015009738
-0.05322792 -0.050175816 0.04561312 0.034739498 0.011857388 -0.023177305 0.045153905 -0.022298114
0.030369973 -0.0073559065 0.033327308 0.02215386 -0.009156851 0.021230027 -0.032455135 -0.035738528
0.026824394 0.02572153 -0.009601184 0.0017738745 -0.02946218 0.044915304 -0.014314946 0.017396977
-0.012780245 0.043305255 -0.04456565 0.041237097 0.0612131 -0.0413316 -0.053260718 0.03251438
0.015400878 0.0389219 0.010385392 0.021678759 -0.02931975 0.050947875 0.017467787 0.00058713
-0.003687029 0.013015838 0.015896281 0.041164387 0.009650452 -0.020699568 0.028725099 0.06176929
0.02874252 0.04662057 -0.037031002 0.024922537 0.05867711 -0.04193871 0.006595482 -0.018889243
0.011368612 0.042687293 0.018785235 -0.021202445 0.056028113 -0.050294373 0.025259564 0.028636517
0.0032844779 -0.04357981 0.047963157 -0.004637786 0.0074652424 -0.018780846 0.044378728 -0.030772481
-0.05157142 0.012763087 0.004243511 -0.03500721 -0.020289224 0.0045948625 -0.030870197 -0.027291436
-0.02099559 -0.004258411 -0.04824159 0.012054216 -0.035828806 0.005096473 0.025580574 -0.018953081
0.04204241 -0.05540237 0.048507962 -0.0011497729 0.0143239405 0.052945465 -0.06172039 0.00988542
-0.009393239 -0.03204799 0.027038604 0.04243979 -0.020378392 -0.0129708825 0.03347831 0.014484289
-0.01742365 0.011150294 -0.045484465 0.055972353 0.022328079 0.042883474 -0.060882658 -0.045299035
-0.024825597 0.047201343 0.013214739 0.056943383 -0.048362315 1.5437665e-05 0.03676147 0.054429397
0.04858569 -0.04051837 0.026747603 0.036349628 -0.030358268 -0.015430702 0.023798354 0.021764284
0.05941903 -0.0494658 -0.00013985405 -0.02110818 -0.047342934 0.049080238 0.032630913 0.045656748
0.014664298 0.005378254 -0.040034167 -0.041896198 0.010408016 0.051299006 -0.013138811 0.00097470876
0.03382398 0.02513668 -0.020680098 0.033387184 0.027382579 0.039761856 0.03261036 -0.03925905
0.031030418 0.050336894 0.0089337025 0.03804734 0.014092097 0.0014367719 0.036313966 0.044471502
0.037577692 0.008886596 0.020875994 0.017328257 -0.013444072 -0.055638384 -0.044864006 -0.046173092
0.051838715 -0.05952792 -0.05875989 -0.009951156 0.007882019 -0.043708242 -0.0010001849 -0.054488868
0.06095518 -0.02837137 0.03511176 -0.019952437 -0.036762983 -0.023283184 0.04505425 0.00929535
-0.014825781 0.032612722 -0.032825522 -0.036237553 -0.040577132 0.052077863 -0.0019660073 -0.038542636

layers.3.weight f4 [2, 256]
00000000: 25c4 22bb 96c0 87ba d995 3eba 7fc1 683b
00000010: 25a1 beb9 a7c6 193a 961a 28bb c5fd 17bb
00000020: d8a5 513b a477 243a 6628 673a 12ab 163b
00000030: 30b4 f3ba 24e3 24bb d361 37ba 07aa 52bb
00000040: e5e8 553a 3b44 f2ba 35e1 4b3a 2b39 7ebb
00000050: 914e 8ebb ed56 57bb 3c61 2038 0bd4 2abb
00000060: 9d64 db39 ec1a 883b 9890 12bb fb24 693b
00000070: ca2a 0e3a 3627 bdba 6a2e 61b9 2c63 ca3a
00000080: cedc 59bb d1d4 3eb8 2ac3 213b a593 3cbb
00000090: a2ec 1eba 3025 6bba f9ab 2ebb 2174 6e39
000000a0: 21b1 fc3a 6bc9 203b 3cfd 92ba c640 293a
000000b0: de9e 86bb 91dc b539 ed6e d6ba 90e6 553b
000000c0: 5053 803b fae3 0abb db1e c1ba db92 663b
000000d0: 819f 0dbb e30e d33a 72a6 0dbb a880 5fbb
000000e0: b8cd c0b9 de0e 8bb9 17dc e0b9 97d9 a239
000000f0: b4e8 113b 1f95 693b 51d8 58ba a712 b139
00000100: 311c 163b afbd 913a 0167 003b 6427 d83a
00000110: 0d1b 603a a266 88bb d62c 58bb 1716 2ebb
00000120: cbcc 593b 9303 92ba fdfd 543b fab4 e13a
00000130: 35a6 cdba 8878 2d39 1d6b ebb8 5b08 8b3b
00000140: c009 783b 119c 383b cc68 b2ba 4a42 393b
00000150: d9a5 24bb a0ac 90bb 6287 4b3b 1778 e6ba
00000160: 33a0 36bb de8d 773b 8ea1 bfb9 ec53 f239
00000170: 1c90 803a b679 e7ba 3336 8d3a 54c5 46bb
00000180: b0ad 983b 3c79 843b cf27 ea3a 87a7 6cbb
00000190: 02d1 8839 efe3 8bba 2455 5abb f46f 733a
000001a0: ef56 88bb 8b0e 6aba e4d5 c4ba d254 ab3a
000001b0: 1f93 0bbb 090f 513b 6689 86bb 5f3f 30bb
000001c0: caa2 94bb faef 3f3b a5e8 513b 95fb 7c3a
000001d0: 2121 38bb 6c32 e2ba d8aa a93a 0ff4 0dba
000001e0: 4481 93bb 846b 213b 6b3c 64bb ed9a 92ba
000001f0: b3a0 8f39 8929 29ba 122a 44bb 7fb2 063b
00000200: f650 e0ba f89e 583a 4996 793b 7162 003b
00000210: d403 5e3b 9a6f efba 8515 393b 5ae9 173a
00000220: 7fce 343b 0209 99b9 ebb3 59bb 2b5b 42ba
00000230: 285b 05bb 5ba8 d038 6d26 ad3a 737b 8dbb
00000240: 28c2 433b 16e9 5bba b7a0 10b9 85e6 f6b8
00000250: ddaa 83ba ec78 5a3a ad99 21bb 19e8 7aba
00000260: 3f36 52bb 9aa6 753b 54f0 8d3b c46f 8639
00000270: caeb a8b9 b907 33bb acb0 79bb 027b 7c3b
00000280: 5a2d a4ba 7afd 74bb 8183 40bb ec42 323b
00000290: a7ea 54bb 127f 08bb 0d6f 0a3b 3357 e8ba
000002a0: 5621 c5b9 48fd 303b accd b339 abef 6fbb
000002b0: 474d 213b f09f 38bb 6713 423b e8c8 7fbb
000002c0: ae73 eeb9 0036 83bb c200 863a b34c 5ebb
000002d0: 22ce 7bbb ae22 95bb 6194 60bb f17a 89bb
000002e0: 3510 36bb cd3e 9abb afb4 843b 57c5 c43a
000002f0: ab86 c5b8 b7f3 8e3b af97 8fba 2a5b 863a
00000300: 8fa2 5abb 2323 b03a 3521 103b d017 6bbb
00000310: 993f fa39 560b 87bb 87ba e7b9 cc2a 583b
00000320: b323 64bb cdd3 153b b554 ad39 bc40 6abb
00000330: 445e 22bb 34df 8dbb 59ac 463b 39a4 c63a
00000340: c959 2aba 12cc 733b 9c25 4d3a 9dea a53a
00000350: ae9f 64ba d4da e83a 0b2f 173b 4667 6c3b
00000360: 5a3a 843b 760e 48bb d2f8 4dbb 1027 3fba
00000370: 9d93 8fb9 6172 89bb 7606 583b 2c17 813b
00000380: 81f4 60bb 7ba5 37b9 54e7 3f3b 49be 923b
00000390: e6a0 c53a 3dc7 10bb 6b13 8b3b 0fbc f8ba
000003a0: fa48 4fb9 8401 583b 9eb2 a13a f749 86ba
000003b0: e17a dcb9 eb60 50ba aede 5f3b 0576 d5b9
000003c0: 1111 7abb d738 e7ba 2571 143b e4b2 d73a
000003d0: 8724 5db9 32e0 b5ba 4030 95bb 8b6e 593b
000003e0: 6929 98bb ba18 803b 490c 263b b6c0 7ebb
000003f0: e31c 88bb 6b28 403b f492 193b 891f 7cbb
-0.002483615 -0.0010357078 -0.0007270254 0.0035515723 -0.00036359686 0.00058660883 -0.0025650612 -0.002319203
0.003198972 0.00062739314 0.00088179705 0.002299015 -0.0018593129 -0.00251598 -0.0006995473 -0.0032144801
0.0008160009 -0.0018483469 0.0007777394 -0.00387914 -0.004342862 -0.0032858208 3.823753e-05 -0.002606633
0.00041845898 0.0041536 -0.0022364017 0.003557502 0.0005423246 -0.0014431241 -0.00021474963 0.0015440932
-0.0033243182 -4.549773e-05 0.0024682977 -0.0028774526 -0.0006062483 -0.000897008 -0.0026652797 0.0002274071
0.0019278863 0.0024534117 -0.0011214386 0.00064564904 -0.004108294 0.00034687345 -0.0016359963 0.0032638647
0.0039161816 -0.0021193014 -0.0014733927 0.0035182748 -0.0021609964 0.0016102459 -0.0021614102 -0.0034103785
-0.00036774366 -0.00026523223 -0.0004288859 0.00031061165 0.0022263946 0.0035641862 -0.000827198 0.00033773968
0.0022904987 0.0011119152 0.0019592645 0.0016491232 0.0008548953 -0.0041626254 -0.0032985709 -0.002656346
0.0033233638 -0.0011139981 0.0032500022 0.0017220073 -0.0015689792 0.00016543467 -0.000112256246 0.0042429394
0.0037847608 0.0028169195 -0.0013611554 0.002826827 -0.0025123267 -0.0044151098 0.0031056036 -0.0017583397
-0.0027866482 0.0037773768 -0.00036550727 0.00046220364 0.0009808573 -0.0017660174 0.0010773599 -0.003033002
0.004659377 0.0040427726 0.0017864647 -0.0036110596 0.00026095664 -0.0010672788 -0.0033314908 0.00092863967
-0.004160754 -0.00089285587 -0.0015017358 0.0013071543 -0.0021297408 0.003189983 -0.0041057346 -0.002689324
-0.0045360075 0.0029287324 0.0032029536 0.0009650526 -0.0028095918 -0.0017257459 0.0012944592 -0.0005415091
-0.0045014936 0.0024630735 -0.003482605 -0.0011185087 0.00027394816 -0.00064530276 -0.0029932302 0.002055317
-0.0017113972 0.0008263434 0.0038083962 0.0019589926 0.0033876793 -0.0018267513 0.0028241586 0.0005794965
0.0027588902 -0.00029189145 -0.0033218812 -0.0007414098 -0.0020348523 9.9495715e-05 0.0013210304 -0.004317695
0.0029870365 -0.00083889195 -0.00013792781 -0.00011773132 -0.0010045428 0.0008334059 -0.0024658248 -0.00095713284
-0.003207579 0.0037483335 0.004331628 0.00025641744 -0.00032219134 -0.0027317835 -0.003809969 0.0038525467
-0.0012525723 -0.003738253 -0.0029375257 0.0027200533 -0.0032488497 -0.0020827693 0.002112332 -0.0017726183
-0.00037599605 0.0027006436 0.00034294778 -0.003661136 0.0024612711 -0.0028171502 0.0029613615 -0.0039029662
-0.00045481086 -0.00400424 0.0010223615 -0.0033920228 -0.0038422425 -0.0045512533 -0.0034268128 -0.004195564
-0.0027780656 -0.0047071935 0.0040498595 0.0015012425 -9.418776e-05 0.004362549 -0.0010955239 0.0010250558
-0.0033361053 0.0013438206 0.002199245 -0.0035872348 0.000477311 -0.0041212244 -0.00044198727 0.0032984493
-0.0034811317 0.0022861839 0.00033060243 -0.003574415 -0.0024775425 -0.0043295864 0.003031513 0.0015155143
-0.00064983644 0.0037200493 0.00078257336 0.0012658421 -0.0008721304 0.0017765411 0.0023068811 0.0036072298
0.0040352764 -0.0030526198 -0.0031428826 -0.00072918925 -0.00027385066 -0.004194543 0.0032962835 0.00393953
-0.0034325423 -0.00017513886 0.002928217 0.00447825 0.0015077859 -0.0022091412 0.004244258 -0.0018976944
-0.00019768244 0.0032959888 0.0012336557 -0.0010245432 -0.00042053222 -0.0007949012 0.0034159827 -0.00040714457
-0.0038157145 -0.0017640841 0.0022650447 0.0016456512 -0.0002108981 -0.001387602 -0.004552871 0.003317746
-0.0046436084 0.0039091976 0.0025336912 -0.003887219 -0.004153834 0.0029320966 0.0023433538 -0.0038470945

layers.3.bias f4 [2]
00000000: 0001 67bd 8409 03bd
-0.056397438 -0.031991497
