figures/up2sept/558-SIREN-ncc-1e-05-2500-10000/epoch-0.pth (torch, 534272 bytes, 8 tensors)

layers.0.weight f4 [256, 2]
000000 d0 9c a4 bd cc c2 4c 3e 40 73 c4 be f0 50 8d 3d
       -0.08037722 0.19996184 -0.3836918 0.06900203
000010 d4 66 e9 be 0a d2 9e 3e b6 ab f8 3e 84 be 36 be
       -0.45586264 0.31019622 0.48568505 -0.17846113
000020 48 6b 97 3d d4 e4 83 be 68 c2 a3 be 18 a7 81 be
       0.07393509 -0.2576052 -0.31984258 -0.25322795
000030 4c ea 73 be b0 60 c2 3d a0 c1 6a bd 20 99 0f 3d
       -0.23819846 0.09491098 -0.05731356 0.03505814
000040 46 2e c4 be c6 d5 a0 be dc 9f dd be 98 ff b7 be
       -0.38316554 -0.31413096 -0.43286026 -0.3593719
000050 f4 60 d6 3e 7c 38 3e 3e 9e 25 f4 be f0 e8 aa bd
       0.41870844 0.18576235 -0.4768495 -0.083452106
000060 30 5d 24 3d f2 c2 88 3e ba 6d ed 3e 68 45 f7 3d
       0.040127933 0.2671123 0.46372777 0.12073785
000070 d6 55 b4 3e 34 31 36 be 40 d5 85 bc e2 89 9a be
       0.35221738 -0.17792207 -0.016337037 -0.3018332
000080 38 e6 eb 3d 60 4d ec 3e 38 c3 a0 3e a6 bd fe 3e
       0.1151852 0.46152782 0.3139894 0.49754065
000090 94 b3 66 be 18 20 80 bd 58 39 d3 3d 26 d1 cd 3e
       -0.22529441 -0.062561214 0.10313672 0.4019863
0000a0 62 53 eb be e8 72 7b be c0 8a 94 3d 0c f8 93 be
       -0.45962054 -0.24555552 0.07253027 -0.28900182
0000b0 58 43 3f 3e 50 9f 0b bd 6c ac 04 be 82 4b 89 3e
       0.18678033 -0.03408748 -0.12956399 0.2681542
0000c0 ba f4 b6 3e 1e 02 f9 3e cc da 67 3e 80 07 60 bc
       0.35733587 0.48634428 0.22642058 -0.013673663
0000d0 ac 4e d1 3e 5a bc cb 3e 1a 4d 80 be fc 36 69 3e
       0.40880334 0.39792138 -0.25058824 0.22774881
0000e0 a0 fa 6f 3d a8 45 5d be 98 dc f3 bd c8 cc f1 bd
       0.058588624 -0.21608603 -0.11907309 -0.11806637
0000f0 5c 24 b3 be 60 3d 1c be b0 4a 2c 3e 20 ef bb 3e
       -0.34988678 -0.15257788 0.16825366 0.36705875
000100 10 91 1b 3d 2a e9 f7 be b0 94 87 3e 68 ec 1a be
       0.03798014 -0.48420078 0.26480627 -0.15129244
000110 00 9f e4 3e 20 5e f7 be f8 94 ef bd a4 88 c6 3e
       0.44652557 -0.48314 -0.116983354 0.38776124
000120 dc 7d 5d 3e e4 70 7f be 18 ac dd be 00 f9 af bb
       0.21630043 -0.24945408 -0.4329536 -0.0053702593
000130 90 ca 45 3e cc 87 d4 be c0 38 d6 be 80 3f ce bb
       0.19315553 -0.41509855 -0.41840172 -0.006294191
000140 80 02 d2 bd b0 8a a4 3e 16 0c f8 be 50 df a2 bd
       -0.10254383 0.3213706 -0.4844672 -0.0795275
000150 bc 61 c6 be 10 25 95 bd d6 cb 82 be 10 23 21 3e
       -0.3874644 -0.0728246 -0.2554614 0.15736032
000160 7a 28 d6 be a0 62 c9 be 14 47 91 be dc 36 e0 be
       -0.41827756 -0.39333057 -0.2837454 -0.43791854
000170 c2 9a a1 3e a8 8b 92 bd ea 3a 8e be f2 62 b3 3e
       0.31563383 -0.071555436 -0.27779323 0.35036427
000180 60 52 e8 bd 98 66 84 3e f0 b6 1e be a6 2e d6 be
       -0.11343837 0.25859523 -0.15499473 -0.41832465
000190 00 e6 e0 3d b2 68 9f 3e b0 9b f9 be 70 30 55 3d
       0.10981369 0.31134564 -0.48751593 0.052048147
0001a0 38 18 cc 3d 60 0f 6b 3d c0 b7 4a bc 18 27 1f be
       0.09965557 0.05738771 -0.012372911 -0.15542257
0001b0 f2 bd c6 be 10 05 a7 3d f8 ee ab be f6 84 d3 be
       -0.38816792 0.081552625 -0.33580756 -0.4131238
0001c0 0c 61 24 be 14 3f af be 9c ed 1c 3e 64 59 b6 3e
       -0.16052645 -0.34227812 0.15325016 0.35615075
0001d0 98 f4 c6 3e a6 ac 9e be fc 91 8b 3e c0 ea b5 3e
       0.38858485 -0.30991095 0.27259815 0.35530663
0001e0 80 ca b7 3b c8 01 58 3e fa da 90 3e b8 e0 c3 3e
       0.0056088567 0.2109443 0.28292066 0.38257384
0001f0 8e fa 88 3e 70 8b 5a 3e 44 54 42 be ce ba 8e be
       0.26753658 0.21342254 -0.18977457 -0.27876896
000200 5c c8 72 be ee a1 d2 3e f8 04 f8 bd 20 80 92 3c
       -0.23709244 0.41139168 -0.12110323 0.01788336
000210 e6 bd ee be 80 f1 b5 bc 68 6f 10 be 56 2e a5 be
       -0.46629256 -0.022209883 -0.14104998 -0.32261914
000220 36 43 c6 3e b4 42 cf be 60 61 92 bd f0 35 11 bd
       0.38723153 -0.40480578 -0.07147479 -0.03545183
000230 fe c1 e7 be fc c7 9a 3e 84 e9 22 be d4 03 66 3e
       -0.45265192 0.302307 -0.15909392 0.22462398
000240 e2 e0 8e 3e e4 bc e1 3e 30 49 fd 3d 38 30 c0 3e
       0.27905947 0.44089425 0.12367475 0.37536788
000250 96 6d ec 3e 90 f3 ca 3d e8 a4 d0 bd 84 2f 0c be
       0.46177357 0.09909737 -0.10187703 -0.13690001
000260 98 e5 a5 3d 08 41 38 3e 7a 81 f1 be 40 cf bf 3e
       0.08100432 0.17993557 -0.47169095 0.37462807
000270 50 7a a1 3d c0 78 ee be 84 ff 23 3e 0a 76 a2 3e
       0.078846574 -0.465765 0.1601544 0.31730682
000280 00 50 3f 3e 4a f7 d0 3e 80 5b 29 3c 70 61 d4 be
       0.18682861 0.40813667 0.010336757 -0.4148059
000290 00 aa 94 ba d8 12 ba 3e a0 43 76 be 40 62 5a 3e
       -0.0011342168 0.36342502 -0.24049234 0.21326542
0002a0 e8 0b ec 3d 00 25 a6 bd 00 e0 68 3b a4 d4 59 3e
       0.115257084 -0.08112526 0.0035533905 0.21272522
0002b0 d0 2e af be 2a a2 a1 3e f2 4f ad 3e 36 a7 8f 3e
       -0.34215403 0.31569034 0.33850056 0.2805726
0002c0 5c d0 ff 3e a0 db b2 bc 84 c5 b4 be 80 08 bb 3c
       0.49963653 -0.021833241 -0.35306942 0.022831202
0002d0 08 8b 14 be f4 bd 34 3e 40 8c d8 3e 0e 1e 8c be
       -0.14506161 0.17650586 0.42294502 -0.2736668
0002e0 a0 85 ab 3c b0 fe f8 3e 34 5d cc be 68 b4 b0 bd
       0.02093774 0.4863181 -0.39914858 -0.0862816
0002f0 54 97 f8 3e 72 e0 b2 3e 64 9a 14 3e 80 d3 5c be
       0.48552954 0.34936863 0.1451202 -0.21565056
000300 80 e9 3e bd be 8f e5 be 14 04 f1 be f4 da ef be
       -0.0466094 -0.4483623 -0.47073424 -0.46846735
000310 82 e1 f5 3e 66 7a ca 3e 7c 18 4b 3e e4 99 00 be
       0.4802361 0.39546508 0.19833559 -0.12558705
000320 f6 69 dc 3e cc 3d 07 be fe b8 b1 3e a0 4f 85 bc
       0.43049592 -0.13207167 0.3471145 -0.01627332
000330 90 d9 70 be c4 e5 0e be 18 a7 da bd 7c 53 ea be
       -0.23520494 -0.13954836 -0.10676402 -0.4576682
000340 bc 1b 19 3e 0c ff 1b be 4c 3b 6b 3e c0 38 a3 3e
       0.14951986 -0.15234011 0.22971839 0.31879234
000350 30 ce a2 bd 48 4f 78 3e 40 97 cc 3d f4 eb ab 3e
       -0.079494834 0.24248993 0.09989786 0.33578455
000360 bc 18 a5 be 20 ce 33 bd 1c 9d 2a be c0 50 e0 3e
       -0.32245433 -0.043897748 -0.16661495 0.43811607
000370 9e c8 e5 be 08 e4 8f be e0 32 67 3d a6 42 e3 3e
       -0.4487962 -0.28103662 0.056445003 0.44386786
000380 52 36 ad 3e d8 8d ef be 10 fc b3 be 50 38 f8 3e
       0.33830506 -0.46787906 -0.35153246 0.48480463
000390 c0 3b 95 3d 04 44 db be 48 4e 21 be c8 d6 5f 3e
       0.07286787 -0.4282533 -0.15752518 0.21859276
0003a0 40 20 d6 bd 14 a4 c4 be f8 0e 9e be ee 9d 84 be
       -0.1045537 -0.38406432 -0.30870795 -0.2590174
0003b0 80 70 a0 bc 00 a6 48 3e 68 d3 75 3e ac b9 78 be
       -0.019584894 0.19594574 0.24006426 -0.24289578
0003c0 28 d0 ab bd 6c a7 c5 be 2a 99 c1 3e ec 79 ff 3e
       -0.08389312 -0.38604295 0.37812167 0.49897707
0003d0 42 d3 f8 3e dc 3d 51 3e d0 5a da bd c0 36 4c bc
       0.48598677 0.20433754 -0.10661852 -0.012464225
0003e0 ac b8 38 3e 32 e7 dd be 20 44 fe 3c 42 17 d0 be
       0.18039197 -0.4334045 0.031038344 -0.40642744
0003f0 ae f4 ff be 20 e7 88 bc ec fe 22 be 74 2a a2 be
       -0.49991363 -0.016711771 -0.15917557 -0.31673014

layers.0.bias f4 [256]
000000 7f 59 07 bf 6d 6c fd 3e 88 2d d0 3e c9 e3 31 bf
       -0.52870935 0.49496785 0.40659738 -0.694882
000010 26 17 0e bf 44 b8 ee be 9a fb c3 be ba d1 b4 3d
       -0.5550407 -0.4662496 -0.38277894 0.08829065
000020 90 00 33 bf a5 33 06 bf 70 56 a5 3e f6 24 6d be
       -0.69922733 -0.52422553 0.3229251 -0.2315863
000030 34 10 90 be ff c0 15 bf 09 bd 92 3e b1 86 4c 3d
       -0.28137362 -0.58497614 0.28659847 0.04993314
000040 59 f0 8b be e6 b4 dd be c1 fd 19 3e f6 03 45 3e
       -0.27331808 -0.43302077 0.15038206 0.19239792
000050 e1 b1 a0 3e 6c 2e 57 3e c4 e8 dc bd ee 20 0c bf
       0.3138571 0.21013802 -0.10786584 -0.54737747
000060 12 7a e6 3e a2 9e c6 bb 35 9b f0 be f8 1b 1c 3f
       0.45015007 -0.006061391 -0.46993414 0.60980177
000070 97 da c9 3e b7 44 0e bf ec ce b4 be 1c 68 76 be
       0.39424583 -0.555736 -0.3531412 -0.24063152
000080 b5 ff d0 be 3b 11 a9 3e 5e 23 01 bf d7 3b 28 3f
       -0.4082009 0.33020958 -0.5044459 0.6571631
000090 9d a4 95 be d8 b3 d5 3e 54 44 c5 3c ac 38 9f be
       -0.29227152 0.41738772 0.024080433 -0.31097925
0000a0 60 c3 f1 3e b4 1f 0a bf 52 8c bf be 90 93 ad 3d
       0.47219372 -0.53954625 -0.37411743 0.08475411
0000b0 1a 99 0f 3f 0e 1e 9b be dd 74 dc be 97 21 e7 be
       0.5609299 -0.30296367 -0.4305791 -0.45142815
0000c0 53 9d 9f be 1a 1f 7a be 2a a7 28 be 6d f5 cd be
       -0.31174716 -0.24425927 -0.16470018 -0.40226308
0000d0 90 4e 62 3e c5 2d bc 3b 69 8b ec be 5a bf ce be
       0.22100282 0.005742761 -0.46200112 -0.40380365
0000e0 2a 53 19 3e b7 7f 25 bc b3 1d 00 3f d9 88 db bd
       0.14973131 -0.01010125 0.5004532 -0.10719461
0000f0 e2 a4 12 bf 58 e2 05 bf e8 88 54 be d3 5d 20 be
       -0.5728284 -0.522985 -0.2075535 -0.15660791
000100 68 44 a5 3d a0 63 22 be 68 95 85 3e fe d0 70 be
       0.08069688 -0.15858316 0.2609055 -0.23517224
000110 1f dc 04 3f bd 4f 26 3e 75 9b 5e be 17 53 21 3f
       0.5189838 0.16241355 -0.2173899 0.6301741
000120 42 da 38 3e b1 09 f6 be 84 7d c9 be f1 00 e3 3e
       0.18052009 -0.4805427 -0.39353573 0.44336656
000130 c4 59 a5 3e be 56 0d 3f 6b 7b 5e bd a0 37 fd 3e
       0.32295048 0.55210483 -0.05431692 0.494565
000140 71 ff b3 3e 14 ed 5f 3e b1 95 27 be 25 80 2e 3f
       0.35155824 0.21867782 -0.16365696 0.68164283
000150 e9 86 12 3e 67 d2 3a be e6 b6 24 bc 66 f3 31 3f
       0.14309277 -0.18244325 -0.010053372 0.6951202
000160 e1 29 f3 3e 70 a2 56 bd 12 77 31 3f e8 fb 9e 3e
       0.4749289 -0.052401006 0.6932231 0.31051564
000170 6c c1 c0 be 76 bd 24 bf 08 65 d2 3e 0f c4 29 3f
       -0.3764757 -0.64351594 0.41092706 0.66314787
000180 c8 ee d2 be 93 b2 94 3e 6f 99 f6 3c 05 d2 1a be
       -0.411978 0.2904249 0.03010246 -0.15119179
000190 59 e2 44 be 80 70 49 3e 9b a0 1f 3e 2a 86 f4 3e
       -0.1922697 0.19671822 0.1558861 0.4775861
0001a0 74 88 84 3e 92 bf a4 3e fe af 1f 3f 8f 77 61 3e
       0.25885355 0.32177407 0.6237792 0.22018264
0001b0 bc f7 d6 3d 2f ce 83 be f6 c1 04 3f 8e dd d5 3d
       0.1049647 -0.25743243 0.5185846 0.10442649
0001c0 d4 5b e9 3e fa cc 2e 3f 29 f1 21 be 67 e9 fe 3e
       0.45577872 0.6828152 -0.15814652 0.49787447
0001d0 c7 0b 13 be 73 5b 23 3f be 7a 0e 3f 7f c4 81 be
       -0.14359961 0.63811415 0.5565604 -0.25345227
0001e0 ea be cf 3c ea 1a 9e be ef 6c 92 be 22 9a 12 be
       0.02535959 -0.3087991 -0.28598735 -0.1431661
0001f0 25 f8 9d bb 8b 68 7c be c7 e1 2a bf 8d f8 da be
       -0.004820841 -0.24649255 -0.6675076 -0.42767754
000200 4d 80 77 bd be 25 67 be fc 73 06 3f 90 24 13 3f
       -0.06042509 -0.22572991 0.5252073 0.57477665
000210 2b a4 e6 3e 4c 3b a0 3e 69 81 0f bf 4a 05 2b 3f
       0.45047125 0.3129524 -0.5605684 0.66804945
000220 1d 84 1f bf 9c 0b 6e be f4 ce fe be 6b 30 82 3e
       -0.62310964 -0.23246616 -0.49767268 0.25427565
000230 06 a1 16 bf a9 7b b2 be 9b f8 e5 be 3f 8a de be
       -0.5883945 -0.3485997 -0.44916233 -0.43464848
000240 a2 01 a9 be 01 f2 31 3f b1 90 6c bd 27 b8 5c 3e
       -0.33009058 0.69509894 -0.057755176 0.21554624
000250 eb b1 33 bf 6f f2 20 3f 21 ac 1d be 1e 21 26 bf
       -0.70193356 0.62869924 -0.15397693 -0.6489428
000260 9a 80 f9 3e 3b c9 43 be b2 63 24 3f 86 e8 f5 be
       0.48730928 -0.19119732 0.6421462 -0.48028964
000270 72 10 28 bf d0 fd 07 bf ca d3 9c 3e ef 67 a2 bd
       -0.65650094 -0.5312166 0.30630332 -0.0792998
000280 26 b3 27 bf 96 41 06 3e b1 9d 38 bd 27 cb 82 3e
       -0.65507734 0.13110957 -0.04507226 0.25545618
000290 6d 29 b8 be 46 3a 01 bf 74 c2 f6 3e 98 36 ae be
       -0.35969105 -0.50479543 0.4819523 -0.34026027
0002a0 ad ab fe 3e 83 c5 12 3f 7f 2f fd be 16 ea a6 be
       0.49740353 0.5733263 -0.494503 -0.32600468
0002b0 6d 54 ae 3d 4f ad 2a bf a6 5e 5e 3e 06 d9 96 be
       0.08512197 -0.666707 0.21715793 -0.2946245
0002c0 17 85 a0 be a6 f0 0b bf 4e 5e a9 3e 45 b5 e6 be
       -0.3135154 -0.54664075 0.3307976 -0.45060173
0002d0 68 b0 10 bf 27 6a 3e be 30 8c c9 be 93 fc 2f bf
       -0.56519175 -0.18595181 -0.39364767 -0.6874477
0002e0 24 e8 91 3e 4a be 89 be 7a 98 fd 3e 61 d8 fe 3e
       0.28497422 -0.26902992 0.49530393 0.4977446
0002f0 cb e5 e6 be 00 0f d3 be 16 82 80 be e2 10 d4 3e
       -0.45097193 -0.41222382 -0.25099248 0.4141913
000300 37 66 c7 bc 1f 56 81 be a6 46 e0 3e 44 ab 2b 3f
       -0.024340732 -0.25261018 0.438039 0.67058206
000310 c1 d3 05 3f 2e 6d 0a bf f4 63 16 be 08 e3 0a be
       0.52276236 -0.54072845 -0.14686567 -0.13563168
000320 7e 7b 1a 3f da 3f bb be cd 7e cf be 78 42 35 3c
       0.60344684 -0.36572152 -0.4052643 0.011063211
000330 c6 33 28 be b9 09 89 3e a2 06 b0 3d 05 28 d8 be
       -0.16426 0.2676523 0.08595015 -0.42218032
000340 c4 a0 03 3f 80 5c e1 3e 26 90 1e 3e 52 d8 23 bf
       0.51417184 0.44015884 0.15484676 -0.64001954
000350 01 21 aa 3e a7 8f f0 3e 78 95 49 3e 91 f1 8b be
       0.33228305 0.46984598 0.19685924 -0.27332738
000360 05 3f 42 3d a0 14 8b be e1 6b 2a 3f 90 cb 2e 3f
       0.04742338 -0.27164173 0.6657086 0.6827936
000370 80 c2 a8 bd 25 94 f3 be 5d f8 d4 3e 30 c7 b8 3e
       -0.08240223 -0.47573963 0.41595736 0.36089468
000380 79 e8 bf 3e 61 35 08 bf 53 86 75 3e 07 80 9a be
       0.3748205 -0.5320645 0.23977022 -0.30175802
000390 80 1b 1f bf a0 cd fc be 77 78 99 3e 20 8a 87 3e
       -0.62151337 -0.4937563 0.2997472 0.2647257
0003a0 ea df 1e bf be 4d cd 3e 4a b4 0a 3f b7 6a 09 3f
       -0.62060416 0.40098375 0.5418135 0.5367846
0003b0 28 6c cc 3e 6f 54 e3 bd f7 96 f2 3e 64 b7 0d 3f
       0.39926267 -0.11100089 0.47380802 0.55357957
0003c0 5b b9 bc 3e be 32 02 bf 49 b5 7c be 28 68 0f 3f
       0.36860165 -0.50858676 -0.2467853 0.56018305
0003d0 3e 01 0a 3f 5b 02 e7 3e 5a 51 97 be f9 66 0f be
       0.53908145 0.45118985 -0.29554254 -0.14004125
0003e0 73 dc 06 bf 81 53 ce be e1 f4 0a 3f ac 93 14 bf
       -0.5268013 -0.40298083 0.54279906 -0.5803783
0003f0 14 f0 32 be f5 b2 19 3e 47 3a d9 be 6c c8 28 3e
       -0.17474395 0.15009673 -0.42427275 0.16482705

layers.1.weight f4 [256, 256]
000000 f3 e5 9b 3b a9 26 03 ba 81 fb 84 bb 29 bb 93 3b
       0.0047576367 -0.0005003014 -0.004058302 0.004508395
000010 0c bd bc ba f1 a0 c6 ba 1e 8e 5a 3b 9b bd 5b ba
       -0.0014399602 -0.0015154165 0.0033348869 -0.00083824404
000020 a2 d6 ee b9 48 0f 94 bb cb d3 52 bb c3 0f 46 3b
       -0.0004555481 -0.004518423 -0.0032169695 0.0030221797
000030 1c 15 7d 3b d7 21 39 3a 4c 63 23 ba 87 16 7e 3b
       0.0038617318 0.00070622325 -0.0006232753 0.0038770752
000040 b3 26 22 ba 70 f2 67 bb 80 29 c5 ba d5 e9 5e 3b
       -0.0006185576 -0.0035392307 -0.0015042275 0.0034013886
000050 bc dc 4f 3b d0 66 47 3b b8 59 a6 ba 60 20 e8 3a
       0.0031717261 0.0030426271 -0.0012691533 0.0017709844
000060 c4 ef 36 3b b0 50 ed 3a 74 df 99 3b b5 8c e8 38
       0.0027913908 0.0018105712 0.004695827 0.00011088831
000070 c7 ea 26 3a 87 27 2c bb c6 9a 6e ba 98 4e 14 3b
       0.0006367382 -0.0026268677 -0.00091020425 0.0022629853
000080 a0 50 91 3b c0 c0 4f 3b dd d3 c6 39 ec 17 fa ba
       0.00443466 0.0031700581 0.00037923353 -0.0019080616
000090 97 c0 3c bb 6b 15 b9 3a 7d bd bc ba 49 9d 15 3b
       -0.0028801316 0.0014120763 -0.0014399734 0.0022829345
0000a0 99 cc da ba 18 53 df b7 ba c4 7b 3b 20 96 0f 3b
       -0.0016693055 -2.6622365e-05 0.0038416819 0.002190955
0000b0 ed 13 7d 3b 1f 94 63 3b 98 f0 26 bb a1 8f 12 bb
       0.0038616613 0.0034725738 -0.0025472995 -0.0022363442
0000c0 da 68 9c 3a 26 60 1e 3b be 4a 99 b9 9d cf 10 ba
       0.0011933104 0.0024166196 -0.0002923812 -0.0005524101
0000d0 f3 e3 31 3b 36 98 f2 ba 33 3f 5f bb ea 06 9c 38
       0.0027143925 -0.0018508497 -0.003406477 7.4399475e-05
0000e0 80 7c 50 3b b6 39 37 bb 9c 67 af ba 1a b9 14 3b
       0.003181249 -0.0027957982 -0.0013382318 0.0022693337
0000f0 d6 b8 38 bb 45 a3 ba ba 0b 64 9f 3a d6 87 34 3b
       -0.0028186343 -0.0014239332 0.0012160552 0.0027546785
000100 06 9f 84 3b b6 79 78 3b 7d 5e 99 39 60 3c a3 ba
       0.0040472774 0.0037914342 0.00029252833 -0.0012453906
000110 4a 2a 53 3b e5 da 2a 3a 46 18 8a 3b df f2 25 3b
       0.0032221251 0.0006517603 0.0042143194 0.0025321764
000120 60 5f 28 bb 2b 61 33 bb 32 39 08 3a 9a eb 5f bb
       -0.0025691614 -0.002737115 0.0005196511 -0.003416753
000130 0d 79 02 ba 60 7f fc 3a dd d4 e9 39 25 df 8e 3b
       -0.00049771444 0.0019264035 0.0004459982 0.004360097
000140 55 bb 34 3b 25 e5 e1 3a ec 4f 8b 3b 4b 11 e8 ba
       0.002757748 0.0017234428 0.004251471 -0.0017705349
000150 d4 59 89 bb 95 e3 8f b9 d1 dd e9 3a 2b 11 5d 3a
       -0.0041916166 -0.00027444647 0.0017842596 0.0008433039
000160 4a fd 21 ba 03 cc 3a bb dd 8f 51 bb dd 97 4f ba
       -0.00061794056 -0.0028502948 -0.0031976618 -0.0007919053
000170 6f b1 8f 3b 0f 0a 96 3b c2 4f bc 3a b3 c0 cb ba
       0.0043851654 0.004578836 0.0014367031 -0.00155451
000180 44 8c 61 bb 47 a0 70 bb e7 0e 82 3b e2 17 44 ba
       -0.003441588 -0.0036716626 0.0039690617 -0.00074803655
000190 47 05 34 bb 7a 24 4b bb 72 71 83 3b 1c ea 8a 3b
       -0.0027468966 -0.0030997084 0.0040113265 0.004239334
0001a0 53 23 a9 ba 9c 43 90 ba 1a 3b 0e bb 7f f8 52 bb
       -0.0012904204 -0.0011006477 -0.0021702708 -0.0032191572
0001b0 03 98 a6 ba ce d6 07 3b f1 4d 8e 3a a1 7e af 3a
       -0.0012710098 0.0020727399 0.0010856969 0.0013389179
0001c0 53 cc 02 bb 93 1f 12 3a 5f 9c 3b 3a b1 b3 6b bb
       -0.0019958213 0.0005574163 0.0007156785 -0.0035965259
0001d0 f2 df 2b 3b 3d 08 5f bb fc bd 7d ba 8c 3b 80 3b
       0.002622601 -0.003403201 -0.0009679494 0.0039133485
0001e0 70 d0 16 3b 3c 95 07 ba 0c 27 73 39 63 46 4b bb
       0.0023012422 -0.0005172079 0.00023188832 -0.0031017296
0001f0 9f d6 49 3b bf b3 89 3b 79 2e 8f ba 53 46 82 bb
       0.003079809 0.0042023356 -0.0010923884 -0.0039756685
000200 4f c5 5c 3b d4 a9 26 bb 1f 71 89 ba 21 af c3 39
       0.003368694 -0.0025430815 -0.0010485983 0.0003732378
000210 27 fa 90 ba 2c ae 72 bb f0 93 1b 3b 9f 49 ce 39
       -0.0011060879 -0.0037030084 0.00237393 0.00039346234
000220 76 8c 56 3b ce 62 8e bb 1a f3 89 3b 39 92 be ba
       0.003273753 -0.0043452745 0.004209888 -0.0014539427
000230 df b6 33 3b 71 f3 4f bb 29 67 08 ba 41 0b 2d bb
       0.0027422232 -0.0031730796 -0.00052033603 -0.0026404413
000240 fa c5 84 3b d3 38 56 ba 9d 21 c3 3a 39 fc db b8
       0.004051921 -0.00081719196 0.0014887337 -0.00010489714
000250 84 a0 81 bb 3f 8f 23 bb 9f 59 89 ba 3b 70 03 bb
       -0.0039559025 -0.0024957207 -0.001047898 -0.0020055908
000260 19 3f 32 bb 1d ea 06 3b 16 45 78 3b 17 1b c9 3a
       -0.0027198254 0.002058632 0.0037882975 0.0015343156
000270 8d 85 52 bb 5d 70 49 3b da 02 27 3a 1f 5c 9c 3b
       -0.003212306 0.003073714 0.00063709693 0.004771724
000280 40 ed 19 bb 7f 68 0f 39 fa 95 2f b9 83 fe 1d ba
       -0.002348736 0.0001367647 -0.00016745171 -0.0006027
000290 dd 4b 8b 3b d4 16 8a 3a e7 e6 ee 3a 47 dd 2b 3b
       0.004250987 0.0010535368 0.0018226773 0.002622442
0002a0 c1 d1 40 bb 1e 8f ff 3a cc 85 1b bb d5 76 ff ba
       -0.0029421898 0.0019497608 -0.0023730872 -0.0019490371
0002b0 89 dc 36 bb af da 71 bb 71 f4 28 bb 2c 8a 22 3a
       -0.0027902445 -0.0036904027 -0.0025780464 0.0006200399
0002c0 08 b0 97 3a db 48 34 3b fa ab 1f 3a 96 e0 11 3b
       0.0011572847 0.0027509246 0.0006090995 0.0022259108
0002d0 f2 07 49 3b f7 a1 c9 3a 89 24 9a bb 36 7f 43 3a
       0.0030674902 0.0015383352 -0.0047040624 0.00074576156
0002e0 5f b2 ec ba fc c0 8d bb cf 33 9e ba 50 76 0f ba
       -0.001805853 -0.004325984 -0.0012069884 -0.0005472647
0002f0 de c1 61 bb 96 5a 5f bb c2 39 06 bb 88 70 0e 3b
       -0.003444783 -0.0034081093 -0.0020481204 0.0021734554
000300 11 4e 83 3b 93 9b 7d 3a 41 3a 65 3b d3 29 76 3b
       0.004007109 0.00096743664 0.003497735 0.003756155
000310 14 9d 06 bb 8e 3c a6 3a d7 3e a1 3a 19 e3 62 3b
       -0.0020540403 0.0012682842 0.0012302053 0.0034620224
000320 e9 4d 3b ba a9 26 7b 3b 40 e7 98 3a 2a f9 7d bb
       -0.00071450934 0.0038322604 0.0011665598 -0.003875325
000330 a6 34 61 ba 6d 79 37 3b d5 99 7b bb 0c f0 bc 3a
       -0.0008590914 0.002799596 -0.0038391252 0.0014414801
000340 a4 a5 7f 3b a2 38 25 bb 5e 8e e0 ba 6a b8 e8 39
       0.0039008642 -0.0025210758 -0.0017132272 0.00044387887
000350 52 ae 01 ba 20 db 8b 3b 1e 0b 54 3b 8a 6c 86 ba
       -0.0004946935 0.004268065 0.003235526 -0.0010255736
000360 77 a3 c2 ba d7 36 e6 ba 65 ea 44 3b 2a 8a 0f 3b
       -0.0014849742 -0.0017563951 0.0030046937 0.002190242
000370 44 4f 2d bb 8b 11 b2 39 cf be a5 ba dc ab 81 bb
       -0.002644495 0.00033963876 -0.0012645366 -0.003957255
000380 ed 7a 17 3b e6 64 17 b9 3b 37 94 3b 1e b8 66 3b
       0.002311404 -0.0001443807 0.0045231855 0.0035204957
000390 9d e5 49 ba 4a 4c 60 ba 4c 5c 2b ba 40 8e 71 3b
       -0.00077017565 -0.000855629 -0.00065368856 0.003685847
0003a0 50 88 80 bb 9c 3e 79 3b 81 87 70 ba d0 e4 65 3b
       -0.0039224997 0.0038031703 -0.0009175465 0.003507901
0003b0 f2 82 84 bb 09 21 65 3b 25 e2 d2 ba e5 22 13 3b
       -0.00404393 0.0034962317 -0.0016089125 0.0022451219
0003c0 c2 ed 37 bb ef 88 95 b9 27 41 c7 ba 98 6e fc ba
       -0.0028065299 -0.00028521518 -0.0015201912 -0.0019259034
0003d0 a4 f5 49 bb 88 d8 77 bb 57 97 c1 ba 26 27 63 bb
       -0.003081658 -0.0037818272 -0.0014769834 -0.0034660785
0003e0 0f 87 94 3b ab 6e 12 bb 62 6d 5a 3b 17 6a ba 3a
       0.004532702 -0.0022343795 0.0033329357 0.0014222291
0003f0 a7 0d 0a bb 53 3a 6a 3a 74 1f 9c 3b 2d 04 b1 38
       -0.0021065266 0.00089350826 0.0047644917 8.4407955e-05

layers.1.bias f4 [256]
000000 16 77 52 3d 44 6a 16 bd a0 fe 5a 3b 38 66 73 3d
       0.0513831 -0.036722437 0.0033415928 0.059423655
000010 e4 44 32 3d 60 6b 03 bc 50 91 25 bd 6e bc 6f bd
       0.04352273 -0.008021206 -0.040421784 -0.05852931
000020 60 e0 a5 bc 50 d0 5f 3d 48 d6 14 3c 7a b2 13 bd
       -0.020248592 0.05464202 0.009084292 -0.03605888
000030 80 1b 7b ba 80 bd f8 3b 00 57 cb 3c a2 fa 37 3d
       -0.0009578988 0.0075909495 0.024821758 0.044916756
000040 34 96 73 3d 68 3b 62 bc 48 5e 53 3c 1c 2b 1c 3d
       0.059469417 -0.013808109 0.012900896 0.03812705
000050 38 5a 37 bc ac 65 82 3c 58 22 52 bd 80 39 f0 3a
       -0.011190943 0.015917622 -0.051302284 0.0018327683
000060 00 1f 47 bb b8 3d e6 3c 20 6a b3 3c 66 dd 51 3d
       -0.0030383468 0.028105602 0.02190119 0.051236533
000070 30 49 60 3d 68 d0 57 3d 88 86 16 3d f4 75 08 bd
       0.054757297 0.052688986 0.036749393 -0.033315614
000080 a2 08 3e 3d 54 f5 bc 3c 76 86 7c bd aa e6 14 3d
       0.04639495 0.0230662 -0.06165167 0.03635279
000090 00 aa bd bb 28 cd 2c bc 18 78 18 bc 90 51 2c bd
       -0.005788088 -0.01054696 -0.009305976 -0.04206997
0000a0 60 81 29 3c 10 d3 bc 3b f0 07 02 bd b8 59 d9 3c
       0.010345787 0.0057624653 -0.03174585 0.026532039
0000b0 e2 f6 43 3d 60 0b cd bc a0 9e 36 3b d8 2c 37 bc
       0.047842868 -0.025029838 0.0027865544 -0.011180125
0000c0 8e 5f 16 3d d6 75 14 3d ec f5 72 bd 94 1b 60 bd
       0.03671222 0.03624519 -0.05931656 -0.0547138
0000d0 e0 48 08 3b b4 40 9e bc 78 0b 09 bd c8 2f fc bc
       0.002079539 -0.019317962 -0.033458203 -0.030784503
0000e0 6c 97 af 3c 80 b9 53 3d 74 4f 56 bd 1c e8 a0 bc
       0.021434508 0.05169058 -0.052321866 -0.019641928
0000f0 d0 f8 97 bc 40 3e f9 bc 20 42 4b bc 20 4e 03 3c
       -0.01855126 -0.03042519 -0.012405902 0.008014232
000100 20 8e 84 bc f0 fb 3b bc 00 bd ad 3c c0 87 37 3b
       -0.016181052 -0.011473641 0.021208286 0.0028004497
000110 04 3a c8 3c ac 3b 33 3d 50 e8 f1 bc 8c ee 21 bd
       0.024441727 0.04375808 -0.02952972 -0.039534137
000120 bc 5d c0 bc 4a 88 3a bd d6 ed 26 bd 88 8d 50 bc
       -0.023482196 -0.04554013 -0.04075416 -0.012729056
000130 40 0d 90 ba 46 84 26 bd ac 38 b2 3c ca a9 4e 3d
       -0.0010990277 -0.04065349 0.021755539 0.050454892
000140 8a 34 7c bd e8 0f 30 3c e8 95 cd bc 06 f1 28 bd
       -0.061573543 0.01074598 -0.025095895 -0.041245483
000150 d4 cd b5 3c 02 a5 72 bd c4 e5 64 bd 80 ee 15 3c
       0.022192873 -0.059239395 -0.055883184 0.009151101
000160 00 57 82 bc 30 2d 72 bc dc 23 72 3d d8 4e ae bc
       -0.015910625 -0.014781281 0.05911623 -0.02127783
000170 00 a3 fb 3c 60 50 a7 3c 52 52 3f 3d e4 83 2a 3d
       0.030717373 0.020424068 0.046709366 0.041629687
000180 88 b1 aa bc 90 27 99 3c ea 2d 4c 3d 40 5e 51 3c
       -0.020836607 0.018695623 0.049848475 0.012778819
000190 f4 d7 87 3c 18 f1 36 bc 4a 8c 36 bd f0 a0 1d bc
       0.016582467 -0.01116588 -0.044567384 -0.00962089
0001a0 42 3c 52 bd 2c 4a 70 3d 7a b4 64 3d 80 e3 31 3a
       -0.051326998 0.058664486 0.05583618 0.00067859143
0001b0 1c cd 95 bc 0e 90 0e bd 14 3a a1 bc 60 54 15 bc
       -0.01828628 -0.03480535 -0.019681014 -0.009114355
0001c0 58 1c 6b bc 8e e8 76 3d 84 8d 0f bd 14 f9 2a 3d
       -0.014350019 0.060280375 -0.03504707 0.041741446
0001d0 94 13 8a bc d0 e7 3b bd 30 d9 77 3c e8 b7 14 3c
       -0.016855039 -0.04587537 0.015127465 0.00907705
0001e0 7c ea 62 3d 62 2c 6f bd 50 02 c0 3b 6e ad 4c bd
       0.055399403 -0.058391936 0.0058596507 -0.049970083
0001f0 68 5f 14 bc 20 af 8a bb be 65 78 bd dc 8a c3 bc
       -0.00905595 -0.0042323023 -0.060643904 -0.023869924
000200 20 47 c1 bc ca e4 76 3d 10 60 a5 bc e0 91 a9 bc
       -0.023593485 0.060276784 -0.020187408 -0.020699441
000210 7e a2 25 3d 8a 87 40 3d ec 40 37 3d 28 c3 43 bc
       0.040438168 0.04700426 0.04473965 -0.011948384
000220 3e dd 04 bd 44 c2 45 bd bc 0c 46 bd 70 55 ee bb
       -0.032437555 -0.04828097 -0.04835199 -0.0072733685
000230 ba 47 7d 3d 80 50 6a ba d0 ac 26 bc e0 1d 69 3c
       0.061835982 -0.0008938387 -0.010173038 0.014228314
000240 48 ba f3 3c 80 b9 67 bc b6 87 45 3d dc 02 f1 3c
       0.029751912 -0.014143348 0.048225127 0.029420309
000250 00 58 c9 39 60 3d f2 3c 42 23 21 bd e0 e3 e3 bb
       0.00038403273 0.029570282 -0.039340265 -0.006954655
000260 6c a3 d5 3c 38 a5 b7 3c 40 7f c0 ba 2c 80 9d bc
       0.026078902 0.02241765 -0.0014686361 -0.019226156
000270 00 e0 11 3c 00 f2 45 ba 5a fd 7b bd 8a 4f 50 3d
       0.008903503 -0.00075510144 -0.06152091 0.050857104
000280 0c fb 05 bd 2c b3 36 3d 62 09 17 3d 0c 51 cc bc
       -0.03271012 0.044604465 0.036874183 -0.02494099
000290 80 96 b4 3b d8 38 c7 bc 04 b0 dc 3c 80 98 65 3a
       0.005511105 -0.024319097 0.0269394 0.0008758381
0002a0 06 51 4c 3d 72 38 14 bd ec 24 63 3d 20 e5 e8 3c
       0.049881957 -0.036186643 0.055455133 0.028429568
0002b0 8e 7a 7e 3d 1c 12 83 3c d0 b0 3d 3c a2 3f 32 3d
       0.062128596 0.015999846 0.0115778 0.043517716
0002c0 44 5f 75 bd 50 50 1a 3c 04 02 af 3c 60 26 4c bd
       -0.059905306 0.009418562 0.021363266 -0.049841285
0002d0 6e b8 25 bd f0 24 7b bc 20 ba f6 bc 22 e6 60 3d
       -0.04045909 -0.015328631 -0.030118048 0.05490697
0002e0 e4 fe b9 3c 80 f2 61 bc 80 81 51 3a 62 da 7c bd
       0.02270455 -0.013790727 0.0007992014 -0.061731704
0002f0 88 44 84 bc 7c 58 09 3d 00 a9 f0 39 a0 1b 89 3b
       -0.01614596 0.03353165 0.00045902282 0.0041842014
000300 00 d9 25 3b 10 b9 2c 3c 68 eb 21 3c 08 43 25 3c
       0.0025306344 0.010542169 0.009882785 0.010086782
000310 50 59 dd 3b 60 27 7a 3d d0 d8 75 3c 18 a8 4b 3d
       0.0067550316 0.061072707 0.015005305 0.049720854
000320 80 d2 75 bb 26 aa 2d 3d 3a 04 07 3d 2c 42 a4 bc
       -0.00375095 0.042398594 0.032963015 -0.020051084
000330 50 fc a3 bc 70 a6 1d bd e8 4f 6c 3c 88 ea 21 3d
       -0.020017773 -0.038488805 0.014423348 0.039530307
000340 ba a4 08 bd 3a ab 1b bd a0 da 03 bd a0 d5 ed bc
       -0.03336022 -0.03800509 -0.03219092 -0.029032528
000350 8c 42 1f 3d 68 42 50 3d 64 11 bf bc b0 a0 8a bb
       0.038881823 0.05084458 -0.023323722 -0.004230581
000360 dc b1 93 3c 1c 5c 94 bc 16 da 6f 3d 5c af ee bc
       0.018029146 -0.018110327 0.058557592 -0.029136352
000370 80 04 91 bc 64 6f 40 bd c2 e9 34 bd 00 98 93 bb
       -0.017702341 -0.04698123 -0.04416824 -0.004504204
000380 ae f7 78 bd 98 ee 75 bd 40 43 9b 3b 1e d1 42 bd
       -0.06078308 -0.060041994 0.0047382414 -0.04756271
000390 c2 b0 12 3d 40 cd 4d bd 5c 1c 7b 3d 00 01 bf 3a
       0.0358131 -0.05024457 0.061306342 0.0014572442
0003a0 90 4a dc 3c d0 01 9c bb c4 8f 98 3c 00 38 7d 38
       0.026891023 -0.0047609583 0.01862324 6.0372055e-05
0003b0 e8 0f 60 bd f4 0c 7c 3d d0 b8 af bb 80 3e ef 3c
       -0.05470267 0.06153579 -0.0053626075 0.029204607
0003c0 bc d0 e4 bc b8 ad 22 3c d8 ef 8d 3c ca ce 73 3d
       -0.027931564 0.009929113 0.01732628 0.05952338
0003d0 e6 37 6d bd 42 62 79 3d c0 c9 79 3b 74 fa 94 bc
       -0.057914637 0.06088472 0.0038114637 -0.018185832
0003e0 70 11 01 3c 2e ac 6c 3d 60 cc fd 3b cc 98 98 bc
       0.007877693 0.05778139 0.0077453107 -0.018627547
0003f0 18 4f 7f bc 38 7b 46 bd c0 62 73 bd bc c3 7a 3d
       -0.015582822 -0.048457354 -0.059420347 0.061221823

layers.2.weight f4 [256, 256]
000000 1b 06 c6 ba ac dd 8f 3b f3 15 88 3b 95 0c 83 3b
       -0.0015108021 0.004390439 0.004153007 0.0039993026
000010 b6 8c 6f bb 4a 9b 89 bb 3a fb 8c bb 1d fc a0 3a
       -0.0036552376 -0.00419942 -0.0043024095 0.0012282167
000020 49 d2 2f 3b 17 ab 6f bb 4f f5 05 bb e7 4b 8c bb
       0.002682822 -0.0036570483 -0.0020440405 -0.004281509
000030 60 9c 5a 3a 38 72 00 3b e0 93 6f 3b 88 0f 15 3b
       0.0008339342 0.001959933 0.0036556646 0.0022744853
000040 5f 7f 6b bb 42 82 80 39 30 71 19 bb fd 1d 7b bb
       -0.0035934073 0.00024511112 -0.0023413412 -0.0038317435
000050 de 6a a8 3a 57 38 92 3b 06 0b 14 bb a9 b9 ea b9
       0.0012849232 0.0044622826 -0.0022589578 -0.00044770286
000060 43 13 95 3b 65 9b 04 3b cc 4f 80 3b 38 d1 8a bb
       0.0045494153 0.0020234224 0.0039157625 -0.0042363666
000070 6d 36 72 3b 41 8d 3e bb e4 43 19 bb f6 70 88 3a
       0.003695871 -0.0029075893 -0.0023386413 0.0010409642
000080 3c d3 33 bb be 96 9a bb 5d 21 41 3b 63 89 92 bb
       -0.0027439138 -0.004717677 0.002946935 -0.004471944
000090 7f 4a 87 bb 48 51 91 3a 74 93 a0 ba e6 e7 47 3b
       -0.0041287537 0.0011086846 -0.0012250976 0.0030503212
0000a0 87 be 97 3b 7d 09 3b bb 77 92 81 bb 25 2e 1f 3b
       0.004630867 -0.002853959 -0.0039542275 0.002428898
0000b0 c6 23 ed 3a c5 c7 fe ba b4 c1 96 ba 42 c2 8a bb
       0.0018092326 -0.0019438198 -0.001150182 -0.004234583
0000c0 ab bd fc b9 03 6d 11 bb a5 bc 82 ba 3f ab 7c 3b
       -0.000482065 -0.002219022 -0.0009974433 0.003855422
0000d0 53 bb ff ba b0 64 15 3b 44 93 8f 3b d0 c0 ae 3a
       -0.0019510783 0.002279561 0.004381569 0.0013332609
0000e0 8d 73 7a 3b 80 0f 3d bb 39 cb 12 bb 02 eb 2d bb
       0.0038215846 -0.002884835 -0.0022398962 -0.002653778
0000f0 24 b3 dd b9 f4 86 60 bb 4b 3d 53 bb ce d8 85 3b
       -0.00042285875 -0.0034260126 -0.0032232578 0.004084683
000100 a3 24 2b 3b 37 04 7e 3a 98 9f 69 bb d8 7a 98 bb
       0.0026114366 0.0009689959 -0.0035648104 -0.004653316
000110 6d ad 5c ba 14 1b c6 b9 c4 a6 58 ba a2 19 8f ba
       -0.00084181764 -0.00037785678 -0.0008264596 -0.0010917673
000120 d0 ed 87 3b cf 68 a7 39 73 d6 33 bb bd 73 27 bb
       0.0041482225 0.0003193081 -0.0027441054 -0.0025551163
000130 db 1f 32 bb 5f d7 26 3a 54 f9 51 3a 41 35 36 3b
       -0.0027179632 0.000636449 0.000800987 0.0027802738
000140 2e f3 15 b9 95 cb 86 bb 1a 10 42 3b 6f 3c 15 bb
       -0.00014300339 -0.0041136243 0.0029611648 -0.0022771617
000150 79 b3 78 3b 80 3e 90 bb 6e c7 56 3b b9 50 95 bb
       0.003794877 -0.004401982 0.0032772678 -0.004556742
000160 52 c6 8b ba a2 bd 09 39 41 8d 8e bb e2 c0 09 3b
       -0.0010663962 0.00013135982 -0.004350335 0.0021019508
000170 d2 28 99 bb 3c 04 d4 ba 85 aa 80 ba fc 84 e7 ba
       -0.0046740556 -0.0016175578 -0.0009816444 -0.0017663534
000180 6e 82 9d ba 8e 80 52 bb fa d1 aa 39 07 cf ef ba
       -0.001201702 -0.0032120082 0.00032581371 -0.0018295952
000190 e3 f3 2a ba 9a d4 48 3b af 11 75 bb d9 d4 15 3b
       -0.00065213273 0.0030644299 -0.0037394573 0.0022862463
0001a0 1f a3 5f 3a 51 ae df ba aa 2e 29 3b 6a dd 31 3a
       0.0008531082 -0.00170655 0.0025815167 0.00067850074
0001b0 0e 3f 77 3b 76 73 5d bb 53 07 4d 3b 61 01 80 bb
       0.0037726793 -0.0033790744 0.0031284883 -0.0039064144
0001c0 78 3c 0e ba f7 39 83 bb f2 12 44 39 e9 06 18 3b
       -0.00054258807 -0.0040047127 0.00018699074 0.0023197478
0001d0 6b ba 5b 3b 9d b4 fa 39 1a 06 3a 3b f6 e0 13 3b
       0.0033527862 0.00047818283 0.0028384984 0.0022564507
0001e0 09 7a 18 3a 83 b3 43 3b aa 52 68 bb 1f 07 60 bb
       0.00058165245 0.0029861636 -0.0035449662 -0.0034183932
0001f0 7a 02 a4 39 ac 30 28 ba 43 b6 e9 ba 58 64 95 ba
       0.00031282363 -0.0006415944 -0.0017830807 -0.0011397703
000200 32 79 8a bb 03 7f 93 3b a8 75 39 ba 60 4d d4 ba
       -0.0042258734 0.004501225 -0.0007074722 -0.0016197376
000210 72 39 3c 39 df 3b 7a 3b 7d b8 aa 39 55 76 11 ba
       0.00017950477 0.0038182659 0.0003256238 -0.0005548944
000220 9a 51 16 bb 2d 91 07 ba 8c 7b ad 3a c5 f0 5c 3b
       -0.0022936822 -0.0005171474 0.0013235672 0.0033712846
000230 e3 21 e4 39 c1 99 30 3b b7 ef d6 ba 5b 0f 91 3b
       0.00043512796 0.0026947113 -0.0016398345 0.0044268793
000240 8d 13 01 bb 14 52 77 bb e0 f9 74 3b 8c 6a 02 b7
       -0.001969549 -0.0037738131 0.0037380382 -7.773411e-06
000250 72 e0 f7 3a 3e 99 8a 3b 7d fc 85 bb f6 f1 b8 b9
       0.0018911494 0.0042296937 -0.004088937 -0.0003527549
000260 8b 83 42 3b fa 72 91 bb 2e b3 1c 3b 83 91 3f bb
       0.0029680457 -0.004438755 0.002391051 -0.002923102
000270 d7 58 aa ba 56 5b 70 3b eb 6d 80 bb aa ef 70 3b
       -0.0012996447 0.0036675534 -0.0039193532 0.0036763945
000280 f8 65 29 3b 55 a3 5a bb 60 2a 58 ba b4 d9 b3 3a
       0.0025848132 -0.0033361514 -0.00082460605 0.0013721497
000290 f7 a6 d1 ba 77 4b ef 3a 95 9b 7b bb 55 2d 8e ba
       -0.0015995194 0.0018256743 -0.0038392295 -0.001084725
0002a0 8a 87 d1 38 0b d1 e6 38 c3 f3 28 bb 8b 00 0b ba
       9.991143e-05 0.00011006192 -0.002578006 -0.000530251
0002b0 b1 ad c1 3a f1 7d 7c ba 2f 94 76 3b 87 fe e0 37
       0.0014776496 -0.0009631804 0.0037624945 2.6821404e-05
0002c0 fe 37 73 bb 7c a3 9a bb 9c b4 3c 3a 09 ea 06 3a
       -0.0037112231 -0.004719196 0.0007198544 0.00051465683
0002d0 18 a0 38 ba 5e 78 3a 3b d9 d9 3b bb c7 e2 6e bb
       -0.0007042899 0.0028453092 -0.0028663783 -0.0036451088
0002e0 7b 7a 26 3a bf 74 61 bb 82 56 30 3b c6 5d 07 ba
       0.00063506485 -0.0034401861 0.0026907031 -0.00051638146
0002f0 a0 ae 9e 3a af 07 86 bb b3 ab a2 3a 9c 85 0f bb
       0.0012106486 -0.0040902714 0.001241079 -0.0021899706
000300 21 fc 85 b9 30 20 2c bb ae be 78 bb fe 0a bb 3a
       -0.00025555587 -0.0026264302 -0.003795545 0.0014270244
000310 a5 ae 97 3b f2 1d 8c ba a5 9a 81 38 c4 ce 7f ba
       0.0046289735 -0.0010690077 6.180004e-05 -0.00097582885
000320 7e 5d 82 3b d6 4b 58 bb 5d 76 01 39 ae a3 1c b9
       0.0039784303 -0.0033004186 0.00012346492 -0.00014938295
000330 a3 63 8b 3b 7b 73 8f 3a b3 e4 68 ba 7c c7 b7 3a
       0.004253821 0.001094445 -0.00088841765 0.0014021243
000340 4e 6c 41 bb 9d bf 59 3b da d9 12 bb 65 f5 9e 3a
       -0.0029514018 0.0033225783 -0.0022407682 0.0012127577
000350 00 7c 7c 3b 35 1f 1a 3b ad a6 b4 39 4e 49 9b ba
       0.0038526058 0.0023517136 0.00034456459 -0.0011847408
000360 53 f0 93 3b cd bb 99 3a c3 9b 3d bb 31 d4 86 3b
       0.004514733 0.0011728943 -0.0028931953 0.0041146507
000370 d7 b9 39 bb c1 a1 15 bb 25 d0 3a ba 98 9b 65 3b
       -0.002833953 -0.0022832009 -0.0007126353 0.0035035368
000380 1f f6 7e bb f5 cb 5b 3a 6d b3 31 3a 51 ab 23 bb
       -0.0038904024 0.0008384579 0.00067787507 -0.0024973939
000390 8a a0 1a 3b ea c1 1d 3b 4c e3 7a bb 9b 5c 86 3b
       0.0023594224 0.002407188 -0.0038282452 0.004100395
0003a0 86 73 83 3b ca f2 01 3b 60 29 48 3b f2 b8 73 b9
       0.004011574 0.0019828551 0.003054224 -0.00023243183
0003b0 46 00 3a 3b 65 ff 88 ba 71 7a 8b 3a 23 61 99 3b
       0.002838151 -0.001045209 0.0010641349 0.004680769
0003c0 fd d6 0d bb c6 69 d0 ba 35 da 82 bb 93 00 44 b8
       -0.0021643036 -0.0015900664 -0.0039932975 -4.6730576e-05
0003d0 45 0a 8d bb f9 fd 41 bb 86 93 11 3b 48 02 b3 3a
       -0.0043042027 -0.0029600842 0.0022213175 0.0013657296
0003e0 8d d1 95 3b c6 de 93 bb 85 75 8b bb 04 ac 23 ba
       0.0045720995 -0.0045126406 -0.004255953 -0.0006243589
0003f0 f8 ee c5 3a c7 54 5e bb 33 a6 a3 3a 72 6e 43 ba
       0.0015101125 -0.0033925043 0.0012485444 -0.00074551173

layers.2.bias f4 [256]
000000 2c cd f5 3c 1e 56 15 3d f0 64 c2 bc fc 93 13 3d
       0.03000506 0.03645908 -0.023729771 0.0360298
000010 fc f7 c4 3c c4 e2 9b 3c 68 42 11 bd f0 c6 a8 3b
       0.02404403 0.019029029 -0.03546372 0.0051506683
000020 30 f4 8a 3c fa 73 33 bd 34 15 6d bd 58 b3 26 3c
       0.01696214 -0.043811776 -0.05788155 0.010174595
000030 80 a9 e7 bc 14 72 e5 3c 40 80 b5 bc a0 2a 04 bd
       -0.028279066 0.028008498 -0.02215588 -0.032267213
000040 98 29 47 bc ec c7 d6 3c 6e c5 76 3d d6 74 27 bd
       -0.012155913 0.026218377 0.060246877 -0.040882908
000050 56 1e 0d 3d fc b3 23 3d 58 6a 35 3c d0 b0 e2 bb
       0.03445276 0.03996657 0.011072718 -0.0069180503
000060 a0 ee 4d 3c b0 9c 8d 3b ca ae 6c bd 60 53 02 bd
       0.0125691 0.004321657 -0.05778388 -0.031817794
000070 00 40 0c 39 b4 42 cb bc ba 53 29 3d c8 6d ea 3c
       0.00013375282 -0.02481208 0.041339613 0.0286168
000080 e8 87 d9 bc 00 43 af ba 0e 7b 04 bd 60 26 3b 3b
       -0.026554063 -0.0013371408 -0.032343917 0.0028556809
000090 7c 07 90 3c 6e a6 75 bd 28 d9 69 3d 10 0c ce 3c
       0.017581694 -0.059973173 0.057091862 0.025152236
0000a0 d0 c3 1a 3d 40 4e 1f 3c 68 d6 33 3c ec 99 36 bd
       0.037784398 0.009723246 0.010976411 -0.044580385
0000b0 82 27 2f 3d 3e 69 3a 3d f0 bf a4 bb c4 62 01 bd
       0.042762287 0.045510523 -0.0050277635 -0.03158833
0000c0 d8 ce 07 3d e6 8b 38 3d b0 0d e2 3b dc d3 60 3d
       0.033156246 0.045055293 0.0068986043 0.054889545
0000d0 f2 ba 13 3d 1c 51 a6 3c e8 79 7e bd 80 b5 1d bc
       0.036066957 0.020302348 -0.062127978 -0.0096257925
0000e0 08 83 d9 3c 54 68 7e bd 98 bd 63 3c 98 68 a3 3c
       0.026551738 -0.062111214 0.013900183 0.019947335
0000f0 54 61 cf 3c 56 97 54 3d 14 bf c2 3c c8 d8 75 3c
       0.025314964 0.051902138 0.023772754 0.015005298
000100 10 a5 5a bd b8 b0 4d bd 70 26 3b 3d fa d3 0d 3d
       -0.053380072 -0.05021736 0.045690954 0.034625985
000110 68 9e 42 3c bc a7 bc bc b0 bd 39 3d d4 c9 b5 bc
       0.011878587 -0.0230292 0.045346916 -0.022190966
000120 b4 30 f8 3c e0 a2 f3 bb 5c a5 07 3d 88 e9 b3 3c
       0.030296661 -0.0074351877 0.033116683 0.021961942
000130 70 ee 14 bc 94 88 ae 3c 4c f8 03 bd 88 6d 12 bd
       -0.009090051 0.02130536 -0.032219216 -0.03574899
000140 24 57 db 3c 3c ac d1 3c 40 3e 1b bc 80 bc d9 3a
       0.02677495 0.025594823 -0.009475291 0.0016611964
000150 7c 13 f1 bc 0e e6 37 3d 88 ae 6b bc 48 b3 8e 3c
       -0.029428236 0.04489713 -0.014384873 0.017419472
000160 48 1e 4f bc ba 12 32 3d 74 3a 36 bd 18 07 29 3d
       -0.012641497 0.04347489 -0.04448934 0.04126653
000170 ae 25 7b 3d 96 3d 29 bd b4 15 59 bd ec d0 04 3d
       0.06131523 -0.0413185 -0.052999213 0.032425806
000180 48 47 7b 3c 08 0c 1f 3d 10 5e 29 3c b8 34 b1 3c
       0.015336819 0.038829833 0.010337368 0.021631584
000190 b8 3c f0 bc 6e c0 4f 3d 18 dc 8f 3c 00 40 f6 39
       -0.029325828 0.050720625 0.017561004 0.0004696846
0001a0 a0 42 6a bb 58 a3 55 3c a0 97 82 3c b4 84 29 3d
       -0.0035745278 0.0130394325 0.015941441 0.04138632
0001b0 90 20 1f 3c 54 01 ab bc 20 e9 ea 3c 80 8b 7c 3d
       0.009712353 -0.020874657 0.028675616 0.061656475
0001c0 90 a6 eb 3c 5e 33 3f 3d 5a 15 17 bd 7c bf cb 3c
       0.028765947 0.046679847 -0.036885597 0.02487158
0001d0 f2 4c 70 3d f8 1c 2c bd 60 d6 d3 3b 18 56 9a bc
       0.05866713 -0.042019814 0.0064647645 -0.01883988
0001e0 30 cc 3a 3c 9e 5d 2e 3d 90 f9 9a 3c e8 71 ad bc
       0.011401221 0.04256975 0.018917829 -0.021172479
0001f0 4c 0d 65 3d a4 25 4e bd d8 30 cf 3c 6c 60 ea 3c
       0.055920884 -0.050328866 0.025291845 0.02861043
000200 20 08 55 3b 22 e0 32 bd ee cc 44 3d d0 b0 99 bb
       0.0032506064 -0.04367078 0.048047 -0.004690267
000210 d0 c1 f5 3b 84 6f 98 bc 38 80 35 3d c4 ad fc bc
       0.007499911 -0.018607862 0.044311732 -0.030844577
000220 50 c9 53 bd 90 2b 4f 3c f0 d3 8b 3b ac 3d 0f bd
       -0.05170566 0.012644663 0.0042672083 -0.034970924
000230 48 33 a6 bc 90 26 97 3b 3c 1c fe bc c4 7e de bc
       -0.020288125 0.0046127513 -0.031019323 -0.027160056
000240 fc 00 ac bc b0 c3 88 bb 38 a3 45 bd 18 b6 45 3c
       -0.020996563 -0.0041737184 -0.04825136 0.01206734
000250 60 6b 13 bd a0 5e a5 3b 18 3b d2 3c 34 55 9b bc
       -0.035991073 0.0050466806 0.025662944 -0.018961526
000260 36 a3 2c 3d 38 a2 62 bd 1a f6 45 3d 80 ee aa ba
       0.042147838 -0.055330485 0.048330404 -0.0013041049
000270 80 a5 6a 3c 32 3e 58 3d 8e 63 7c bd 70 6e 1f 3c
       0.014321685 0.05279369 -0.06161838 0.00973092
000280 d8 7d 1a bc 58 c8 03 bd d8 43 de 3c e6 af 2e 3d
       -0.009429418 -0.032173485 0.02713196 0.04264822
000290 e0 62 a6 bc e0 5e 52 bc d4 1d 09 3d 78 ac 6b 3c
       -0.02031082 -0.012840003 0.033475712 0.0143843815
0002a0 90 d0 8c bc 20 bd 36 3c 6c ed 39 bd 72 09 65 3d
       -0.017189294 0.011153489 -0.04539244 0.05591721
0002b0 34 dd b5 3c 0c f0 2f 3d f2 5a 79 bd f8 e1 39 bd
       0.022200204 0.042953536 -0.060877748 -0.045381516
0002c0 48 91 ca bc 72 f9 40 3d 88 38 55 3c ee a5 68 3d
       -0.024727479 0.04711289 0.013013966 0.056798868
0002d0 8e ef 45 bd 00 c0 96 b8 52 31 16 3d fe ed 5e 3d
       -0.04832416 -7.18832e-05 0.03666813 0.054426186
0002e0 c4 5c 47 3d 4e 8d 26 bd dc bd da 3c 90 3a 15 3d
       0.048672453 -0.040662102 0.02670186 0.036432803
0002f0 80 81 f7 bc 18 23 7d bc 60 79 c3 3c 98 7e b1 3c
       -0.030213118 -0.0154502615 0.023861587 0.02166681
000300 dc 25 73 3d e6 fb 4a bd 00 f8 8c b9 f8 9e ae bc
       0.059362277 -0.049556635 -0.00026887655 -0.021316037
000310 e6 56 42 bd 26 59 49 3d 14 a0 05 3d 60 05 3c 3d
       -0.047446154 0.049157284 0.032623366 0.045903563
000320 10 3a 73 3c c0 56 af 3b f2 c4 24 bd 9e 04 2b bd
       0.014845386 0.0053509176 -0.040226884 -0.04175245
000330 f0 2b 29 3c dc 37 52 3d b0 82 59 bc 00 a4 6e 3a
       0.010325417 0.051322803 -0.013275787 0.00091034174
000340 68 ca 09 3d 28 f7 cd 3c 9c 0e aa bc 88 89 08 3d
       0.033640295 0.025142267 -0.02075892 0.033334285
000350 00 90 e1 3c 7e 5f 22 3d aa 2c 05 3d b6 3b 21 bd
       0.027534485 0.03964185 0.032513298 -0.039363585
000360 48 27 fd 3c 56 c9 4e 3d c0 04 13 3c a8 f3 1c 3d
       0.03090252 0.050484978 0.0089733 0.038318306
000370 38 e3 68 3c 40 eb bd 3a 2a 71 14 3d 7e 66 36 3d
       0.014214329 0.0014489666 0.036240734 0.044531338
000380 48 89 1a 3d 50 bb 10 3c 74 2e aa 3c 68 00 8d 3c
       0.037728578 0.008833721 0.020774104 0.017212108
000390 b0 86 5e bc d2 89 63 bd a0 ef 36 bd c0 fc 3b bd
       -0.013581917 -0.055551358 -0.044662118 -0.045895338
0003a0 92 ac 53 3d c2 ef 72 bd 4e 35 71 bd 60 45 22 bc
       0.051678248 -0.059310682 -0.058888726 -0.009904236
0003b0 50 c4 ff 3b 24 00 33 bd 80 72 84 ba f0 b2 5e bd
       0.0078053847 -0.043701306 -0.0010104924 -0.054369867
0003c0 e6 84 79 3d 00 71 e7 bc f8 40 10 3d 8c 92 a4 bc
       0.060917757 -0.028252125 0.03521821 -0.02008941
0003d0 1c a4 16 bd a4 c5 be bc 6c 63 38 3d 80 83 16 3c
       -0.0367776 -0.023287602 0.04501669 0.0091866255
0003e0 58 d1 70 bc 72 61 05 3d 6e aa 06 bd 3a 67 15 bd
       -0.014698349 0.032563634 -0.03287738 -0.036475398
0003f0 ea eb 25 bd d2 af 55 3d 80 c0 09 bb 0e 34 1e bd
       -0.04050819 0.05216963 -0.002101928 -0.038623862
