figures/up2sept/559-SIREN-ncc-1e-05-2500-10000/epoch-1500.pth (torch, 534820 bytes, 8 tensors)

layers.0.weight f4 [256, 2]
-0.08068036 0.20003971 -0.38340512 0.0686881 -0.45565763 0.30987665 0.4852598 -0.17856975
0.073939644 -0.25783208 -0.31952193 -0.25286743 -0.23792747 0.09513236 -0.057971545 0.034584075
-0.38253012 -0.31401464 -0.43248624 -0.35943455 0.41821676 0.18569627 -0.4766812 -0.08334641
0.040322624 0.2667648 0.46309602 0.12016874 0.35207736 -0.17796613 -0.015844341 -0.30102673
0.115587294 0.4609476 0.31367585 0.49715522 -0.22476442 -0.06248612 0.10322402 0.4015544
-0.45919052 -0.24565259 0.0722309 -0.2891901 0.18683223 -0.033993423 -0.12976003 0.2680352
0.3572931 0.4858936 0.22536503 -0.013224822 0.40813 0.397823 -0.25034824 0.22743277
0.05878707 -0.2157798 -0.11931758 -0.1174616 -0.34963864 -0.1524014 0.16795668 0.36625442
0.037828945 -0.48393363 0.2644742 -0.15106842 0.44630548 -0.4827964 -0.1170279 0.38785285
0.21602964 -0.24911873 -0.43245286 -0.0056252335 0.19297951 -0.41474465 -0.4183941 -0.0066269273
-0.1020698 0.3215192 -0.48437786 -0.07953166 -0.3871649 -0.072454765 -0.25552335 0.15749864
-0.41811705 -0.39295945 -0.28274265 -0.43762505 0.31500995 -0.071467854 -0.27767372 0.3503467
-0.11344779 0.25831813 -0.15496261 -0.41775915 0.109256975 0.3112551 -0.4868752 0.05179762
0.09944482 0.05723287 -0.012513958 -0.15522079 -0.38740245 0.08105776 -0.3351783 -0.4128234
-0.16047904 -0.34220916 0.15297866 0.35570922 0.38788268 -0.3095117 0.27244222 0.35531
0.0064076297 0.21050861 0.28301525 0.38245675 0.26734492 0.21339038 -0.18927 -0.2783917
-0.23726715 0.41107404 -0.12095434 0.01774435 -0.46585545 -0.021916106 -0.14123246 -0.32255572
0.3866814 -0.40387866 -0.07145925 -0.035143144 -0.4515562 0.30182922 -0.15897727 0.22466712
0.27884078 0.44073978 0.123586446 0.3748125 0.46111447 0.0989921 -0.102188244 -0.13662931
0.08100132 0.17979701 -0.47112852 0.37484398 0.079114914 -0.4655355 0.15996844 0.3169602
0.18650661 0.40736014 0.010351999 -0.41456103 -0.0013814148 0.36324722 -0.23985499 0.21371569
0.115178026 -0.08093925 0.0038042623 0.21260346 -0.34238654 0.31529793 0.3382691 0.28038898
0.49919394 -0.022052208 -0.35272074 0.02301127 -0.14575909 0.17639995 0.42284667 -0.27332753
0.02110779 0.48558655 -0.3989903 -0.085945696 0.4843531 0.34953853 0.14519691 -0.21540259
-0.04662697 -0.44772476 -0.4707364 -0.46803042 0.4802792 0.3949857 0.19844991 -0.12548397
0.42994466 -0.13225654 0.34677312 -0.015972985 -0.23457915 -0.13937631 -0.106908165 -0.4573895
0.14926837 -0.15222338 0.22904876 0.31821132 -0.079166576 0.24263468 0.09995672 0.335434
-0.32259247 -0.044222493 -0.16683564 0.43763474 -0.44812298 -0.28091773 0.056426823 0.44342694
0.3371649 -0.4670553 -0.35083893 0.48398554 0.07282199 -0.4280667 -0.15742718 0.21856216
-0.10475171 -0.3840504 -0.30819356 -0.2589828 -0.019662539 0.19566414 0.24019228 -0.24236648
-0.0843041 -0.38603115 0.37766176 0.49826646 0.48519555 0.20427185 -0.10657772 -0.012376299
0.18010978 -0.4332317 0.031075243 -0.40603986 -0.4987229 -0.016508838 -0.15892895 -0.31669775
00000000: bf3b a5bd 36d7 4c3e ad4d c4be 59ac 8c3d
00000010: f54b e9be 27a8 9e3e f973 f83e fdda 36be
00000020: ab6d 973d 9102 84be 6198 a3be d777 81be
00000030: 42a3 73be c1d4 c23d 9273 6dbd 08a8 0d3d
00000040: fdda c3be 87c6 a0be d66e ddbe ce07 b8be
00000050: 8220 d63e 2a27 3e3e 8f0f f4be 86b1 aabd
00000060: 5629 253d 6595 883e ec1a ed3e 071b f63d
00000070: 7c43 b43e c13c 36be fecb 81bc 2d20 9abe
00000080: 08b9 ec3d 5301 ec3e 1f9a a03e 218b fe3e
00000090: a528 66be 72f1 7fbd 1d67 d33d 8a98 cd3e
000000a0: 051b ebbe 5a8c 7bbe cbed 933d ba10 94be
000000b0: f350 3f3e b03c 0bbd d0df 04be e93b 893e
000000c0: 1fef b63e 0cc7 f83e 17c6 663e ecac 58bc
000000d0: 6af6 d03e 75af cb3e a52d 80be 23e4 683e
000000e0: b6ca 703d 61f5 5cbe c65c f4bd b58f f0bd
000000f0: d603 b3be 1d0f 1cbe d6fc 2b3e b385 bb3e
00000100: 86f2 1a3d 26c6 f7be 2a69 873e aeb1 1abe
00000110: 2782 e43e 1731 f7be 53ac efbd a694 c63e
00000120: e036 5d3e fb18 7fbe 766a ddbe e153 b8bb
00000130: 6c9c 453e 6959 d4be c037 d6be b226 d9bb
00000140: f909 d1bd 2a9e a43e 6000 f8be 7fe1 a2bd
00000150: 7a3a c6be 2a63 94bd f5d3 82be 5347 213e
00000160: 7013 d6be fb31 c9be a5c3 90be 6410 e0be
00000170: fc48 a13e bd5d 92bd 402b 8ebe a560 b33e
00000180: 5157 e8bd 4642 843e 85ae 1ebe 87e4 d5be
00000190: 1fc2 df3d d45c 9f3e b547 f9be be29 543d
000001a0: baa9 cb3d 046d 6a3d 5807 4dbc 33f2 1ebe
000001b0: 9d59 c6be 9c01 a63d 7d9c abbe 975d d3be
000001c0: 9e54 24be 0a36 afbe 70a6 1c3e 851f b63e
000001d0: 8f98 c63e 5178 9ebe 8c7d 8b3e 31eb b53e
000001e0: 18f7 d13b 928f 573e 60e7 903e 5fd1 c33e
000001f0: 6fe1 883e 0283 5a3e ffcf 41be 5b89 8ebe
00000200: 29f6 72be 4c78 d23e e9b6 f7bd 995c 913c
00000210: 9b84 eebe 6889 b3bc 3e9f 10be 0626 a5be
00000220: 1bfb c53e 2fc9 cebe 3a59 92bd 42f2 0fbd
00000230: 6032 e7be 5c89 9a3e f0ca 22be 230f 663e
00000240: 38c4 8e3e a5a8 e13e e41a fd3d 6de7 bf3e
00000250: 3217 ec3e 5fbc ca3d 1248 d1bd 8ee8 0bbe
00000260: 05e4 a53d b51c 383e c237 f1be 8deb bf3e
00000270: 0007 a23d ab5a eebe c4ce 233e 9b48 a23e
00000280: 97fb 3e3e 8291 d03e 6e9b 293c 5841 d4be
00000290: 9710 b5ba 8afb b93e 8c9c 75be 49d8 5a3e
000002a0: 75e2 eb3d 7ac3 a5bd ee50 793b b9b4 593e
000002b0: 4a4d afbe bb6e a13e 9c31 ad3e 258f 8f3e
000002c0: 5996 ff3e d5a6 b4bc d097 b4be 2282 bc3c
000002d0: df41 15be 30a2 343e 5c7f d83e 96f1 8bbe
000002e0: 3eea ac3c cd9e f83e 7548 ccbe 4c04 b0bd
000002f0: 21fd f73e b7f6 b23e 80ae 143e 7f92 5cbe
00000300: ecfb 3ebd 2e3c e5be 5d04 f1be afa1 efbe
00000310: 28e7 f53e 913b ca3e 7436 4b3e df7e 00be
00000320: b521 dc3e 426e 07be 3f8c b13e c7d9 82bc
00000330: 8435 70be aab8 0ebe abf2 dabd f52e eabe
00000340: cfd9 183e 72e0 1bbe c28b 6a3e 98ec a23e
00000350: 1622 a2bd 3a75 783e 1cb6 cc3d 01be ab3e
00000360: d72a a5be a522 35bd f6d6 2abe a911 e03e
00000370: 6070 e5be 73d4 8fbe d01f 673d db08 e33e
00000380: e1a0 ac3e df21 efbe 29a1 b3be f4cc f73e
00000390: b223 953d 8f2b dbbe 9734 21be c2ce 5f3e
000003a0: 1188 d6bd 41a2 c4be 8ccb 9dbe 6599 84be
000003b0: 5513 a1bc 2e5c 483e f7f4 753e eb2e 78be
000003c0: a1a7 acbd e0a5 c5be e25c c13e c81c ff3e
000003d0: 8d6b f83e a42c 513e 6b45 dabd f6c5 4abc
000003e0: b36e 383e 8cd0 ddbe 8291 fe3c 75e4 cfbe
000003f0: 9c58 ffbe 8b3d 87bc 45be 22be 3526 a2be

layers.0.bias f4 [256]
-0.52882665 0.49472192 0.4068654 -0.6952056 -0.5545353 -0.46587354 -0.38280427 0.0884916
-0.69912905 -0.5242573 0.3228755 -0.2313654 -0.2813703 -0.5854531 0.28640956 0.049829993
-0.2735344 -0.43277282 0.15051754 0.19250634 0.31382182 0.21045314 -0.1078643 -0.5470787
0.45044717 -0.0062692473 -0.46994418 0.6097424 0.39423862 -0.55538696 -0.35292387 -0.24063279
-0.40801144 0.33034712 -0.504362 0.65746194 -0.292127 0.41718766 0.02400729 -0.3111367
0.4722745 -0.5394368 -0.37385285 0.08464954 0.56084836 -0.3027364 -0.43031734 -0.45130068
-0.3115911 -0.24415734 -0.1649004 -0.40194133 0.22044033 0.0056299 -0.46181247 -0.4039951
0.14939605 -0.010214396 0.5004028 -0.10744509 -0.5730727 -0.52250075 -0.20754217 -0.1568968
0.08055649 -0.15932696 0.26080465 -0.23550768 0.5188347 0.16268514 -0.2170933 0.63024575
0.18083817 -0.48090702 -0.3931558 0.4434918 0.3236695 0.5521816 -0.054497816 0.4946171
0.35232717 0.21899119 -0.1633489 0.6815408 0.14344963 -0.18252537 -0.01014579 0.69543004
0.4747392 -0.052554335 0.69339484 0.31080157 -0.37629122 -0.64344776 0.41072226 0.6631479
-0.411832 0.2903746 0.029488742 -0.15132813 -0.19218703 0.1968551 0.15589498 0.47779542
0.25889033 0.3219324 0.6239716 0.22015259 0.10462452 -0.25757936 0.51857126 0.10455607
0.45547736 0.68255633 -0.15806414 0.4975261 -0.14361967 0.63778937 0.5567067 -0.25352308
0.025552895 -0.30835414 -0.28584462 -0.14277448 -0.004461076 -0.24628508 -0.6674194 -0.42749405
-0.060449317 -0.22599511 0.5253489 0.5753923 0.45062578 0.3132131 -0.5604653 0.6683202
-0.62296134 -0.23178923 -0.49753684 0.25445613 -0.58831346 -0.34874916 -0.44905987 -0.4349242
-0.330021 0.69516134 -0.05791967 0.21530958 -0.7020582 0.62856334 -0.15423606 -0.6486358
0.4876373 -0.19077283 0.64203703 -0.48031992 -0.656749 -0.53116494 0.3064767 -0.07901222
-0.65473264 0.13142666 -0.04496557 0.2556153 -0.35965636 -0.504327 0.48215488 -0.34028187
0.49776345 0.57341033 -0.49437302 -0.32612324 0.08565303 -0.6668345 0.21673442 -0.29494357
-0.31370443 -0.54617834 0.33052748 -0.45052966 -0.5651246 -0.18593498 -0.39449468 -0.68762946
0.2855932 -0.26904273 0.4959798 0.4975643 -0.45128325 -0.41203374 -0.25076807 0.41393512
-0.02457417 -0.25332552 0.43824816 0.6699499 0.5226978 -0.5407049 -0.14668852 -0.13577357
0.6034987 -0.36585656 -0.40518337 0.011230155 -0.16452976 0.26774392 0.08660028 -0.42167798
0.5141547 0.44045535 0.15501375 -0.6395664 0.3321134 0.46959037 0.19698174 -0.27313444
0.046664815 -0.2719855 0.66565216 0.68268955 -0.08264071 -0.4758715 0.41587204 0.3607627
0.37513366 -0.5314351 0.23948215 -0.30189234 -0.6216614 -0.49372795 0.29966852 0.26485324
-0.62076324 0.40080628 0.54140466 0.53668624 0.39938158 -0.11114534 0.47383833 0.5537728
0.36862877 -0.5087646 -0.24714445 0.56017447 0.5382743 0.45105737 -0.29540792 -0.14016758
-0.5272653 -0.40325174 0.5430817 -0.5803173 -0.17479661 0.15025334 -0.42413107 0.16444969
00000000: 2f61 07bf 314c fd3e a950 d03e fff8 31bf
00000010: 07f6 0dbf fa86 eebe ecfe c3be 153b b53d
00000020: 1ffa 32bf ba35 06bf f04f a53e 0deb 6cbe
00000030: c50f 90be 41e0 15bf 46a4 923e 891a 4c3d
00000040: b30c 8cbe 6694 ddbe 4521 1a3e 6220 453e
00000050: 41ad a03e 0781 573e f5e7 dcbd 5a0d 0cbf
00000060: 03a1 e63e 426e cdbb 869c f0be 1418 1c3f
00000070: a5d9 c93e d72d 0ebf 70b2 b4be 7168 76be
00000080: e0e6 d0be 4223 a93e de1d 01bf 6d4f 283f
00000090: ac91 95be 9f99 d53e f0aa c43c 4f4d 9fbe
000000a0: f7cd f13e 8818 0abf a469 bfbe bd5c ad3d
000000b0: c293 0f3f 4400 9bbe 8e52 dcbe e210 e7be
000000c0: de88 9fbe 6204 7abe a7db 28be 41cb cdbe
000000d0: 1cbb 613e 067b b83b af72 ecbe 72d8 cebe
000000e0: 47fb 183e 485a 27bc 661a 003f 2c0c dcbd
000000f0: e4b4 12bf 9cc2 05bf ef85 54be 8ea9 20be
00000100: cdfa a43d 9b26 23be 3088 853e ed28 71be
00000110: 5ad2 043f ef96 263e b54d 5ebe c957 213f
00000120: a42d 393e 7239 f6be b84b c9be 5b11 e33e
00000130: 02b8 a53e c65b 0d3f 1a39 5fbd 743e fd3e
00000140: 3a64 b43e 3a3f 603e ef44 27be 7579 2e3f
00000150: 76e4 123e eee7 3abe 873a 26bc b407 323f
00000160: 0411 f33e 3743 57bd 5382 313f 6221 9f3e
00000170: 3ea9 c0be feb8 24bf 304a d23e 10c4 293f
00000180: a5db d2be fbab 943e 6092 f13c c3f5 1abe
00000190: adcc 44be 6294 493e efa2 1f3e 9aa1 f43e
000001a0: 468d 843e 53d4 a43e 9abc 1f3f ae6f 613e
000001b0: 6145 d63d 71e1 83be 16c1 043f 7e21 d63d
000001c0: 5434 e93e 03bc 2e3f 91db 21be bebb fe3e
000001d0: 0911 13be 2a46 233f 5584 0e3f c7cd 81be
000001e0: 4e54 d13c 98e0 9dbe 3a5a 92be 7933 12be
000001f0: 382e 92bb 2832 7cbe ffdb 2abf 80e0 dabe
00000200: b499 77bd 436b 67be 447d 063f e94c 133f
00000210: 6cb8 e63e 785d a03e a77a 0fbf 0817 2b3f
00000220: 657a 1fbf 285a 6dbe 26bd febe 1348 823e
00000230: b69b 16bf 408f b2be 2deb e5be 62ae debe
00000240: 83f8 a8be 18f6 313f 2d3d 6dbd 1d7a 5c3e
00000250: 16ba 33bf 87e9 203f 0ff0 1dbe ff0c 26bf
00000260: 99ab f93e f459 43be 8a5c 243f 7eec f5be
00000270: b420 28bf 6dfa 07bf 84ea 9c3e 29d1 a1bd
00000280: 8f9c 27bf b694 063e d12d 38bd 02e0 823e
00000290: e124 b8be 931b 01bf 01dd f63e 6d39 aebe
000002a0: dada fe3e 05cb 123f 761e fdbe a0f9 a6be
000002b0: db6a af3d aab5 2abf a1ef 5d3e d802 97be
000002c0: de9d a0be 58d2 0bbf e63a a93e d3ab e6be
000002d0: 01ac 10bf bd65 3ebe 35fb c9be 7c08 30bf
000002e0: 4639 923e f8bf 89be 10f1 fd3e bfc0 fe3e
000002f0: 990e e7be 16f6 d2be ac64 80be 4eef d33e
00000300: c54f c9bc e2b3 81be 1062 e03e d681 2b3f
00000310: 86cf 053f a36b 0abf 8435 16be 3a08 0bbe
00000320: e47e 1a3f 8d51 bbbe 3274 cfbe affe 373c
00000330: 7d7a 28be bb15 893e 7d5b b13d 2de6 d7be
00000340: a49f 033f 5d83 e13e edbb 1e3e a0ba 23bf
00000350: c40a aa3e 266e f03e 95b5 493e 47d8 8bbe
00000360: 9b23 3f3d af41 8bbe 2e68 2a3f bec4 2e3f
00000370: 883f a9bd 6ea5 f3be 2eed d43e e3b5 b83e
00000380: 8511 c03e 210c 08bf cf3a 753e a291 9abe
00000390: 3425 1fbf e9c9 fcbe 276e 993e d89a 873e
000003a0: 57ea 1ebf 7b36 cd3e 7f99 0a3f 4564 093f
000003b0: be7b cc3e 2ba0 e3bd f09a f23e 0ec4 0d3f
000003c0: e9bc bc3e 663e 02bf 6f13 7dbe 9867 0f3f
000003d0: 58cc 093f fef0 e63e b53f 97be 1788 0fbe
000003e0: dcfa 06bf 0377 cebe 6707 0b3f ad8f 14bf
000003f0: e2fd 32be 03dc 193e b527 d9be 8065 283e

layers.1.weight f4 [256, 256]
0.0049031014 -0.0002863069 -0.0037397072 0.0042735822 -0.001246369 -0.0012762937 0.0034120232 -0.00069844647
-0.00015921946 -0.0041153994 -0.0031603272 0.0027607915 0.0036928838 0.0005138368 -0.00033101722 0.0042180177
-0.00019375372 -0.0033073148 -0.002234459 0.0029741235 0.0023179632 0.0033013737 -0.0013357683 0.001644642
0.002627629 0.0016984347 0.00457882 0.000100850935 0.0006665789 -0.00276273 -0.00095056335 0.001984474
0.0043393583 0.0029974906 0.00047148185 -0.0019095604 -0.0033119116 0.0012239396 -0.0016736464 0.002055395
-0.0013130597 0.00035121618 0.0037934107 0.0020841793 0.0036737402 0.003136157 -0.0026298203 -0.0015625968
0.0016014592 0.0022645362 -0.000115788855 -0.0007090381 0.002708081 -0.0022653146 -0.00327098 0.0003546796
0.0029260062 -0.0028761725 -0.0010288879 0.0020543004 -0.0023928417 -0.0015366602 0.0016290353 0.0022941907
0.0039349757 0.003613311 0.0004171904 -0.0014371756 0.0031942348 0.00057902245 0.0042784815 0.0023785457
-0.0026312105 -0.0026302552 0.00042964943 -0.0034861814 -0.0006724329 0.0011959338 0.00032929506 0.0043091774
0.0026179159 0.0021046095 0.004134192 -0.0017576818 -0.004182736 0.00012873298 0.0021094114 0.0005352202
-0.00063790806 -0.0025669252 -0.003001527 -0.0003111911 0.004092964 0.004925072 0.0013634759 -0.0018561354
-0.0029297 -0.004004403 0.0039938837 -0.0006067465 -0.0025317685 -0.0032086112 0.0036205444 0.0037642466
-0.0014070297 -0.0009587051 -0.0022196341 -0.00316042 -0.0013304567 0.0019992741 0.00039938922 0.001908158
-0.0022714927 0.001101585 0.0007834677 -0.003298842 0.0028900094 -0.0035608558 -0.0011084612 0.0039886613
0.0028121958 -0.00014602709 0.0006577752 -0.0032521745 0.0028307266 0.0040998943 -0.00096313504 -0.0040200274
0.0034001707 -0.0024373834 -0.0009989982 0.0005665063 -0.001387276 -0.0038367077 0.0022076506 0.000373837
0.0033212777 -0.004241699 0.00418407 -0.0010754827 0.0022468674 -0.003404643 -0.00044721982 -0.0031995974
0.0038657857 -0.00053070276 0.0018398007 -0.000110406916 -0.003893876 -0.0021992365 -0.0010113536 -0.0020560278
-0.002593928 0.0020431879 0.0036488294 0.0017506237 -0.0033298982 0.0035209209 0.0005763419 0.0045353076
-0.0018738674 -0.00026837795 -0.0005437201 -0.0007692614 0.0042039948 0.0012011373 0.0019273852 0.0020634132
-0.0024352772 0.0024729576 -0.0016511908 -0.00196375 -0.0027886669 -0.0035602392 -0.002397415 0.0008429218
0.0013055569 0.002863174 0.0006452811 0.0019681924 0.0032718626 0.001148083 -0.0043072007 0.0006846795
-0.0010164365 -0.0038813169 -0.0015973302 -0.0006635932 -0.0034656667 -0.0036950523 -0.0021360372 0.0020348555
0.0039179977 0.0006598117 0.003369636 0.004092034 -0.0020550028 0.0012598749 0.00097118365 0.003476511
-0.00041321994 0.0040610055 0.00083992805 -0.0038012818 -0.0010158285 0.0029676019 -0.004485572 0.0015754194
0.0037327833 -0.0029010694 -0.00200924 -0.000104238454 -0.0008263766 0.004794429 0.0028470792 -0.0008402062
-0.0018218565 -0.0019930261 0.0032806299 0.0023961833 -0.0028587047 -9.499742e-05 -0.0014187514 -0.003656229
0.0025466317 -0.0004701471 0.0049737487 0.0039302227 -0.00035962957 -0.0010083962 -0.000491894 0.0037506253
-0.0039795856 0.003745332 -0.00082069484 0.00310478 -0.003858707 0.003458963 -0.0013783827 0.0022971325
-0.002994545 8.764682e-05 -0.0010387388 -0.0013643801 -0.0028666004 -0.003915887 -0.0016133827 -0.003768231
0.00460885 -0.00233411 0.0030148197 0.0012353098 -0.0019795087 0.001152586 0.0049882475 0.0006571506
00000000: 32aa a03b 761b 96b9 e015 75bb 6809 8c3b
00000010: 345d a3ba 4f49 a7ba 409c 5f3b f317 37ba
00000020: 26f4 26b9 79da 86bb 7e1d 4fbb 65ee 343b
00000030: 4f04 723b 01b3 063a 618c adb9 4c37 8a3b
00000040: 5e2a 4bb9 89bf 58bb 0070 12bb 83e9 423b
00000050: f8e8 173b dc5b 583b f214 afba 0791 d73a
00000060: 4d34 2c3b 039e de3a ed09 963b ef7f d338
00000070: 5abd 2e3a eb0e 35bb 3a2f 79ba f30d 023b
00000080: 2d31 8e3b 8c71 443b 3931 f739 374a faba
00000090: a80c 59bb 996c a03a 415e dbba ceb3 063b
000000a0: f91a acba 7023 b839 df9a 783b ba96 083b
000000b0: 22c3 703b fc87 4d3b 1059 2cbb 0cd0 ccba
000000c0: 0ee8 d13a 9d68 143b abd3 f2b8 bede 39ba
000000d0: 0f7a 313b ac75 14bb f05d 56bb 4af4 b939
000000e0: 3dc2 3f3b 2b7e 3cbb c0db 86ba 71a1 063b
000000f0: 39d1 1cbb c369 c9ba 5b85 d53a 225a 163b
00000100: f8f0 803b 4dcd 6c3b 59ba da39 9c5f bcba
00000110: 5e56 513b 8ac9 173a 8132 8c3b 60e1 1b3b
00000120: 6370 2cbb 5c60 2cbb 9242 e139 6b78 64bb
00000130: 3546 30ba e1c0 9c3a 3ca5 ac39 0034 8d3b
00000140: 5791 2b3b 7ded 093b 1e78 873b 0462 e6ba
00000150: 550f 89bb 7ffc 0639 0d3e 0a3b 054e 0c3a
00000160: 4939 27ba dc39 28bb 44b5 44bb 5d27 a3b9
00000170: 451e 863b 8062 a13b a9b6 b23a 9249 f3ba
00000180: 3600 40bb 5e37 83bb 20df 823b 110e 1fba
00000190: 07ec 25bb 9047 52bb a846 6d3b 94b1 763b
000001a0: 156c b8ba 9c51 7bba 4877 11bb 0d1f 4fbb
000001b0: b862 aeba 4106 033b 1d65 d139 281b fa3a
000001c0: 53dd 14bb 0f63 903a a161 4d3a 6331 58bb
000001d0: 5066 3d3b 3f5d 69bb c949 91ba 51b3 823b
000001e0: d14c 383b d91e 19b9 8c6e 2c3a 6f22 55bb
000001f0: b683 393b 6858 863b e67a 7cba 6fba 83bb
00000200: 66d5 5e3b 82bc 1fbb d1f0 82ba 9881 143a
00000210: 42d5 b5ba 4671 7bbb 3bae 103b 8eff c339
00000220: cba9 593b f3fd 8abb 861a 893b 36f7 8cba
00000230: 2e40 133b 6e20 5fbb d478 eab9 56b0 51bb
00000240: 1f59 7d3b dc1e 0bba 7825 f13a 438a e7b8
00000250: 6630 7fbb 1121 10bb 658f 84ba 6cbe 06bb
00000260: e4fe 29bb 01e7 053b 3321 6f3b 2f75 e53a
00000270: 6c3a 5abb 40bf 663b a615 173a eb9c 943b
00000280: 8e9c f5ba 14b5 8cb9 7088 0eba 42a8 49ba
00000290: aac1 893b 7b6f 9d3a 51a0 fc3a 543a 073b
000002a0: 2c99 1fbb 5811 223b c56c d8ba 42b2 00bb
000002b0: 11c2 36bb e752 69bb f31d 1dbb 86f7 5c3a
000002c0: 381f ab3a 17a4 3b3b 1528 293a cafc 003b
000002d0: bf6c 563b 467b 963a 6b23 8dbb 107c 333a
000002e0: f339 85ba b15d 7ebb 825d d1ba fcf4 2dba
000002f0: 3d20 63bb b128 72bb c2fc 0bbb 365b 053b
00000300: 8c62 803b 37f7 2c3a 1cd5 5c3b 7816 863b
00000310: 3aad 06bb 6322 a53a 0897 7e3a 2dd6 633b
00000320: 71a5 d8b9 2f12 853b 9e2e 5c3a ed1e 79bb
00000330: 8c25 85ba 197c 423b b5fb 92bb 4e7e ce3a
00000340: b6a1 743b de1f 3ebb 74ad 03bb 989a dab8
00000350: 32a1 58ba 961a 9d3b 1096 3a3b 4941 5cba
00000360: 5ccb eeba 6e9d 02bb d6ff 563b 4909 1d3b
00000370: 1b59 3bbb 5a39 c7b8 66f5 b9ba 589d 6fbb
00000380: 64e5 263b 137e f6b9 d4fa a23b 19c9 803b
00000390: aa8c bcb9 292c 84ba 73f2 00ba 0dcd 753b
000003a0: 2f67 82bb 3e74 753b e623 57ba 9179 4b3b
000003b0: 5ce2 7cbb c5af 623b d9aa b4ba 7d8b 163b
000003c0: 2140 44bb 07cf b738 4a26 88ba 00d5 b2ba
000003d0: 93dd 3bbb d750 80bb 2478 d3ba 6df4 76bb
000003e0: d605 973b def7 18bb 4894 453b 1eea a13a
000003f0: a5ba 01bb 5e12 973a 7474 a33b a144 2c3a

layers.1.bias f4 [256]
0.051509477 -0.036467303 0.0031051207 0.05935484 0.043646984 -0.008016983 -0.040212527 -0.058461968
-0.020194193 0.054319337 0.009131501 -0.035708025 -0.000855775 0.007404763 0.024513295 0.04475259
0.059298426 -0.013680398 0.013048061 0.03808228 -0.011107589 0.01615631 -0.0512703 0.0018824585
-0.0027698774 0.027962012 0.021908097 0.05098377 0.05508027 0.05263987 0.036820613 -0.033435434
0.046354692 0.022868047 -0.06166717 0.036189873 -0.0057373336 -0.010565589 -0.009279202 -0.04194765
0.01015325 0.0059684613 -0.031678274 0.026533602 0.047426667 -0.024890421 0.0028877028 -0.0112026455
0.036748007 0.03644134 -0.0594819 -0.05445493 0.002204972 -0.019447178 -0.033360027 -0.030916182
0.02157871 0.051591843 -0.052384786 -0.019540405 -0.018317327 -0.030592646 -0.012123706 0.007823595
-0.01603335 -0.011476536 0.021439165 0.0030639735 0.024409935 0.04340728 -0.029606039 -0.039150454
-0.023700198 -0.045833535 -0.040856782 -0.012603393 -0.0013727363 -0.040510397 0.021582682 0.05021486
-0.061392274 0.010932543 -0.02527743 -0.04148595 0.022200504 -0.059313737 -0.056185737 0.009045456
-0.016020253 -0.014457823 0.059240364 -0.021442981 0.030639894 0.020310009 0.0468705 0.041645564
-0.02082263 0.018759714 0.049770538 0.012697824 0.016566122 -0.0109690195 -0.044614688 -0.009642179
-0.05037525 0.058439963 0.05586643 0.00050776056 -0.01832265 -0.034779724 -0.020085791 -0.00916784
-0.014435873 0.06004291 -0.035224833 0.041573238 -0.01705434 -0.04607413 0.014851162 0.009074348
0.05546911 -0.05857377 0.005841135 -0.049795274 -0.0091503635 -0.004178005 -0.060593456 -0.023651777
-0.023617228 0.060174696 -0.019944401 -0.020506632 0.040775586 0.04718584 0.04459648 -0.012184243
-0.032361727 -0.048342876 -0.0484594 -0.0071441084 0.061949898 -0.00085644587 -0.010353592 0.013966988
0.029670862 -0.013993788 0.04818084 0.029251693 0.00027319932 0.029276798 -0.039048288 -0.0068127997
0.025825236 0.022504061 -0.0014695773 -0.019449329 0.009143328 -0.0006393166 -0.061457787 0.05039567
-0.03256801 0.04514893 0.036811177 -0.024980474 0.0053818966 -0.02397306 0.02684344 0.0005925136
0.050235067 -0.036299795 0.055875488 0.028185766 0.062102664 0.015992012 0.011449463 0.043259528
-0.059956998 0.009277743 0.021222701 -0.050216407 -0.04043474 -0.015211639 -0.030023012 0.0549504
0.022808235 -0.014078142 0.0008655547 -0.061730828 -0.016409611 0.033272445 0.00031427544 0.004198305
0.002725381 0.010354145 0.00925814 0.010087034 0.006633855 0.0610204 0.014919026 0.049454655
-0.003726764 0.04232106 0.032986354 -0.020125132 -0.01970465 -0.038651638 0.01456134 0.03933784
-0.033556204 -0.037671503 -0.03176353 -0.028916722 0.03916599 0.05111866 -0.023431743 -0.0044321194
0.017827157 -0.018266436 0.058195982 -0.028919877 -0.017872008 -0.04706397 -0.04383822 -0.0043848907
-0.060674526 -0.060338393 0.004823795 -0.04742555 0.03581022 -0.05067741 0.061199542 0.0014000571
0.02705141 -0.004804419 0.018630955 -0.0002849112 -0.054455247 0.06183346 -0.005539004 0.029034229
-0.027796345 0.010029398 0.017295947 0.059270598 -0.057933103 0.06094285 0.0035789297 -0.018178895
0.007817311 0.057600867 0.007828364 -0.018682865 -0.015503066 -0.04857806 -0.059558004 0.061182376
00000000: 9afb 523d bd5e 15bd 487f 4b3b 101e 733d
00000010: 2ec7 323d aa59 03bc e4b5 24bd d175 6fbd
00000020: 4b6e a5bc f47d 5e3d 4b9c 153c 9442 12bd
00000030: 1756 60ba a7a3 f23b 1bd0 c83c 7e4e 373d
00000040: e8e2 723d c023 60bc 89c7 553c 2afc 1b3d
00000050: 9bfc 35bc 3d5a 843c ce00 52bd d3bc f63a
00000060: d586 35bb 9710 e53c 9c78 b33c 5cd4 503d
00000070: d99b 613d e89c 573d 36d1 163d 98f3 08bd
00000080: 6bde 3d3d c555 bb3c b796 7cbd d53b 143d
00000090: 3e00 bcbb 4b1b 2dbc cb07 18bc 4dd1 2bbd
000000a0: d159 263c 1593 c33b 14c1 01bd ff5c d93c
000000b0: 7742 423d ffe6 cbbc 9d3f 3d3b 4d8b 37bc
000000c0: 1485 163d 8443 153d 4ba3 73bd 220c 5fbd
000000d0: 4b81 103b b04f 9fbc 86a4 08bd ef43 fdbc
000000e0: d6c5 b03c f851 533d 6e91 56bd 3313 a0bc
000000f0: 380e 96bc 6e9d fabc 82a2 46bc 892e 003c
00000100: 5f58 83bc 1508 3cbc 30a1 af3c f2cc 483b
00000110: 58f7 c73c d5cb 313d 5d88 f2bc 3a5c 20bd
00000120: eb26 c2bc f2bb 3bbd 7159 27bd 767e 4ebc
00000130: 63ed b3ba 3bee 25bd 2ace b03c 19ae 4d3d
00000140: 7776 7bbd 691e 333c 9d12 cfbc 2ced 29bd
00000150: d5dd b53c f6f2 72bd 0423 66bd 6433 143c
00000160: e83c 83bc 81e0 6cbc 06a6 723d 31a9 afbc
00000170: 8400 fb3c 2d61 a63c 48fb 3f3d 8a94 2a3d
00000180: 3894 aabc f9ad 993c 31dc 4b3d 890a 503c
00000190: adb5 873c 67b7 33bc e4bd 36bd 3bfa 1dbc
000001a0: 4756 4ebd be5e 6f3d 33d4 643d 3c1b 053a
000001b0: 6219 96bc 2f75 0ebd f58a a4bc b534 16bc
000001c0: 7184 6cbc 8eef 753d ea47 10bd b348 2a3d
000001d0: 8bb5 8bbc 3ab8 3cbd 4a52 733c 93ac 143c
000001e0: 9433 633d 0deb 6fbd fe66 bf3b 21f6 4bbd
000001f0: 68eb 15bc a5e7 88bb d830 78bd 5fc1 c1bc
00000200: eb78 c1bc be79 763d 7162 a3bc 86fd a7bc
00000210: 4d04 273d f045 413d ccaa 363d 6ba0 47bc
00000220: bb8d 04bd 2e03 46bd 5d7d 46bd 2019 eabb
00000230: 2dbf 7d3d 1c83 60ba 1da2 29bc cbd5 643c
00000240: 4f10 f33c 3346 65bc 4659 453d 3fa1 ef3c
00000250: 313c 8f39 e5d5 ef3c 19f1 1fbd e83d dfbb
00000260: 728f d33c 705a b83c d59e c0ba 3354 9fbc
00000270: e6cd 153c d097 27ba 29bb 7bbd b16b 4e3d
00000280: 0966 05bd 16ee 383d 51c7 163d daa3 ccbc
00000290: 9f5a b03b 2763 c4bc c6e6 db3c ea52 1b3a
000002a0: 49c3 4d3d 18af 14bd b2dd 643d d6e5 e63c
000002b0: 5d5f 7e3d ae01 833c 8796 3b3c e730 313d
000002c0: 7895 75bd ad01 183c 3bdb ad3c b8af 4dbd
000002d0: e69e 25bd 3d3a 79bc d2f2 f5bc ac13 613d
000002e0: 56d8 ba3c 02a8 66bc 65e6 623a 77d9 7cbd
000002f0: 736d 86bc b048 083d 56c5 a439 ef91 893b
00000300: 4e9c 323b 6fa4 293c 74af 173c 1644 253c
00000310: cf60 d93b 87f0 793d ee6e 743c f790 4a3d
00000320: b93c 74bb d958 2d3d b31c 073d 76dd a4bc
00000330: a56b a1bc 2e51 1ebd b092 6e3c b720 213d
00000340: 3b72 09bd 6f4d 1abd 7a1a 02bd c3e2 ecbc
00000350: 846c 203d cd61 513d edf3 bfbc 503b 91bb
00000360: 420a 923c 7ea3 95bc e95e 6e3d 61e9 ecbc
00000370: 5168 92bc 26c6 40bd b58f 33bd 21af 8fbb
00000380: da85 78bd 6425 77bd ed10 9e3b 4b41 42bd
00000390: bdad 123d 1e93 4fbd 5fac 7a3d 1f82 b73a
000003a0: eb9a dd3c 636e 9dbb f29f 983c 2260 95b9
000003b0: 770c 5fbd 1545 7d3d 8980 b5bb 31d9 ed3c
000003c0: 29b5 e3bc 5852 243c 3bb0 8d3c bac5 723d
000003d0: 434b 6dbd 369f 793d 7a8c 6a3b e8eb 94bc
000003e0: 2e14 003c e3ee 6b3d 8a42 003c cf0c 99bc
000003f0: 9200 7ebc caf9 46bd 18f3 73bd 5f9a 7a3d

layers.2.weight f4 [256, 256]
-0.001670911 0.0044263015 0.004158592 0.0038642485 -0.0037152327 -0.0042701447 -0.004319222 0.0009382732
0.0027229544 -0.0036958205 -0.0017343964 -0.0041354853 0.001151982 0.0019795108 0.0035949727 0.0022910833
-0.003610845 0.0004659642 -0.0024683706 -0.0038475366 0.0013978648 0.004286276 -0.0022180332 -0.00023024288
0.004520332 0.0020029794 0.003742906 -0.0040652114 0.0036041138 -0.0028901584 -0.0023225727 0.0010350356
-0.0027268378 -0.004600906 0.00293734 -0.004630292 -0.004082443 0.0011306363 -0.0012606925 0.0031620283
0.0049229655 -0.0029715472 -0.0037032934 0.002369527 0.001846572 -0.0018954183 -0.0011316082 -0.004394989
-0.0004084833 -0.0022130436 -0.0008958172 0.003892358 -0.0017025169 0.0023717552 0.004422152 0.0012510227
0.0038627635 -0.0028115497 -0.0023750754 -0.002575917 -0.00048554278 -0.003370154 -0.0031202591 0.004057088
0.002595952 0.0012350593 -0.003619484 -0.004380393 -0.00088749826 -0.0003642415 -0.0008616061 -0.0012100382
0.0043096812 0.00044117804 -0.0026572726 -0.0024570008 -0.0024204464 0.0006401979 0.00071562454 0.0026478702
-0.00013322983 -0.0042248266 0.0030157943 -0.0021162229 0.0039011345 -0.0044065486 0.0033371316 -0.0043271673
-0.00091834145 0.00014391319 -0.004404784 0.0022337113 -0.0046568 -0.0017254933 -0.00097329175 -0.0017270163
-0.0011192763 -0.0033119249 0.00019224193 -0.0019915504 -0.00056476326 0.0030266193 -0.0035988835 0.0026042364
0.00089135946 -0.0017115246 0.0025045418 0.00044332084 0.003691585 -0.003445264 0.0030777305 -0.003912214
-0.00071743526 -0.0040199882 0.00025881463 0.0022587024 0.0032074288 0.0004574502 0.0028338525 0.0024155872
0.00055181794 0.0029374459 -0.0033554838 -0.003327033 0.0003479056 -0.0005847856 -0.0019222149 -0.001076185
-0.004251235 0.00453942 -0.00055800413 -0.0015302822 0.00010260516 0.0036652067 0.00029775698 -0.00059389306
-0.0022966315 -0.000341556 0.0014476099 0.0034777066 0.00042359758 0.0028734312 -0.0016278478 0.0042914585
-0.0018320148 -0.0035736866 0.003754843 -5.9941613e-05 0.001971672 0.0041825096 -0.0039453288 -0.0004020575
0.0029907986 -0.0045762416 0.0021245365 -0.0028168533 -0.0013611272 0.0038517085 -0.003741053 0.003641915
0.0026166579 -0.003402452 -0.00079866505 0.0012907872 -0.0014962796 0.0019600205 -0.0037746031 -0.0011535042
1.230857e-05 0.00015983263 -0.0025516052 -0.0006316991 0.001462873 -0.0010496255 0.0039419415 -0.00013138003
-0.0036063045 -0.004943535 0.0005821977 0.00047960036 -0.00072935683 0.0028208017 -0.0028471355 -0.0036717218
0.0007807667 -0.003418392 0.0026561157 -0.00039206652 0.0010185099 -0.004299574 0.0012327767 -0.0021290083
-0.00022978101 -0.0026415396 -0.003951733 0.0011806797 0.004577582 -0.0011532618 5.6959463e-05 -0.0010440534
0.004159924 -0.0033813575 0.00010847559 -6.982984e-05 0.004421801 0.0012014067 -0.0007417371 0.0013526237
-0.0026620205 0.0034456707 -0.002091542 0.0013331339 0.0037492926 0.0022784274 0.00039812835 -0.0011402445
0.0044151885 0.0012005987 -0.0027802114 0.0042180656 -0.002858721 -0.002150861 -0.0006811699 0.0036081537
-0.003822914 0.000892591 0.0006683024 -0.002473346 0.0023153361 0.002460297 -0.004006122 0.0040800725
0.00394556 0.0020319235 0.0031154822 -0.00026140688 0.0028805267 -0.0010881218 0.00090538396 0.0044051553
-0.0021450012 -0.0014273376 -0.003859733 -0.0001497426 -0.004471339 -0.003003239 0.0021655944 0.0013289937
0.004608229 -0.0044883424 -0.004362857 -0.000993039 0.001604184 -0.0032811323 0.0011972664 -0.00081536616
00000000: 7802 dbba 820a 913b cc44 883b 553f 7d3b
00000010: 437b 73bb 92ec 8bbb 4388 8dbb 73f6 753a
00000020: 9873 323b 9435 72bb b054 e3ba f782 87bb
00000030: 1afe 963a aeba 013b a299 6b3b 0026 163b
00000040: eda3 6cbb a84c f439 63c4 21bb f426 7cbb
00000050: 8f38 b73a e473 8c3b 6c5c 11bb 5a6d 71b9
00000060: 4b1f 943b 6b44 033b 8b4b 753b 7735 85bb
00000070: ff32 6c3b d068 3dbb 4e36 18bb 08aa 873a
00000080: bfb4 32bb 32c3 96bb 6380 403b b4b9 97bb
00000090: 04c6 85bb dc31 943a d23d a5ba 083a 4f3b
000000a0: d450 a13b 4abe 42bb f4b2 72bb 114a 1b3b
000000b0: ad08 f23a af6f f8ba 7852 94ba d703 90bb
000000c0: b329 d6b9 b608 11bb 46d5 6aba ee16 7f3b
000000d0: fd26 dfba 736f 1b3b b3e7 903b 5bf9 a33a
000000e0: 6b26 7d3b fa41 38bb 27a7 1bbb b7d0 28bb
000000f0: 7390 feb9 cddd 5cbb 437d 4cbb 52f1 843b
00000100: d920 2a3b b7e1 a13a dd34 6dbb 6689 8fbb
00000110: 00a7 68ba abf7 beb9 68dd 61ba 259a 9eba
00000120: 3a38 8d3b ea4d e739 a325 2ebb a205 21bb
00000130: 5aa0 1ebb f4d2 273a c098 3b3a e487 2d3b
00000140: 9cb3 0bb9 6a70 8abb a2a4 453b 54b0 0abb
00000150: 2daa 7f3b cf64 90bb c7b3 5a3b e9ca 8dbb
00000160: dabc 70ba 67e7 1639 0256 90bb 7563 123b
00000170: 1298 98bb f329 e2ba 8124 7fba 0d5d e2ba
00000180: aeb4 92ba e10c 59bb 8d94 4939 ac84 02bb
00000190: 9f0c 14ba 3f5a 463b 3fdb 6bbb d6ab 2a3b
000001a0: 1faa 693a 3c55 e0ba 3d23 243b 846d e839
000001b0: 85ee 713b f0c9 61bb c0b3 493b 0832 80bb
000001c0: 4412 3cba 1bba 83bb 83b1 8739 bd06 143b
000001d0: ba33 523b edd5 ef39 28b8 393b d44e 1e3b
000001e0: e0a7 103a 2a82 403b ade7 5bbb 5a0a 5abb
000001f0: 1967 b639 4c4c 19ba d4f2 fbba c70e 8dba
00000200: f24d 8bbb 6abf 943b 0647 12ba c093 c8ba
00000210: ba2d d738 f733 703b 441c 9c39 7daf 1bba
00000220: 1583 16bb df12 b3b9 babd bd3a 3cea 633b
00000230: 4e16 de39 2d50 3c3b 825d d5ba 5d9f 8c3b
00000240: 3720 f0ba 8334 6abb d013 763b d169 7bb8
00000250: 2b37 013b 6f0d 893b d147 81bb 3fcb d2b9
00000260: 4601 443b 4cf4 95bb cf3b 0b3b f59a 38bb
00000270: da67 b2ba f26c 7c3b 742c 75bb 32ad 6e3b
00000280: 3c7c 2b3b acfb 5ebb 815d 51ba a22f a93a
00000290: d01e c4ba b073 003b 555f 77bb 2e31 97ba
000002a0: e880 4e37 bf98 2739 d538 27bb 9c98 25ba
000002b0: dfbd bf3a 9693 89ba 672b 813b 0fc3 09b9
000002c0: c057 6cbb 61fd a1bb a09e 183a df72 fb39
000002d0: 4f32 3fba 33dd 383b 0297 3abb 45a1 70bb
000002e0: 5eac 4c3a 1a07 60bb 3a12 2e3b 478e cdb9
000002f0: 857f 853a 71e3 8cbb 1f95 a13a d586 0bbb
00000300: 5ff1 70b9 ae1d 2dbb 8a7d 81bb 09c1 9a3a
00000310: 8aff 953b 0b29 97ba c2e7 6e38 9ed8 88ba
00000320: f94f 883b c499 5dbb 647d e338 9c71 92b8
00000330: c1e4 903b 8578 9d3a 2271 42ba 854a b13a
00000340: 4b75 2ebb c3d0 613b 4012 09bb 8dbc ae3a
00000350: b1b6 753b ab51 153b e2bb d039 4274 95ba
00000360: 49ad 903b 685d 9d3a 3534 36bb b337 8a3b
00000370: 6159 3bbb 76f5 0cbb 8a90 32ba c676 6c3b
00000380: db89 7abb c5fc 693a 0431 2f3a dc17 22bb
00000390: e5bc 173b ef3c 213b c945 83bb 21b2 853b
000003a0: c249 813b 052a 053b 1e2d 4c3b 700d 89b9
000003b0: 38c7 3c3b 4f9f 8eba 4a57 6d3a 1f59 903b
000003c0: 2693 0cbb 8115 bbba 93f3 7cbb 3904 1db9
000003d0: 4f84 92bb fdd1 44bb a5ec 0d3b a131 ae3a
000003e0: a000 973b f212 93bb 4cf6 8ebb dc28 82ba
000003f0: 7c43 d23a 4408 57bb 98ed 9c3a 4cbe 55ba

layers.2.bias f4 [256]
0.02993859 0.03639759 -0.023775142 0.036010228 0.02393743 0.019193983 -0.035409115 0.005064675
0.017215995 -0.04379438 -0.05775951 0.0102933915 -0.028451547 0.027919693 -0.02212754 -0.032342125
-0.012056752 0.026101727 0.060132455 -0.041092705 0.034467094 0.03983665 0.011200912 -0.006990781
0.012562035 0.0044626007 -0.058137428 -0.031812035 0.00016673579 -0.024753504 0.04114601 0.02858015
-0.026671257 -0.0013626975 -0.03228667 0.002774179 0.017428445 -0.05988723 0.057153076 0.025268404
0.037940092 0.009769797 0.010888228 -0.044507906 0.04271886 0.045703974 -0.0051901354 -0.031713296
0.03309786 0.04515211 0.0068315556 0.054681398 0.03592798 0.020293914 -0.062304597 -0.009854623
0.026432011 -0.0621599 0.013855177 0.019932855 0.025433004 0.051765356 0.023897178 0.015015214
-0.053228095 -0.050169483 0.045627937 0.03474736 0.011855337 -0.023191176 0.045154292 -0.022326387
0.030383665 -0.0073511912 0.03333623 0.022151742 -0.009158249 0.021226596 -0.032468077 -0.03575234
0.026836574 0.025733791 -0.0096175475 0.001772528 -0.029464832 0.04492613 -0.014312421 0.017395874
-0.0127843395 0.043320578 -0.04458257 0.041240793 0.061210852 -0.041341472 -0.05325139 0.03252289
0.015408819 0.038930003 0.010384922 0.021699438 -0.029330403 0.050950907 0.017458856 0.00058949756
-0.003695018 0.013023388 0.015894976 0.041161064 0.009642566 -0.020713808 0.028744118 0.061763745
0.028728982 0.046635456 -0.037023913 0.024925586 0.058670744 -0.041936982 0.0066085625 -0.018869748
0.011368047 0.04269451 0.018778017 -0.021181246 0.056021955 -0.050303496 0.025257902 0.028652092
0.003296248 -0.04358983 0.04796838 -0.0046427627 0.0074716615 -0.018789267 0.044352517 -0.030768482
-0.051580243 0.012753423 0.0042531793 -0.035006285 -0.02029107 0.004604832 -0.030881826 -0.027307726
-0.0210067 -0.004236356 -0.048262116 0.01207802 -0.03583411 0.0050923796 0.025582517 -0.018950252
0.04204707 -0.055394307 0.048512112 -0.0011602049 0.014327866 0.05292981 -0.061723422 0.009900679
-0.009393237 -0.03203007 0.027044995 0.042462576 -0.020392843 -0.012975021 0.0334833 0.014496456
-0.017411515 0.011163403 -0.045468982 0.05596125 0.02234226 0.04288235 -0.060899835 -0.045312636
-0.024817284 0.04718916 0.013176409 0.056941174 -0.048360858 3.3869917e-05 0.036752988 0.0544198
0.0485867 -0.04050278 0.026753912 0.036370013 -0.030363781 -0.015437206 0.023811614 0.02175828
0.05940879 -0.04946772 -0.00013793907 -0.021080868 -0.0473555 0.049086254 0.032620024 0.045662437
0.01465438 0.005378989 -0.040030636 -0.04190402 0.010419 0.051310904 -0.013145011 0.000970743
0.03381358 0.025119752 -0.02068401 0.033388637 0.027386392 0.03976757 0.03263106 -0.03927757
0.031036815 0.050343227 0.008937191 0.038046952 0.014099166 0.0014295146 0.036311798 0.044506636
0.037575364 0.00889789 0.02088103 0.017338116 -0.013424475 -0.055660054 -0.044873156 -0.046162184
0.05184178 -0.05951772 -0.058749285 -0.0099493535 0.007911221 -0.043714132 -0.0009861022 -0.054498687
0.060940605 -0.028369565 0.035141263 -0.019940961 -0.03677915 -0.02329138 0.045038104 0.0092935
-0.014838148 0.032656725 -0.032827526 -0.036245733 -0.04058274 0.052066945 -0.0019636527 -0.03855314
00000000: c641 f53c a415 153d 16c4 c2bc 767f 133d
00000010: 6e18 c43c b33c 9d3c 2609 11bd 93f5 a53b
00000020: 8f08 8d3c bc61 33bd 3c95 6cbd 9da5 283c
00000030: 3813 e9bc d7b7 e43c d144 b5bc 2d79 04bd
00000040: af89 45bc 4ad3 d53c 734d 763d d350 28bd
00000050: 5e2d 0d3d c12b 233d 0884 373c ec12 e5bb
00000060: fed0 4d3c 023b 923b 8321 6ebd 564d 02bd
00000070: ccd5 2e39 dcc7 cabc b888 283d eb20 ea3c
00000080: ae7d dabc 8a9c b2ba 073f 04bd 00cf 353b
00000090: 19c6 8e3c 504c 75bd 5819 6a3d afff ce3c
000000a0: 1267 1b3d 8011 203c 8a64 323c ec4d 36bd
000000b0: f9f9 2e3d 1734 3b3d 0312 aabb cde5 01bd
000000c0: 9f91 073d 6bf1 383d 3edb df3b 9af9 5f3d
000000d0: 3829 133d 6c3f a63c 1b33 7fbd 4975 21bc
000000e0: f287 d83c 619b 7ebd d300 633c 3a4a a33c
000000f0: e058 d03c e907 543d 04c4 c33c 5f02 763c
00000100: b405 5abd 847e 4dbd 5ce4 3a3d 3f53 0e3d
00000110: e33c 423c 6cfb bdbc b5f3 383d d4e5 b6bc
00000120: 2ae7 f83c 43e2 f0bb 928b 083d 9277 b53c
00000130: 7b0c 16bc 66e3 ad3c 3ffd 04bd 0c71 12bd
00000140: 60d8 db3c accf d23c eb92 1dbc 2c54 e83a
00000150: 3b60 f1bc 7604 383d a57e 6abc cb81 8e3c
00000160: 6875 51bc eb70 313d 379c 36bd 1bec 283d
00000170: 3bb8 7a3d ad55 29bd 211e 5abd b936 053d
00000180: 4575 7c3c 1175 1f3d 8525 2a3c 05c3 b13c
00000190: 5046 f0bc e6b1 503d e005 8f3c 8388 1a3a
000001a0: 1d28 72bb 0c60 553c 2e36 823c 8198 283d
000001b0: dafb 1d3c 01b0 a9bc c978 eb3c fbfb 7c3d
000001c0: 0b59 eb3c d204 3f3d 63a6 17bd be30 cc3c
000001d0: bc50 703d 1dc6 2bbd a48c d83b bb94 9abc
000001e0: 0c41 3a3c 70e0 2e3d 5bd4 993c 4b84 adbc
000001f0: 4777 653d 0a0b 4ebd a9e9 ce3c cbb7 ea3c
00000200: dd05 583b 408b 32bd 7e7a 443d 5122 98bb
00000210: d7d4 f43b f3eb 99bc fcaa 353d 2f0e fcbc
00000220: ce45 53bd bcf3 503c 415e 8b3b c062 0fbd
00000230: 7539 a6bc 21e4 963b e2fb fcbc 74b4 dfbc
00000240: 3e16 acbc 21d1 8abb 7fae 45bd e3e2 453c
00000250: cac6 12bd fadd a63b 6d92 d13c 8f3d 9bbc
00000260: 8c39 2c3d 24e5 62bd a3b4 463d 0412 98ba
00000270: 6dbf 6a3c eecc 583d b3d1 7cbd 7536 223c
00000280: 17e6 19bc f631 03bd 778d dd3c 3ded 2d3d
00000290: e40e a7bc 2f95 54bc c925 093d 8b82 6d3c
000002a0: 98a2 8ebc b5e6 363c af3d 3abd a037 653d
000002b0: 1e07 b73c 67a5 2f3d 1b72 79bd be99 39bd
000002c0: 9e4d cbbc 6c49 413d dde1 573c 263b 693d
000002d0: 0916 46bd 8c0f 0e38 4d8a 163d 4ce7 5e3d
000002e0: d902 473d 3ee6 25bd 052b db3c b9f8 143d
000002f0: 77bd f8bc 56ec 7cbc 9310 c33c 6c3e b23c
00000300: a256 733d aa9e 4abd bda3 10b9 c9b1 acbc
00000310: d7f7 41bd ab0e 493d 939c 053d 8908 3b3d
00000320: ed18 703c 3b42 b03b 2af7 23bd 8da3 2bbd
00000330: 74b4 2a3c 622b 523d 2c5e 57bc 7679 7e3a
00000340: 1c80 0a3d f0c7 cd3c 8371 a9bc 86c2 083d
00000350: 6d59 e03c 52e3 223d 25a8 053d 84e1 20bd
00000360: eb40 fe3c b334 4e3d 4c6d 123c 1fd7 1b3d
00000370: 3000 673c 8d5e bb3a aebb 143d 974c 363d
00000380: a0e8 193d 75c8 113c b20e ab3c aa08 8e3c
00000390: 54f2 5bbc ccfb 63bd eacc 37bd 8f14 3dbd
000003a0: 0c58 543d dac8 73bd 17a3 70bd 9d02 23bc
000003b0: 119e 013c 970d 33bd 1940 81ba 043a 5fbd
000003c0: db9c 793d 4a67 e8bc 49f0 0f3d 3a5b a3bc
000003d0: bca5 16bd 90cd bebc e079 383d c443 183c
000003e0: b41b 73bc 0fc3 053d 2876 06bd 6876 14bd
000003f0: 163a 26bd 2644 553d a0b0 00bb e6e9 1dbd

layers.3.weight f4 [2, 256]
-0.0024659387 -0.0010107924 -0.0007316981 0.003546932 -0.00029608374 0.00059272186 -0.0025571485 -0.0021752915
0.0031854697 0.0006255269 0.00087215 0.0022721493 -0.0018493077 -0.0023438272 -0.0006989469 -0.0032089206
0.0007734773 -0.0018614586 0.0007667372 -0.0038654106 -0.004332931 -0.0032791935 1.1216121e-05 -0.0025973902
0.00043328968 0.004138189 -0.0022352845 0.0035229092 0.00046933064 -0.0014355087 -0.0002266948 0.0015318658
-0.003256739 -5.7221838e-05 0.0024140757 -0.0027503246 -0.00045731946 -0.0008318654 -0.0026534405 0.00022181407
0.0019225044 0.0024349235 -0.0010520922 0.00064536824 -0.0040769163 0.00034570225 -0.0016323966 0.0032450403
0.0038881982 -0.0021123204 -0.0014423963 0.003511677 -0.0021523444 0.0016133595 -0.0021478245 -0.0034008927
-0.0003709255 -0.00026725055 -0.0004090445 0.00031099387 0.0022219582 0.0035517323 -0.0008332077 0.0003169188
0.0022871413 0.0011207768 0.001954656 0.0016396471 0.0008621618 -0.004137335 -0.0032662938 -0.0026495645
0.003265732 -0.0009913078 0.003234669 0.0017112134 -0.0014724755 0.00024318405 -0.00010297947 0.004225726
0.003758651 0.002788145 -0.0013575758 0.0027234904 -0.0024815253 -0.0044068974 0.0030835571 -0.001749201
-0.0027764514 0.0037615215 -0.00036594874 0.00047533633 0.00096763956 -0.0017439392 0.0010701793 -0.0030263031
0.0046478733 0.004014175 0.0017579363 -0.0035952816 0.00024647295 -0.0010693896 -0.003297204 0.0009543461
-0.004144764 -0.0009190384 -0.0013630524 0.0013118865 -0.0019704152 0.0031641475 -0.0040860334 -0.0025613757
-0.004509272 0.0029144264 0.003192345 0.0009485304 -0.0028058742 -0.0017166005 0.0012936423 -0.0005376991
-0.0044693197 0.0024484762 -0.0034376062 -0.001114837 0.00027153094 -0.000632951 -0.0029729512 0.0020379208
-0.0016896954 0.00082303985 0.0037980769 0.0019329739 0.0033030587 -0.0018155462 0.0028085844 0.00056000944
0.0027401913 -0.00029905225 -0.0033072026 -0.0007349326 -0.0020033633 8.774097e-05 0.0013162488 -0.0042964187
0.0029723938 -0.00082738954 -0.00013003995 -0.00012173905 -0.0010060783 0.0008124377 -0.0024313442 -0.000940184
-0.0031807022 0.0037157794 0.0043263654 0.000253447 -0.00026066022 -0.00268921 -0.0038044106 0.0038441066
-0.0013102228 -0.0037396208 -0.0029181438 0.0027116686 -0.0032271864 -0.0020639698 0.002091564 -0.0017543682
-0.00037225705 0.0026848996 0.0003480678 -0.0036324693 0.002447985 -0.0028043815 0.002941431 -0.0038923598
-0.0004395179 -0.003982366 0.0010193364 -0.0033475286 -0.0038453147 -0.0045369156 -0.0034061822 -0.0041787988
-0.002742164 -0.004692034 0.004003181 0.0014965517 -9.47774e-05 0.00433716 -0.00108255 0.0010282763
-0.003325881 0.0013207636 0.0020487478 -0.0035791337 0.00046929542 -0.004099028 -0.00043741812 0.0032879235
-0.0034625311 0.0021932782 0.00032682548 -0.003561015 -0.0024619044 -0.0043062987 0.0030100576 0.0014728713
-0.0006453404 0.0037050901 0.00067697413 0.0011347162 -0.000865955 0.0017453803 0.0023006203 0.0035925533
0.0040223245 -0.0030305947 -0.0031320548 -0.0007283875 -0.00026423042 -0.0041831336 0.0032393462 0.0039335373
-0.0034013866 -0.00021777474 0.0028919803 0.004460477 0.0015008046 -0.0022060592 0.0042367247 -0.0018979323
-0.0001796989 0.0032678822 0.0012205726 -0.0010110997 -0.00041832222 -0.0007862208 0.0034117466 -0.0004428273
-0.0038030809 -0.0016688976 0.0022619988 0.0016332315 -0.00020991573 -0.001375016 -0.0045373975 0.0031578857
-0.00463465 0.0038986898 0.0023389915 -0.0038762176 -0.0040866653 0.002918207 0.0022885615 -0.003837625
00000000: 969b 21bb 917c 84ba 6ecf 3fba a573 683b
00000010: b03b 9bb9 e460 1b3a d595 27bb 568f 0ebb
00000020: 50c3 503b 66fa 233a ffa0 643a 57e8 143b
00000030: 7864 f2ba e59a 19bb 8839 37ba c14c 52bb
00000040: 2fc3 4a3a 30fc f3ba ddfe 483a d452 7dbb
00000050: 42fb 8dbb bde7 56bb df2c 3c37 fa38 2abb
00000060: 282b e339 a599 873b da7d 12bb 9ce0 663b
00000070: 7e10 f639 ae27 bcba ecb4 6db9 e3c8 c83a
00000080: 036f 55bb 7b01 70b8 7835 1e3b ca3e 34bb
00000090: 61c4 efb9 8b11 5aba 58e5 2dbb c396 6839
000000a0: 8bfc fb3a 3d93 1f3b 5be6 89ba ee2d 293a
000000b0: a797 85bb 5f3f b539 24f6 d5ba beaa 543b
000000c0: 24d1 7e3b db6e 0abb ca0e bdba 2a24 663b
000000d0: 590e 0dbb 5d77 d33a 84c2 0cbb 83e1 5ebb
000000e0: c778 c2b9 c31d 8cb9 0675 d6b9 e40c a339
000000f0: 469e 113b 2ec4 683b 9f6b 5aba 1f28 a639
00000100: dde3 153b 07e7 923a b019 003b 6de9 d63a
00000110: b302 623a 7b92 87bb 510f 56bb 51a4 2dbb
00000120: e405 563b c5ee 81ba befc 533b cb4a e03a
00000130: 1400 c1ba 39ff 7e39 aff6 d7b8 f577 8a3b
00000140: b353 763b 50b9 363b aff0 b1ba 967c 323b
00000150: 16a1 22bb bc67 90bb 8115 4a3b 7245 e5ba
00000160: 20f5 35bb dc83 763b cfdc bfb9 9036 f939
00000170: 31a9 7d3a e494 e4ba 4245 8c3a f154 46bb
00000180: 304d 983b 5789 833b 8e6a e63a d19e 6bbb
00000190: 0a39 8139 c32a 8cba e715 58bb 152d 7a3a
000001a0: cdd0 87bb 9feb 70ba 73a8 b2ba 9bf3 ab3a
000001b0: 1522 01bb 965d 4f3b 22e4 85bb c1dc 27bb
000001c0: 84c2 93bb f6ff 3e3b a936 513b cca6 783a
000001d0: c2e2 37bb 8eff e0ba 6f8f a93a 60f4 0cba
000001e0: 5f73 92bb 9d76 203b 7649 61bb b91f 92ba
000001f0: 445c 8e39 9fec 25ba d8d5 42bb a38e 053b
00000200: c578 ddba 45c1 573a 28e9 783b d75b fd3a
00000210: 2178 583b 9ff7 edba 3a10 383b 99cd 123a
00000220: c894 333b 1dca 9cb9 a7bd 58bb 7ea8 40ba
00000230: dc4a 03bb 9301 b838 fb85 ac3a f9c8 8cbb
00000240: 7ecc 423b 2ce5 58ba 555b 08b9 284e ffb8
00000250: 63de 83ba c5f9 543a 3057 1fbb ae76 76ba
00000260: 5473 50bb 6f84 733b 2fc4 8d3b 15e1 8439
00000270: 39a9 88b9 753d 30bb 6b53 79bb 68ed 7b3b
00000280: c8bb abba 6d14 75bb 543e 3fbb 40b6 313b
00000290: 347f 53bb ab43 07bb 9f12 093b d4f2 e5ba
000002a0: 7f2b c3b9 24f5 2f3b df7c b639 b90e 6ebb
000002b0: 606e 203b b7c9 37bb 06c5 403b f616 7fbb
000002c0: 186f e6b9 827e 82bb 419b 853a 3662 5bbb
000002d0: ad01 7cbb 68aa 94bb 413a 5fbb 4eee 88bb
000002e0: e1b5 33bb a2bf 99bb 1e2d 833b f127 c43a
000002f0: 3bc3 c6b8 bc1e 8e3b 5ae4 8dba 3ac7 863a
00000300: 06f7 59bb 791d ad3a 4944 063b e68f 6abb
00000310: c40b f639 2451 86bb 4455 e5b9 347a 573b
00000320: a2eb 62bb 1abd 0f3b c659 ab39 eb5f 69bb
00000330: e757 21bb da1b 8dbb 6344 453b 5c0d c13a
00000340: 102c 29ba 19d1 723b f776 313a c2ba 943a
00000350: 4201 63ba 3fc5 e43a 01c6 163b 0b71 6b3b
00000360: b4cd 833b f19c 46bb 2943 4dbb 42f1 3eba
00000370: 6888 8ab9 ab12 89bb 364b 543b e7e4 803b
00000380: cce9 5ebb 765a 64b9 6187 3d3b 3129 923b
00000390: a5b6 c43a 8893 10bb 39d4 8a3b 0ac4 f8ba
000003a0: 8e6d 3cb9 f729 563b 9ffb 9f3a e086 84ba
000003b0: 4252 dbb9 621a 4eba 9c97 5f3b 462b e8b9
000003c0: 1c3d 79bb e9be daba 0b3e 143b 2812 d63a
000003d0: d31c 5cb9 e239 b4ba 73ae 94bb 88f4 4e3b
000003e0: 43de 97bb 2981 7f3b c449 193b 2408 7ebb
000003f0: 6fe9 85bb 643f 3f3b b1fb 153b aa80 7bbb

layers.3.bias f4 [2]
-0.056395218 -0.031991083
00000000: acfe 66bd 1509 03bd
