figures/up2sept/559-SIREN-ncc-1e-05-2500-10000/epoch-2000.pth (torch, 534820 bytes, 8 tensors)

layers.0.weight f4 [256, 2]
00000000: 8839 a5bd 37d8 4c3e 194b c4be f89e 8c3d
00000010: f647 e9be 98a4 9e3e 2d71 f83e d7d7 36be
00000020: ae76 973d da00 84be 8a96 a3be a474 81be
00000030: 13a1 73be e6cc c23d ec8d 6dbd cb9e 0d3d
00000040: 0dda c3be 0ac4 a0be 236e ddbe d408 b8be
00000050: 491d d63e df24 3e3e 7111 f4be 54ae aabd
00000060: 772e 253d c293 883e 7314 ed3e 2403 f63d
00000070: d343 b43e a340 36be 7a96 81bc 671c 9abe
00000080: 3ec1 ec3d 6900 ec3e 009b a03e 298a fe3e
00000090: bc25 66be 4703 80bd 0069 d33d 0297 cd3e
000000a0: 7f13 ebbe ee87 7bbe 4ff0 933d 6112 94be
000000b0: b454 3f3e ad3c 0bbd b5e3 04be b239 893e
000000c0: ceec b63e f4c4 f83e 02b8 663e be18 58bc
000000d0: c4f2 d03e 21b1 cb3e bb2b 80be 3ada 683e
000000e0: 85c2 703d 7ef6 5cbe de56 f4bd 1584 f0bd
000000f0: 3803 b3be ac0e 1cbe bf03 2c3e d683 bb3e
00000100: 99e8 1a3d e7c2 f7be 7469 873e 89b4 1abe
00000110: 077e e43e b130 f7be efad efbd 0090 c63e
00000120: da39 5d3e 8d1a 7fbe 1267 ddbe cae2 b8bb
00000130: 558e 453e 7655 d4be ca36 d6be 2d7d d9bb
00000140: 8bfd d0bd 859a a43e 85f7 f7be c6e4 a2bd
00000150: 4f3a c6be 6360 94bd c2d4 82be 004b 213e
00000160: e510 d6be a62e c9be 82c1 90be 4210 e0be
00000170: 9246 a13e a55b 92bd 7c2b 8ebe a25c b33e
00000180: c058 e8bd 1542 843e 33b2 1ebe b3e0 d5be
00000190: 52be df3d 8e58 9f3e 4f43 f9be f31b 543d
000001a0: d4a8 cb3d e266 6a3d e945 4dbc 12f1 1ebe
000001b0: 4d57 c6be 10f7 a53d ab9a abbe cb5c d3be
000001c0: 4458 24be e234 afbe 2ba5 1c3e 081d b63e
000001d0: ba95 c63e 7f76 9ebe 387c 8b3e c9e9 b53e
000001e0: e6a6 d33b 678d 573e 96e6 903e 2dcf c33e
000001f0: 00e1 883e df81 5a3e 55cb 41be 2089 8ebe
00000200: d6ee 72be 4776 d23e 39b6 f7bd 5c64 913c
00000210: 5b85 eebe 63b4 b3bc 929b 10be 9d26 a5be
00000220: 06fa c53e c2c0 cebe ff61 92bd a7f2 0fbd
00000230: 5326 e7be 2d82 9a3e 36ca 22be bf0c 663e
00000240: 06c2 8e3e 13a5 e13e 1804 fd3d 6ce0 bf3e
00000250: ad12 ec3e 2ac2 ca3d 0141 d1bd 18e7 0bbe
00000260: dde0 a53d c91c 383e 3f37 f1be eeec bf3e
00000270: 380a a23d 3d55 eebe 09cd 233e bb48 a23e
00000280: 98f5 3e3e d489 d03e 1087 293c b53f d4be
00000290: 5f95 b1ba 4afb b93e 4498 75be 9ad8 5a3e
000002a0: e4df eb3d 28c1 a5bd 5dc8 793b a7b0 593e
000002b0: e448 afbe 0168 a13e 1f32 ad3e e08d 8f3e
000002c0: 5794 ff3e 9dcb b4bc c796 b4be 5499 bc3c
000002d0: a540 15be 369b 343e ed7b d83e 2cf2 8bbe
000002e0: 3f25 ad3c 589b f83e 9146 ccbe 5c06 b0bd
000002f0: 06f9 f73e 06f9 b23e 6eab 143e ef90 5cbe
00000300: b9fb 3ebd 163b e5be 4e05 f1be 2f9c efbe
00000310: 90e2 f53e c63a ca3e 813b 4b3e a77d 00be
00000320: bd1f dc3e c970 07be e788 b13e 107b 82bc
00000330: 6031 70be 2ab3 0ebe 3ce7 dabd c62c eabe
00000340: f6d5 183e 65e0 1bbe ac8d 6a3e 9be9 a23e
00000350: d81c a2bd ef73 783e 28b7 cc3d cbb9 ab3e
00000360: 7929 a5be 2224 35bd e1da 2abe 070d e03e
00000370: b96e e5be 26d3 8fbe 3924 673d a505 e33e
00000380: 7d95 ac3e 1815 efbe bd99 b3be 94bf f73e
00000390: 7527 953d b12a dbbe ef2f 21be 44cd 5f3e
000003a0: fd8e d6bd 72a1 c4be e5c0 9dbe 9298 84be
000003b0: ae01 a1bc eb57 483e 98f6 753e c72a 78be
000003c0: 9aad acbd 68a6 c5be 8c59 c13e 4a16 ff3e
000003d0: dd62 f83e 462a 513e 664d dabd 43e9 4abc
000003e0: a263 383e 5bd0 ddbe e196 fe3c 07e2 cfbe
000003f0: 4d52 ffbe 4f33 87bc 7cbd 22be dd24 a2be
-0.08067614 0.20004354 -0.38338545 0.068662584 -0.45562714 0.3098495 0.48523846 -0.17855774
0.07395683 -0.257819 -0.3195079 -0.25284302 -0.23791914 0.095117375 -0.057996675 0.034575265
-0.38252297 -0.31399566 -0.4324809 -0.35944235 0.41819218 0.18568753 -0.47669557 -0.08334032
0.040327515 0.2667523 0.46304664 0.12012318 0.35207996 -0.17798094 -0.015818823 -0.30099794
0.115602955 0.46094063 0.31368256 0.49714783 -0.22475332 -0.06250625 0.103227615 0.40154272
-0.45913312 -0.24563572 0.072235696 -0.28920272 0.18684655 -0.03399341 -0.12977488 0.2680183
0.35727543 0.48587763 0.22531131 -0.013189493 0.40810215 0.39783576 -0.25033364 0.22739497
0.05877926 -0.21578404 -0.11930631 -0.11743943 -0.34963393 -0.15239972 0.16798304 0.3662402
0.03781948 -0.48390886 0.26447642 -0.15107931 0.446274 -0.48279336 -0.11703097 0.38781738
0.216041 -0.24912472 -0.432427 -0.0056422697 0.19292577 -0.41471452 -0.41838676 -0.0066372366
-0.102046095 0.3214914 -0.4843103 -0.07953791 -0.3871636 -0.07244947 -0.25552946 0.15751266
-0.41809765 -0.39293402 -0.28272635 -0.43762404 0.31499153 -0.07146386 -0.2776755 0.3503161
-0.11345053 0.25831667 -0.15497665 -0.41772994 0.109249726 0.3112225 -0.48684165 0.051784467
0.09944311 0.057227023 -0.012528875 -0.15521649 -0.3873848 0.08103764 -0.3351644 -0.41281733
-0.16049296 -0.34220034 0.15297382 0.35569024 0.38786107 -0.3094978 0.2724321 0.35529926
0.006459105 0.21050034 0.28300923 0.38244 0.2673416 0.21338604 -0.18925221 -0.27838993
-0.23723921 0.41105863 -0.12095303 0.01774805 -0.46586117 -0.021936601 -0.14121845 -0.32256022
0.38667315 -0.40381438 -0.071475975 -0.03514352 -0.45146427 0.3017744 -0.1589745 0.224658
0.27882403 0.44071254 0.123542964 0.37475908 0.46107998 0.09900315 -0.10217477 -0.13662374
0.0809953 0.1797973 -0.47112462 0.3748545 0.07912105 -0.46549407 0.15996183 0.31696114
0.18648374 0.40730155 0.010347143 -0.41454855 -0.0013548544 0.3632453 -0.23983866 0.2137169
0.11517313 -0.08093482 0.003811381 0.21258794 -0.342353 0.3152466 0.33827302 0.2803793
0.49917862 -0.022069747 -0.35271284 0.023022331 -0.14575441 0.17637333 0.42282048 -0.273332
0.021135924 0.48556018 -0.39897588 -0.08594963 0.48432177 0.34955615 0.1451852 -0.21539663
-0.04662678 -0.44771641 -0.4707436 -0.46798846 0.48024416 0.39497966 0.19846918 -0.12547933
0.42992964 -0.13226618 0.3467476 -0.015927821 -0.23456335 -0.13935533 -0.10688636 -0.45737284
0.1492537 -0.15222318 0.22905606 0.31818852 -0.07915658 0.24262975 0.09995872 0.33540186
-0.32258204 -0.044223912 -0.16685058 0.4375994 -0.44811037 -0.2809078 0.05643103 0.44340244
0.337078 -0.4669578 -0.3507823 0.4838835 0.072829165 -0.42806008 -0.15740941 0.21855646
-0.104764916 -0.38404423 -0.3081123 -0.25897652 -0.019654121 0.19564788 0.2401985 -0.24235068
-0.08431549 -0.3860352 0.3776363 0.49821693 0.48512927 0.20426282 -0.10659294 -0.0123847155
0.18006757 -0.43323025 0.031077804 -0.40602133 -0.49867478 -0.016503958 -0.15892595 -0.3166875

layers.0.bias f4 [256]
00000000: fc61 07bf 3d4a fd3e fd4f d03e 66f8 31bf
00000010: 03f6 0dbf 4787 eebe 21fe c3be e03e b53d
00000020: 69fa 32bf b435 06bf cb4e a53e 7ee8 6cbe
00000030: 0611 90be 54e2 15bf b7a1 923e 5722 4c3d
00000040: 3109 8cbe ed96 ddbe 5b1e 1a3e 121e 453e
00000050: 7cb0 a03e cb86 573e 71e6 dcbd 200d 0cbf
00000060: 24a0 e63e 875f cdbb 419c f0be c117 1c3f
00000070: 3ad8 c93e 832d 0ebf 2bb0 b4be f464 76be
00000080: 86e1 d0be 2e24 a93e 311d 01bf b34e 283f
00000090: ee91 95be 2d9a d53e 5a9d c43c 394e 9fbe
000000a0: 47ce f13e 9a19 0abf c068 bfbe be5b ad3d
000000b0: 0d94 0f3f 65fd 9abe 4251 dcbe f110 e7be
000000c0: 7388 9fbe 1503 7abe 25db 28be 4bca cdbe
000000d0: 8fb7 613e 81a1 b83b f471 ecbe 43de cebe
000000e0: 47fa 183e 5f94 27bc ae1a 003f 8a12 dcbd
000000f0: 07b5 12bf 9fc1 05bf 8483 54be 5cab 20be
00000100: 27f6 a43d 9b29 23be a485 853e 5d2a 71be
00000110: 28cf 043f 6a9c 263e 2847 5ebe 4258 213f
00000120: fe2c 393e ca38 f6be e14a c9be fd12 e33e
00000130: adb8 a53e b45e 0d3f b151 5fbd 043c fd3e
00000140: 6268 b43e 143c 603e 5e46 27be bf78 2e3f
00000150: 92e8 123e d4e7 3abe 701d 26bc bf08 323f
00000160: 3210 f33e 9646 57bd 3982 313f 3b25 9f3e
00000170: aea6 c0be 85b8 24bf e246 d23e 24c4 293f
00000180: 82d7 d2be 88ad 943e f65c f13c 7ef6 1abe
00000190: 45ce 44be b295 493e d7a2 1f3e 71a1 f43e
000001a0: 998e 843e a8d6 a43e 68bd 1f3f 706e 613e
000001b0: 9e46 d63d dbe4 83be 59c1 043f 6427 d63d
000001c0: e937 e93e 23bc 2e3f e8d8 21be 2ab9 fe3e
000001d0: 9211 13be 4e44 233f d284 0e3f 30cf 81be
000001e0: f558 d13c eadc 9dbe 9d5a 92be e432 12be
000001f0: 39f4 91bb 7035 7cbe 93db 2abf 99df dabe
00000200: f699 77bd 436d 67be d87d 063f 2b4e 133f
00000210: 3fb9 e63e fd60 a03e 547a 0fbf 0618 2b3f
00000220: 357b 1fbf 8857 6dbe 8bb8 febe c649 823e
00000230: ac9b 16bf ed8f b2be 73ee e5be 49ad debe
00000240: 0cf8 a8be a8f6 313f 0135 6dbd 4676 5c3e
00000250: c2b9 33bf 05e9 203f eef3 1dbe 190c 26bf
00000260: 92ae f93e 3b5c 43be 3c5c 243f baec f5be
00000270: 2b21 28bf e9f9 07bf 99eb 9c3e 7bc6 a1bd
00000280: d19a 27bf f893 063e 6925 38bd bede 823e
00000290: 0f27 b8be c819 01bf dbdf f63e 8f3a aebe
000002a0: a4de fe3e 2fcb 123f 331c fdbe caf9 a6be
000002b0: db77 af3d cab4 2abf 60ea 5d3e 2302 97be
000002c0: 3f9c a0be 7bd1 0bbf 9e37 a93e bcac e6be
000002d0: 60ad 10bf d965 3ebe df03 cabe 8409 30bf
000002e0: 7c3a 923e 49c1 89be abf3 fd3e 2ac0 fe3e
000002f0: 9410 e7be 74f7 d2be 4565 80be 27ed d33e
00000300: 0e30 c9bc 1ab4 81be 6c63 e03e 6981 2b3f
00000310: b9cf 053f 286a 0abf 4831 16be 790e 0bbe
00000320: 507e 1a3f d252 bbbe 5971 cfbe 450d 383c
00000330: 2c7b 28be ce15 893e 7863 b13d 4be7 d7be
00000340: e19f 033f ef82 e13e 53bb 1e3e 64ba 23bf
00000350: 4507 aa3e 066c f03e 05bd 493e 31d7 8bbe
00000360: aa23 3f3d ad40 8bbe 3867 2a3f 60c4 2e3f
00000370: 9c4a a9bd 83a6 f3be 59eb d43e 83b6 b83e
00000380: 6e10 c03e 6909 08bf d638 753e 7392 9abe
00000390: 0e26 1fbf 30c8 fcbe f36f 993e e199 873e
000003a0: 9ee7 1ebf b836 cd3e 2d99 0a3f 8064 093f
000003b0: c67c cc3e f0a3 e3bd a89b f23e b6c3 0d3f
000003c0: 23bc bc3e 9a3f 02bf 3b20 7dbe 5767 0f3f
000003d0: 25cb 093f a0ed e63e 663f 97be 8789 0fbe
000003e0: cffa 06bf 5c7b cebe 6a08 0b3f 808f 14bf
000003f0: 2cfb 32be 8cdd 193e 0f28 d9be 4163 283e
-0.5288389 0.49470702 0.40686026 -0.6951965 -0.5545351 -0.46587583 -0.38279822 0.08849883
-0.69913346 -0.52425694 0.32286677 -0.23135564 -0.28137988 -0.58548474 0.28639004 0.049837437
-0.27350762 -0.4327921 0.15050642 0.19249752 0.31384647 0.21047513 -0.10786141 -0.5470753
0.45044053 -0.0062674913 -0.46994212 0.60973746 0.3942278 -0.55538195 -0.35290655 -0.24061948
-0.4079706 0.33035415 -0.5043517 0.65745085 -0.29212898 0.4171919 0.024000812 -0.31114367
0.4722769 -0.53945315 -0.37384605 0.08464764 0.5608528 -0.3027145 -0.43030745 -0.45130113
-0.3115879 -0.24415238 -0.16489847 -0.401934 0.22042678 0.005634487 -0.4618069 -0.40403947
0.14939223 -0.0102282455 0.5004071 -0.107457235 -0.57307476 -0.5224857 -0.20753294 -0.15690368
0.08054762 -0.1593384 0.26078522 -0.23551317 0.51878595 0.16270605 -0.21706831 0.63025296
0.1808357 -0.48090202 -0.3931494 0.44350424 0.3236746 0.5522263 -0.054521266 0.4945985
0.35235888 0.21897918 -0.16335437 0.68152994 0.14346531 -0.18252498 -0.010138854 0.69544595
0.47473294 -0.05255755 0.6933933 0.31083092 -0.37627167 -0.64344054 0.41069704 0.6631491
-0.41180044 0.29038644 0.029463273 -0.15133092 -0.1921931 0.1968601 0.15589462 0.4777942
0.25890043 0.3219502 0.62398386 0.22014785 0.10462688 -0.2576054 0.51857525 0.10456732
0.4555047 0.68255824 -0.158054 0.49750644 -0.14362171 0.637761 0.5567142 -0.25353384
0.025555113 -0.30832607 -0.28584757 -0.14277226 -0.0044541624 -0.2462976 -0.66741294 -0.42748716
-0.060449563 -0.22600274 0.5253577 0.5754115 0.45063207 0.31323996 -0.5604603 0.6683353
-0.62297374 -0.23177922 -0.4975017 0.2544691 -0.58831286 -0.34875432 -0.44908485 -0.4349158
-0.33001745 0.6951699 -0.057911877 0.21529493 -0.7020532 0.6285556 -0.15425083 -0.6486221
0.48766 -0.19078152 0.6420324 -0.4803217 -0.6567561 -0.5311571 0.30648497 -0.07899185
-0.65470606 0.13142383 -0.044957552 0.25560564 -0.359673 -0.50429964 0.48217663 -0.34029052
0.49779236 0.57341284 -0.49435577 -0.3261245 0.085677825 -0.6668211 0.21671438 -0.29493818
-0.31369206 -0.54616517 0.33050245 -0.4505366 -0.5651455 -0.1859354 -0.39456078 -0.6876452
0.28560245 -0.26905277 0.49599966 0.49755985 -0.45129836 -0.41204417 -0.25077263 0.4139187
-0.024559047 -0.2533272 0.43825853 0.6699434 0.52270085 -0.5406823 -0.14667237 -0.1357974
0.6034899 -0.36586624 -0.40516165 0.011233632 -0.16453236 0.26774448 0.0866155 -0.4216865
0.5141583 0.44045207 0.15501146 -0.63956285 0.3320867 0.46957415 0.19701011 -0.27312616
0.04666487 -0.2719778 0.6656375 0.68268394 -0.08266184 -0.47587976 0.41585806 0.36076745
0.37512535 -0.5313936 0.23947462 -0.30189857 -0.6216744 -0.4937148 0.29968223 0.26484588
-0.6207217 0.4008081 0.5413998 0.53668976 0.39938945 -0.11115253 0.4738438 0.55376756
0.36862287 -0.508783 -0.24719326 0.5601706 0.538256 0.45103168 -0.29540557 -0.14017306
-0.52726454 -0.4032849 0.54309714 -0.58031464 -0.17478627 0.1502592 -0.42413375 0.16444112

layers.1.weight f4 [256, 256]
00000000: 2259 a13b 2019 9cb9 0acb 75bb 028a 8c3b
00000010: e147 a2ba 2185 a8ba 01d8 5f3b 5b99 30ba
00000020: e1fb 38b9 aea4 86bb 42fb 4fbb e862 343b
00000030: 2d0f 723b 462b 093a c79f c2b9 d65d 8a3b
00000040: 86cd 26b9 08dc 57bb 573c 12bb ecda 433b
00000050: 9a56 173b d60e 5a3b b3dc adba 0999 d63a
00000060: cd93 2a3b 7239 dc3a 0b12 963b 2521 9638
00000070: 3f12 2c3a 941c 36bb 8a87 75ba 7a24 013b
00000080: 3e61 8e3b 0778 433b c091 ef39 ac43 faba
00000090: f60f 5abb e14c a23a 8fc2 ddba c59e 053b
000000a0: 38df a8ba 7448 be39 93dc 773b c8f1 093b
000000b0: bb9b 703b c744 4b3b b8d1 2cbb 2c82 cdba
000000c0: af7c d43a a96e 143b aa28 c4b8 7c91 2aba
000000d0: f20b 333b 54f2 14bb 30c5 58bb 80ec c239
000000e0: 7788 3e3b 85c7 3bbb 5ba2 89ba 5752 063b
000000f0: c08d 1bbb f951 ceba 3bb4 d63a 6559 153b
00000100: 8978 803b 5df2 6c3b b9c8 d239 340f bfba
00000110: f61a 513b 376f 133a be4c 8b3b 2812 1c3b
00000120: 9391 2cbb 4886 2ebb 8d02 e439 7d33 65bb
00000130: c4ef 2cba c584 9b3a b0da 9f39 9dd8 8c3b
00000140: 1024 2c3b 0bad 0b3b c5c8 863b 4b8b e3ba
00000150: 7298 89bb 2ce0 1939 97eb 093b 5361 123a
00000160: ed90 1cba ab02 28bb 3583 45bb 9c34 abb9
00000170: 5975 853b effd a13b 4d5c b43a 088b f2ba
00000180: e10d 3fbb 190a 83bb 162c 833b 6ffd 1dba
00000190: aeda 27bb f837 53bb 9324 6d3b c973 743b
000001a0: b0d3 b4ba f9f0 76ba 0405 11bb 96c1 4cbb
000001b0: 0b36 afba ec54 033b 5ba6 c939 b1e5 fb3a
000001c0: 7db9 10bb e6a0 933a 1775 503a 38de 57bb
000001d0: b665 3f3b 1079 69bb 6320 94ba b034 833b
000001e0: a68f 383b 4aef 0eb9 b440 273a f68a 54bb
000001f0: 011d 393b 3b50 863b 37ab 80ba aa11 84bb
00000200: 20f1 5d3b 9b0a 1fbb 8068 84ba 97f0 143a
00000210: 26eb b9ba b815 7cbb 3897 123b 20dd c739
00000220: cf6d 593b 5bd8 8cbb ba52 893b 2774 8dba
00000230: cb86 103b 1962 61bb d470 e8b9 3294 51bb
00000240: bdc1 7b3b 863d 0bba eb6a f33a ac1a 95b8
00000250: 9887 7fbb cec6 0fbb 413a 84ba bfd3 06bb
00000260: da7c 2abb 7f1d 063b feda 6e3b be6e e63a
00000270: 56bf 5abb 799c 673b d51b 163a e081 943b
00000280: 6750 f9ba 1343 91b9 6915 0dba 0c74 42ba
00000290: 66fa 893b 3c15 a23a 490a fb3a 3353 063b
000002a0: b1c3 21bb f84b 233b 3b4b d7ba 2385 02bb
000002b0: c444 36bb 7db8 68bb 51cf 1cbb fb05 5d3a
000002c0: 238e ab3a d085 3c3b fc33 2f3a 10c1 003b
000002d0: 8900 553b 681b 933a ed27 8dbb ac00 303a
000002e0: 4feb 83ba 00df 7cbb 6595 d0ba 02d8 1aba
000002f0: c9cf 64bb 4c51 72bb 317a 0cbb ccfb 073b
00000300: 9908 813b 013e 2a3a c44f 5c3b 6346 863b
00000310: 0632 05bb 94b5 a33a a8a3 7d3a 92c1 643b
00000320: fb5e d7b9 7955 853b 73b5 603a 6b73 78bb
00000330: fa5f 88ba 0def 433b d60e 94bb 7bf4 d13a
00000340: ac35 753b 061d 3fbb 71dc 01bb 3af9 ecb8
00000350: 93db 5dba d459 9d3b 1694 3d3b 1fc7 61ba
00000360: 0c81 f3ba eb71 03bb c78e 563b 4594 1c3b
00000370: fcaa 3bbb c3d9 cdb8 5743 b6ba 27e5 6ebb
00000380: 8fd4 263b 3568 f0b9 0db3 a33b ecd9 813b
00000390: 3796 aeb9 991f 83ba a72c feb9 fc1f 763b
000003a0: 8bac 81bb 9cce 763b d5b8 53ba 2d3d 4a3b
000003b0: 3556 7abb a9b5 633b 7086 b2ba 642d 173b
000003c0: 5422 43bb c326 b638 14eb 8aba a4f5 adba
000003d0: 1126 3cbb 3839 80bb 700a d5ba 0a17 78bb
000003e0: ad58 973b 56fd 18bb d033 463b 763a a03a
000003f0: d241 03bb 52af 973a ea06 a43b 7742 343a
0.0049239555 -0.00029773358 -0.0037505054 0.0042889128 -0.0012381041 -0.0012857058 0.0034155848 -0.0006736719
-0.0001764144 -0.004108987 -0.0031735455 0.0027524773 0.0036935315 0.00052325835 -0.00037121607 0.004222612
-0.00015907557 -0.0032937545 -0.0022313797 0.0029885126 0.002309239 0.0033273003 -0.0013264626 0.0016372512
0.0026028038 0.0016801788 0.0045797876 7.158731e-05 0.0006563998 -0.002778803 -0.0009366205 0.001970558
0.0043450883 0.002982618 0.00045694225 -0.0019093654 -0.0033273674 0.0012382531 -0.0016918945 0.0020388823
-0.0012883907 0.00036293606 0.0037820681 0.0021048654 0.0036713916 0.0031016336 -0.002637012 -0.0015679053
0.0016211475 0.0022648966 -9.3535826e-05 -0.0006506664 0.0027320352 -0.0022727447 -0.0033076517 0.0003717877
0.0029073039 -0.0028652858 -0.0010500656 0.0020495856 -0.0023735613 -0.0015740982 0.0016380617 0.002278888
0.003920619 0.0036155202 0.0004020387 -0.0014576674 0.003190694 0.0005624177 0.0042510917 0.0023814533
-0.0026331886 -0.002663033 0.0004348945 -0.0034973316 -0.0006597007 0.001186513 0.00030489778 0.0042982833
0.0026266612 0.0021312858 0.004113289 -0.0017360238 -0.004199081 0.00014674728 0.0021044964 0.00055839604
-0.00059725234 -0.0025636356 -0.003013802 -0.0003265486 0.004072827 0.0049436013 0.0013760418 -0.0018504569
-0.002915256 -0.0039990065 0.004003058 -0.0006026839 -0.002561252 -0.0032229405 0.003618513 0.0037300459
-0.0013795998 -0.0009420063 -0.0022128234 -0.0031243316 -0.0013367546 0.002003963 0.00038461652 0.0019218234
-0.0022083216 0.0011263161 0.0007952018 -0.003293885 0.0029204912 -0.0035625137 -0.0011301156 0.0040040836
0.0028161793 -0.00013631317 0.0006380186 -0.003243146 0.0028246047 0.0040989197 -0.0009816651 -0.004030426
0.0033865646 -0.0024267796 -0.0010101944 0.00056816026 -0.001418446 -0.0038465094 0.0022367965 0.0003812099
0.0033177023 -0.0042982525 0.00419077 -0.0010792062 0.0022053 -0.0034390746 -0.00044334552 -0.00319792
0.0038415038 -0.0005311597 0.0018571293 -7.109842e-05 -0.0038990732 -0.0021938565 -0.0010088162 -0.0020572988
-0.0026014359 0.0020464358 0.0036446447 0.0017580611 -0.0033378205 0.0035341068 0.0005726193 0.004532084
-0.0019021154 -0.0002770653 -0.00053819135 -0.0007417805 0.004210758 0.0012365947 0.0019152845 0.0020496368
-0.0024683292 0.0024917107 -0.0016425619 -0.0019915781 -0.0027811984 -0.0035510354 -0.002392728 0.0008431372
0.0013088625 0.0028766282 0.00066834665 0.0019646324 0.003250154 0.0011223378 -0.004307738 0.00067139673
-0.0010064634 -0.0038585067 -0.0015913664 -0.00059068215 -0.0034913889 -0.0036974726 -0.0021435136 0.0020749448
0.0039377925 0.00064942247 0.003361688 0.004097746 -0.0020324006 0.0012490028 0.0009675571 0.0034905416
-0.00041078762 0.004069027 0.000857196 -0.0037910591 -0.001040458 0.0029897124 -0.00451837 0.0016018295
0.0037416024 -0.0029161586 -0.0019815231 -0.00011299779 -0.00084632 0.004801968 0.0028927377 -0.000861274
-0.0018577888 -0.0020056914 0.003273891 0.0023892086 -0.002863585 -9.815723e-05 -0.0013905567 -0.0036452503
0.0025456285 -0.00045854007 0.0049957098 0.003962746 -0.00033299785 -0.0010003924 -0.00048479924 0.0037555685
-0.0039573363 0.003765977 -0.00080765533 0.0030859218 -0.0038198356 0.003474573 -0.0013620388 0.0023067826
-0.00297751 8.685656e-05 -0.0010598623 -0.0013272059 -0.0028709213 -0.003913071 -0.0016253721 -0.003785553
0.0046187253 -0.002334436 0.0030243285 0.0012224454 -0.0020028246 0.0011572635 0.005005707 0.0006876359

layers.1.bias f4 [256]
00000000: 8100 533d d157 15bd d419 4b3b 3126 733d
00000010: a6db 323d 5b56 03bc 53b3 24bd 857e 6fbd
00000020: 4d6b a5bc 9b75 5e3d fa90 153c 4732 12bd
00000030: 683c 63ba 4f8a f23b 68ae c83c 754f 373d
00000040: 2dde 723d f21b 60bc 33b8 553c c1f6 1b3d
00000050: bced 35bc 6f62 843c 3e04 52bd f8cb f73a
00000060: da8a 35bb b80e e53c 8365 b33c 44d8 503d
00000070: d6aa 613d f79e 573d 44d4 163d a1e5 08bd
00000080: d0df 3d3d 9e56 bb3c 9c97 7cbd aa39 143d
00000090: 559f bbbb 4414 2dbc 5def 17bc fdc9 2bbd
000000a0: 9e43 263c 6772 c33b 81b7 01bd 8e52 d93c
000000b0: 1139 423d 55cb cbbc 5e13 3e3b 7686 37bc
000000c0: 0d7e 163d 193e 153d 9ba7 73bd 1d09 5fbd
000000d0: 509b 103b 6049 9fbc 30a4 08bd d042 fdbc
000000e0: 67be b03c fc4e 533d 608e 56bd 170f a0bc
000000f0: 55d5 95bc 519a fabc dc82 46bc abe7 ff3b
00000100: be56 83bc 4af2 3bbc 2199 af3c 30bb 483b
00000110: c7c6 c73c 03c7 313d 4889 f2bc 814a 20bd
00000120: 68ff c1bc 25c9 3bbd cb52 27bd 3b61 4ebc
00000130: 4b1b b3ba a4eb 25bd b7c7 b03c 0198 4d3d
00000140: 5a7d 7bbd df2f 333c 9ae2 cebc bcf0 29bd
00000150: c1d1 b53c 7efb 72bd 3029 66bd 2b11 143c
00000160: fc3a 83bc 31c4 6cbc e1ad 723d 18a6 afbc
00000170: a1f9 fa3c 8832 a63c 1cfb 3f3d eb82 2a3d
00000180: 6e8e aabc 409d 993c 19d2 4b3d 6ce2 4f3c
00000190: acb6 873c b78e 33bc d6c5 36bd 2dc9 1dbc
000001a0: 1544 4ebd dd4f 6f3d d8cf 643d 9883 033a
000001b0: 7d16 96bc ce70 0ebd 0391 a4bc d72e 16bc
000001c0: 1763 6cbc e414 763d e24c 10bd c342 2a3d
000001d0: d2ae 8bbc 7bbd 3cbd f343 733c 2779 143c
000001e0: fa3c 633d 3e01 70bd 243b bf3b 25f9 4bbd
000001f0: b6f4 15bc bf8f 88bb ba37 78bd bbad c1bc
00000200: eb67 c1bc ff7d 763d 1251 a3bc 1bf2 a7bc
00000210: 0005 273d 903c 413d e2a6 363d 6a27 47bc
00000220: a88a 04bd 2c06 46bd 0081 46bd 2cd6 e9bb
00000230: a4cd 7d3d 8bdb 60ba 3f71 29bc 31d0 643c
00000240: 43ce f23c 8024 65bc ea52 453d 0885 ef3c
00000250: 72d5 8f39 29d4 ef3c cfdf 1fbd fa1b dfbb
00000260: c988 d33c 9039 b83c 6329 c2ba ee3e 9fbc
00000270: 01a3 153c bc2c 26ba 3fc5 7bbd 7b68 4e3d
00000280: 6c59 05bd 75ec 383d d3c7 163d fe9a ccbc
00000290: 453f b03b aa58 c4bc 81dc db3c 9f9b 1a3a
000002a0: 8ed7 4d3d 809a 14bd 33f7 643d cbb9 e63c
000002b0: 2168 7e3d 59f1 823c 4587 3b3c b825 313d
000002c0: 0f94 75bd 84cf 173c f9db ad3c 13c3 4dbd
000002d0: eb8f 25bd 6821 79bc a3e1 f5bc 3220 613d
000002e0: a9c9 ba3c cd6a 66bc 8e80 633a 77f4 7cbd
000002f0: fb58 86bc 2845 083d db27 a739 c9ac 893b
00000300: 0a84 323b 0e90 293c 7831 173c 6224 253c
00000310: 5237 d93b 69fb 793d 5354 743c 9695 4a3d
00000320: 29a0 74bb 945b 2d3d 070f 073d ccd9 a4bc
00000330: b12b a1bc 764f 1ebd 8991 6e3c 8d1d 213d
00000340: 1162 09bd 9343 1abd dbed 01bd 12d6 ecbc
00000350: 236b 203d 0d66 513d 9ee8 bfbc 9e79 90bb
00000360: d5f5 913c e7a1 95bc 1276 6e3d 2feb ecbc
00000370: 0c5e 92bc 65b3 40bd 178f 33bd 80a9 8fbb
00000380: 0389 78bd 3b29 77bd fbfa 9d3b 4633 42bd
00000390: b9a8 123d 51a9 4fbd ecb3 7a3d e490 b63a
000003a0: c38d dd3c 8e39 9dbb 598f 983c 2f1b 94b9
000003b0: 0b0d 5fbd a252 7d3d 67fe b4bb 63bc ed3c
000003c0: 97a7 e3bc aa1c 243c 379c 8d3c 03c6 723d
000003d0: 4848 6dbd 89ab 793d a05c 6a3b 2cde 94bc
000003e0: 03ca ff3b e6f4 6b3d da1d 003c b6f0 98bc
000003f0: 6ad6 7dbc 5cfd 46bd 68ff 73bd 64a5 7a3d
0.051514152 -0.0364607 0.0030990737 0.059362594 0.043666504 -0.008016194 -0.04021008 -0.058470268
-0.020192767 0.054311376 0.009128803 -0.03569248 -0.0008668364 0.0074017416 0.024497226 0.04475351
0.059293915 -0.013678538 0.013044405 0.03807712 -0.011104044 0.016160218 -0.051273577 0.0018905392
-0.002770117 0.02796112 0.02189899 0.050987497 0.055094562 0.052641835 0.036823526 -0.033422116
0.046356022 0.02286845 -0.061668023 0.036187805 -0.005725781 -0.010563914 -0.009273377 -0.041940678
0.010147957 0.0059645656 -0.031669144 0.026528623 0.047417704 -0.02487723 0.0029003243 -0.011201492
0.036741305 0.036436174 -0.059486013 -0.05445205 0.002206523 -0.019444168 -0.033359706 -0.030915648
0.021575166 0.051588997 -0.052381873 -0.019538445 -0.018290201 -0.030591162 -0.01211616 0.0078095994
-0.016032573 -0.01147134 0.021435322 0.003062915 0.024386777 0.043402683 -0.029606476 -0.039133552
-0.023681358 -0.045846123 -0.040850442 -0.012596424 -0.001366475 -0.040507928 0.021579606 0.05019379
-0.06139884 0.010936706 -0.025254536 -0.041489348 0.022194745 -0.059321873 -0.056191623 0.009037296
-0.016019337 -0.014451073 0.059247855 -0.021441504 0.03063661 0.020287767 0.046870336 0.04162876
-0.020819869 0.01875174 0.04976091 0.0126882605 0.016566597 -0.010959319 -0.044622265 -0.009630484
-0.050357897 0.058425773 0.055862278 0.00050168624 -0.01832127 -0.034775548 -0.020088678 -0.009166441
-0.014427922 0.060078517 -0.03522957 0.041567575 -0.017051134 -0.04607914 0.014847743 0.009062088
0.055478074 -0.058594935 0.0058359075 -0.04979815 -0.009152582 -0.0041675265 -0.06060002 -0.023642411
-0.023609122 0.060178753 -0.019936118 -0.020501187 0.040776253 0.047176898 0.044592746 -0.012155393
-0.032358795 -0.04834573 -0.048462868 -0.007136127 0.061963692 -0.00085776363 -0.010341941 0.013965652
0.029639369 -0.013985753 0.048174776 0.029238239 0.00027434115 0.02927597 -0.0390318 -0.006808755
0.02582206 0.022488385 -0.001481336 -0.019439187 0.009133101 -0.00063390634 -0.061467405 0.05039261
-0.032555982 0.045147378 0.03681166 -0.02497625 0.005378636 -0.02396806 0.026838543 0.0005897823
0.050254397 -0.036280155 0.05589981 0.028164765 0.062111024 0.015984224 0.011445825 0.043248862
-0.059955653 0.009265784 0.021223055 -0.050234865 -0.040420454 -0.015205719 -0.030014819 0.054962344
0.022801237 -0.014063549 0.0008678519 -0.061756577 -0.016399851 0.033269078 0.00031882417 0.004201506
0.0027239346 0.010349287 0.009228103 0.010079475 0.006628909 0.06103078 0.014912683 0.049459063
-0.0037326908 0.042323664 0.032973316 -0.020123385 -0.019674154 -0.03865 0.0145610655 0.039334822
-0.03354079 -0.0376621 -0.031720977 -0.02891067 0.039164674 0.051122714 -0.02342635 -0.004409029
0.017817417 -0.018265678 0.05821807 -0.028920738 -0.01786711 -0.047046084 -0.043837633 -0.0043842196
-0.06067754 -0.060342055 0.004821179 -0.04741218 0.035805438 -0.050698582 0.061206743 0.0013928679
0.027045136 -0.004798121 0.018623041 -0.00028249013 -0.054455798 0.061846383 -0.005523491 0.029020494
-0.027789874 0.0100166 0.017286403 0.05927087 -0.05793026 0.060954604 0.0035760775 -0.018172346
0.007806064 0.0576066 0.007819617 -0.018669467 -0.015493015 -0.048581466 -0.059569746 0.061192885

layers.2.weight f4 [256, 256]
00000000: 29c2 daba ace0 903b c831 883b 756e 7d3b
00000010: b33c 73bb fe6f 8cbb 43a0 8dbb 064e 753a
00000020: 2d30 323b a6df 71bb a2a9 e2ba 679f 87bb
00000030: 74af 983a 467e 013b 7c8d 6b3b 1e5f 163b
00000040: 5464 6cbb 1403 f439 16f7 21bb a711 7cbb
00000050: f871 b63a f775 8c3b 7e94 11bb d805 6bb9
00000060: 0dce 933b 40b8 033b cb9f 753b 1820 85bb
00000070: a841 6c3b 3047 3dbb 2fbb 17bb 9e5b 873a
00000080: a397 32bb 8de7 96bb 7d18 403b 6b9c 97bb
00000090: bbff 85bb 1c0a 943a ffde a5ba 990d 4f3b
000000a0: a10b a23b cefe 42bb 23b6 72bb 236c 1b3b
000000b0: 3878 f23a a89a f8ba 4df1 92ba c340 90bb
000000c0: eddf d4b9 e0e5 10bb 298d 6aba 65cf 7e3b
000000d0: c5c5 e0ba 491c 1b3b c0cf 903b f85f a23a
000000e0: 576f 7d3b 2111 38bb 64d4 1bbb 1a5b 29bb
000000f0: 504a 00ba d7eb 5cbb 6a39 4cbb 6d22 853b
00000100: 11b7 293b f3ba a13a b936 6dbb c1d2 8ebb
00000110: 0f40 68ba 68fa bdb9 0526 63ba 1707 9fba
00000120: d332 8d3b 0e94 e639 1f66 2ebb 0a23 21bb
00000130: dc9f 1ebb 78c7 273a 809e 3c3a 8998 2d3b
00000140: f406 0cb9 3573 8abb 2a5e 453b a7b1 0abb
00000150: fef4 7f3b 6b6f 90bb 6165 5a3b 1074 8dbb
00000160: 9d5e 72ba ae31 1439 034f 90bb aa62 123b
00000170: 6e95 98bb 7ee0 e1ba beac 7eba 4805 e2ba
00000180: 8787 92ba 3dec 58bb 31d6 4c39 1d87 02bb
00000190: 9b17 12ba dc2f 463b 5b27 6cbb 98d7 2a3b
000001a0: 7107 693a d112 e0ba bd50 243b 8c12 e539
000001b0: c586 713b c6ea 61bb da77 493b 355a 80bb
000001c0: f001 3cba 75b5 83bb 4c9e 8739 994d 143b
000001d0: 950b 523b fa9d ef39 49df 393b f6c8 1e3b
000001e0: df34 113a a63e 403b a1c6 5bbb 6328 5abb
000001f0: bc68 b739 85c6 19ba f3ce fcba 5003 8eba
00000200: e16e 8bbb afc6 943b 64f5 11ba 0591 c8ba
00000210: f6ef da38 c14b 703b a0c2 9e39 889a 1aba
00000220: 3c7c 16bb 9da9 b4b9 f0b3 bd3a 1aee 633b
00000230: e126 df39 ba0d 3c3b ebd7 d5ba 8b9a 8c3b
00000240: c89b efba f5e7 69bb e74e 763b 34a8 6fb8
00000250: 17aa 003b 024a 893b ba5a 81bb c161 d5b9
00000260: 2b62 443b a0db 95bb 32b7 0a3b 7cca 38bb
00000270: 6ab4 b1ba 5e20 7d3b 1146 75bb 30d6 6e3b
00000280: a466 2b3b 80fd 5ebb 2a22 51ba b2c5 a83a
00000290: 860e c4ba 2d6c 003b 6424 77bb beda 96ba
000002a0: 3592 6137 1173 2639 be42 27bb b27f 24ba
000002b0: 1e65 c03a 5537 89ba f6ca 813b 2348 08b9
000002c0: 355d 6cbb fb85 a1bb ade9 183a 618d f939
000002d0: a69d 3fba f731 393b fbf2 3abb 4d72 70bb
000002e0: a5ee 4b3a 8c1f 60bb d8bf 2d3b 9551 cdb9
000002f0: 513b 843a 71e1 8cbb f1fb a03a 5b5e 0abb
00000300: 363a 7ab9 d6fa 2cbb 9a8b 81bb 189e 9a3a
00000310: 1117 963b 752e 97ba 0c20 6f38 ed96 88ba
00000320: 61f3 883b c3b9 5dbb d936 e638 089d 89b8
00000330: 0e9a 903b 9f35 9d3a 9d02 40ba aaab b13a
00000340: c1a9 2ebb e290 613b fef0 08bb adc7 ae3a
00000350: 24ca 753b 117f 153b 568a d139 6871 94ba
00000360: 4bb3 903b cc14 9d3a 8fe0 35bb 6236 8a3b
00000370: 08a5 3bbb 8b28 0dbb 83ec 32ba 1a8b 6b3b
00000380: 5eb6 7abb 583d 6a3a d95d 2f3a 7d58 22bb
00000390: 6cf5 173b cb2c 213b 8535 83bb c355 853b
000003a0: 0e47 813b 747f 053b a458 4c3b cb9f 82b9
000003b0: 64c0 3c3b 9d7f 8eba 0290 6c3a 5da2 903b
000003c0: 7df4 0cbb c659 baba f163 7cbb de6f 19b9
000003d0: cf9a 92bb 9da5 44bb 19e4 0d3b 58a4 ad3a
000003e0: 3bea 963b 4ef0 92bb 4d09 8fbb 5025 83ba
000003f0: 7ceb d13a 5354 57bb 9c91 9c3a 47f0 54ba
-0.0016689944 0.004421314 0.004156325 0.0038670574 -0.0037115037 -0.0042858114 -0.004322083 0.00093576347
0.002718936 -0.0036906986 -0.0017292986 -0.0041388753 0.0011648969 0.0019759103 0.0035942486 0.0022944878
-0.0036070542 0.000465416 -0.0024713925 -0.003846267 0.0013919463 0.0042865234 -0.0022213752 -0.00022413523
0.004510647 0.0020098835 0.0037479277 -0.0040626638 0.0036049876 -0.0028881542 -0.0023152342 0.0010326987
-0.0027251027 -0.0046052397 0.002931147 -0.004626801 -0.0040893233 0.0011294517 -0.0012654959 0.0031593798
0.004945234 -0.0029753926 -0.0037034831 0.0023715578 0.0018498963 -0.001896699 -0.0011210829 -0.0044022514
-0.0004060263 -0.0022109672 -0.0008947426 0.003888094 -0.0017148784 0.0023667982 0.004419297 0.001238822
0.00386711 -0.0028086381 -0.0023777718 -0.0025841654 -0.0004893886 -0.0033709907 -0.003116215 0.0040629418
0.002589647 0.001233904 -0.0036195947 -0.00435862 -0.0008859643 -0.00036235456 -0.0008665028 -0.001213285
0.0043090372 0.00043979328 -0.0026611162 -0.0024587535 -0.002420417 0.00064002676 0.0007195249 0.0026488623
-0.0001335403 -0.0042251595 0.003011594 -0.0021163018 0.0039055939 -0.0044078133 0.0033324587 -0.0043168142
-0.0009245666 0.00014132887 -0.00440395 0.002233664 -0.0046564853 -0.0017233042 -0.00097150716 -0.0017244006
-0.0011179306 -0.0033099793 0.00019534749 -0.001991696 -0.00055729755 0.0030240929 -0.00360342 0.0026068445
0.00088893535 -0.0017095451 0.0025072538 0.00043692102 0.003685401 -0.0034472211 0.0030741603 -0.0039170035
-0.00071719196 -0.004019434 0.00025867147 0.002262926 0.003205036 0.00045703334 0.0028361848 0.0024228669
0.00055391894 0.0029334216 -0.003353514 -0.0033288233 0.00034982513 -0.00058660685 -0.001928775 -0.0010834727
-0.004255161 0.0045402865 -0.0005567877 -0.0015302008 0.00010439746 0.0036666247 0.00030281115 -0.0005897661
-0.0022962233 -0.00034458647 0.0014473181 0.003477937 0.00042562842 0.0028694705 -0.0016314959 0.004290884
-0.0018280679 -0.0035691236 0.003758365 -5.713869e-05 0.0019632631 0.0041897306 -0.003947583 -0.00040699358
0.002996574 -0.0045733005 0.0021166322 -0.0028196862 -0.0013557796 0.0038624029 -0.0037425796 0.0036443584
0.0026153708 -0.003402561 -0.0007977808 0.0012876301 -0.0014957942 0.0019595728 -0.00377109 -0.0011509282
1.3445087e-05 0.00015873859 -0.002552196 -0.00062751316 0.0014678573 -0.0010468761 0.0039609624 -0.00012996844
-0.0036066298 -0.004929302 0.000583316 0.00047598316 -0.0007309563 0.002825854 -0.0028526175 -0.0036689222
0.0007779396 -0.003419849 0.0026512053 -0.0003916143 0.0010088478 -0.0042993356 0.0012282116 -0.002111337
-0.00023863543 -0.0026394627 -0.0039534094 0.0011796383 0.0045803864 -0.0011534231 5.7011886e-05 -0.0010420956
0.0041794037 -0.0033832646 0.00010977471 -6.5619184e-05 0.004412896 0.001199413 -0.0007324608 0.0013555188
-0.0026651474 0.0034418632 -0.0020895596 0.0013334655 0.0037504518 0.0022811333 0.00039966655 -0.0011325302
0.0044159046 0.0011984347 -0.0027752256 0.0042179087 -0.0028632302 -0.0021539058 -0.0006825404 0.0035941065
-0.0038255672 0.00089355325 0.00066897046 -0.0024771981 0.0023187054 0.002459335 -0.0040041828 0.0040690615
0.003945238 0.0020370157 0.0031180764 -0.00024914587 0.0028801197 -0.0010871772 0.00090241444 0.0044138865
-0.002150803 -0.0014217428 -0.0038511718 -0.00014632891 -0.004474021 -0.003000594 0.002165085 0.0013247831
0.004605559 -0.004484213 -0.0043651224 -0.0010005627 0.0016015614 -0.0032856658 0.001194525 -0.00081229623

layers.2.bias f4 [256]
00000000: 3246 f53c 7617 153d 20cc c2bc 6885 133d
00000010: ee19 c43c 4c46 9d3c 15ff 10bd 40f8 a53b
00000020: 39f8 8c3c cc6a 33bd 3e94 6cbd 27b3 283c
00000030: 1c29 e9bc 20b8 e43c ed32 b5bc 587c 04bd
00000040: e18d 45bc 7fd6 d53c 5f44 763d 444c 28bd
00000050: 0b35 0d3d d52f 233d dc88 373c 6adb e4bb
00000060: 8dda 4d3c 1f44 923b 9b1d 6ebd f94e 02bd
00000070: 8fb8 2e39 9dd9 cabc 6487 283d 3013 ea3c
00000080: 957f dabc 34fd b2ba c142 04bd a2dc 353b
00000090: cdc7 8e3c b94d 75bd 9813 6a3d f80a cf3c
000000a0: 816b 1b3d 6a1c 203c 396a 323c bf47 36bd
000000b0: e6fd 2e3d b62f 3b3d 2455 aabb 44e1 01bd
000000c0: a78c 073d a6e7 383d a7d3 df3b 3bf9 5f3d
000000d0: ae25 133d 0246 a63c ca39 7fbd b695 21bc
000000e0: 757c d83c 7b96 7ebd e70f 633c 844e a33c
000000f0: 8257 d03c 2603 543d 0ccb c33c 7000 763c
00000100: e901 5abd 3e84 4dbd 33eb 3a3d 3955 0e3d
00000110: 3f35 423c 5600 bebc 72f4 383d 08f6 b6bc
00000120: 64eb f83c a6d6 f0bb 0a90 083d 516b b53c
00000130: 1a0d 16bc 72e2 ad3c 1f07 05bd 3477 12bd
00000140: 58db db3c cbd7 d23c f4a3 1dbc d05a e83a
00000150: f462 f1bc 1d06 383d cd7a 6abc 2485 8e3c
00000160: 0389 51bc 2676 313d 52a5 36bd 4aec 283d
00000170: efb6 7a3d db58 29bd 9716 5abd ee3a 053d
00000180: fd86 7c3c 8c77 1f3d e320 2a3c 4ed3 b13c
00000190: 2a4c f0bc 64ac 503d 0cfe 8e3c 0d9b 1a3a
000001a0: 3363 72bb 6c5b 553c b136 823c e898 283d
000001b0: 5ff4 1d3c 8eb7 a9bc 6886 eb3c b8fa 7c3d
000001c0: 134e eb3c c608 3f3d 55a1 17bd 6e34 cc3c
000001d0: 604d 703d 64c5 2bbd 29c5 d83b 9b8c 9abc
000001e0: 4c48 3a3c b6e3 2e3d 5ad4 993c 1b75 adbc
000001f0: 1774 653d 5a0e 4ebd d4ec ce3c 36c2 ea3c
00000200: 2565 583b 268f 32bd 4675 443d 4f31 98bb
00000210: 36df f43b 05ef 99bc a3a4 353d 3a0c fcbc
00000220: 9a49 53bd ecf2 503c 536c 8b3b b761 0fbd
00000230: f13a a6bc f201 973b 2b03 fdbc f2c3 dfbc
00000240: bf23 acbc cc99 8abb adb7 45bd dc00 463c
00000250: f1cd 12bd fadc a63b 3993 d13c 0e36 9bbc
00000260: 033e 2c3d 84e2 62bd e3ba 463d 3392 98ba
00000270: f2c1 6a3c 54c9 583d 8dd4 7cbd b050 223c
00000280: 29e7 19bc 562d 03bd 6493 dd3c 6cf4 2d3d
00000290: 3e1b a7bc 46a3 54bc 2729 093d 5895 6d3c
000002a0: d398 8ebc 20fd 363c 2947 3abd 3732 653d
000002b0: 9f12 b73c e4a8 2f3d 1579 79bd 95a0 39bd
000002c0: 5146 cbbc 7147 413d d4b9 573c ea39 693d
000002d0: 141d 46bd 39fa 2b38 2d87 163d d1e1 5e3d
000002e0: c104 473d cede 25bd ac2d db3c aafd 143d
000002f0: f0c8 f8bc 70fa 7cbc 661b c33c aa32 b23c
00000300: 2d50 733d 8d9f 4abd 795b 10b9 7bb1 acbc
00000310: fa00 42bd 6f11 493d 6196 053d 590c 3b3d
00000320: 7606 703c c639 b03b a4f6 23bd 61a6 2bbd
00000330: 2dc8 2a3c b42d 523d 1267 57bc eee5 7d3a
00000340: c679 0a3d 00ba cd3c 3274 a9bc 9ec2 083d
00000350: f565 e03c b8e2 223d d6b1 053d 3ee5 20bd
00000360: 9b4b fe3c f938 4e3d ce76 123c f4dd 1b3d
00000370: 250b 673c 3dea ba3a 30bb 143d 0a56 363d
00000380: abe8 193d facd 113c d412 ab3c e40f 8e3c
00000390: 63ed 5bbc 8703 64bd 51ca 37bd a110 3dbd
000003a0: a154 543d 28c7 73bd 08a6 70bd 03f2 22bc
000003b0: edb7 013c 7811 33bd 2d08 81ba 573a 5fbd
000003c0: 5592 793d 3267 e8bc 86fc 0f3d c14f a3bc
000003d0: 00ac 16bd 13d7 bebc c373 383d cf42 183c
000003e0: 3733 73bc 8ecb 053d ea76 06bd d97a 14bd
000003f0: 2f3b 26bd 2b40 553d f3a6 00bb 13f0 1dbd
0.029940698 0.036399327 -0.023778975 0.036015898 0.023938145 0.01919856 -0.035399515 0.005064994
0.017208206 -0.04380302 -0.057758562 0.0102966195 -0.028461985 0.027919829 -0.02211901 -0.032345146
-0.012057752 0.026103256 0.060123798 -0.041088358 0.034474414 0.039840538 0.011202063 -0.006984164
0.012564314 0.004463687 -0.058133703 -0.031813595 0.00016662687 -0.02476197 0.041144744 0.028573602
-0.026672164 -0.0013655783 -0.032290224 0.0027749916 0.017429257 -0.059888575 0.057147592 0.025273785
0.03794432 0.009772399 0.010889583 -0.044502016 0.042722605 0.045699798 -0.005198138 -0.03170897
0.03309312 0.045142792 0.006830651 0.054681044 0.035924606 0.020297054 -0.06231097 -0.009862354
0.026426533 -0.062155228 0.013858772 0.0199349 0.025432352 0.051760815 0.023900531 0.015014753
-0.053224478 -0.050174944 0.04563446 0.034749243 0.011853515 -0.02319352 0.045154996 -0.022334114
0.03038568 -0.007349807 0.03334049 0.022145899 -0.009158397 0.021226142 -0.032477494 -0.035758212
0.02683799 0.025737664 -0.009621609 0.001772726 -0.02946613 0.044927705 -0.014311505 0.01739747
-0.012789014 0.043325566 -0.044591255 0.041240968 0.061209615 -0.041344505 -0.0532442 0.032526903
0.015413043 0.03893237 0.010383817 0.021707203 -0.029333193 0.050945655 0.017455123 0.0005897738
-0.0036985397 0.013022285 0.01589522 0.041161448 0.009640782 -0.020717409 0.028750613 0.06176254
0.028723752 0.046639226 -0.037019093 0.024927344 0.05866754 -0.041936293 0.0066153 -0.018865874
0.011369776 0.04269763 0.018778015 -0.021174004 0.056018915 -0.050306655 0.025259413 0.02865706
0.0033019271 -0.04359355 0.047963403 -0.00464455 0.007472898 -0.018790731 0.044346463 -0.030767549
-0.051583864 0.01275323 0.0042548566 -0.035005298 -0.020291777 0.004608386 -0.0308853 -0.027315114
-0.021013139 -0.00422976 -0.04827087 0.012085166 -0.035840932 0.0050922604 0.025582897 -0.018946674
0.042051326 -0.055391803 0.048518073 -0.001164025 0.014328467 0.052926376 -0.06172614 0.009906933
-0.009393492 -0.032025658 0.02704782 0.042469427 -0.020398732 -0.012978381 0.03348651 0.014500938
-0.017406857 0.011168748 -0.04547802 0.05595609 0.022347746 0.042885676 -0.06090649 -0.04531916
-0.024813803 0.047187272 0.0131668635 0.056939997 -0.048367575 4.1002615e-05 0.036750007 0.054414574
0.048588518 -0.040495686 0.026755176 0.036374725 -0.030369252 -0.015440568 0.023816776 0.021752674
0.059402633 -0.049468566 -0.00013766986 -0.021080723 -0.047364213 0.04908889 0.032614116 0.045666073
0.014649978 0.005377981 -0.040030137 -0.04190672 0.010423702 0.051313117 -0.0131471325 0.0009685446
0.03380754 0.025113106 -0.020685289 0.033388726 0.027392367 0.039766997 0.0326403 -0.039281122
0.03104191 0.050347302 0.008939458 0.038053468 0.014101778 0.0014260482 0.03631133 0.044515647
0.037575405 0.008899206 0.020883001 0.017341562 -0.013423297 -0.055667426 -0.04487068 -0.046158437
0.05183852 -0.059516102 -0.05875209 -0.009945395 0.0079173865 -0.04371783 -0.0009844356 -0.054498997
0.06093057 -0.02836952 0.035152934 -0.01993549 -0.036785126 -0.023295915 0.045032274 0.009293272
-0.014843754 0.032664828 -0.03282825 -0.03624997 -0.040583786 0.05206315 -0.001963076 -0.03855903

layers.3.weight f4 [2, 256]
00000000: 6833 21bb baae 83ba 68fc 3fba 654b 683b
00000010: 7d71 94b9 0f90 1b3a 6d67 27bb c9bb 0abb
00000020: 5486 503b 5b22 243a f848 643a 546c 143b
00000030: 2213 f2ba dd81 15bb 66f0 36ba 3d1e 52bb
00000040: 22f5 3f3a 60ca f3ba d374 483a cde7 7cbb
00000050: 2ce3 8dbb 926e 56bb 8651 1c35 8c08 2abb
00000060: d1f0 e239 8d32 873b ea60 12bb 8412 663b
00000070: a941 e639 629d bbba 209f 6fb9 4749 c83a
00000080: 715c 53bb 1dfe 71b8 9859 1d3b 62f4 2ebb
00000090: 6d2f d9b9 f310 55ba c2b1 2dbb 8e21 6739
000000a0: 939d fb3a 23e0 1e3b d7d1 86ba a7ee 283a
000000b0: 7c2d 85bb d4cc b539 2170 d5ba 8d65 543b
000000c0: 6c3f 7e3b 8954 0abb 3d54 bbba 1af4 653b
000000d0: 5fa5 0cbb b94f d33a e87e 0cbb 8aa0 5ebb
000000e0: a433 c2b9 65f6 8bb9 f61a d4b9 c7c1 a239
000000f0: f2f2 103b 4788 683b 9136 5aba da9e a139
00000100: dcc8 153b fde8 923a 4ce1 ff3a c424 d63a
00000110: c722 623a 3847 87bb 1924 55bb ae6b 2dbb
00000120: 34f4 543b 7482 7dba ddb5 533b 2b06 e03a
00000130: 5b3d bbba 2fb7 8539 36ee d6b8 f147 8a3b
00000140: c894 753b da49 363b ceaf b1ba a36b 2f3b
00000150: f1ce 21bb b351 90bb c962 493b 7de0 e4ba
00000160: 0179 35bb 8420 763b 08f4 bfb9 6498 f539
00000170: bac2 7b3a daa7 e3ba a51f 8c3a bf20 46bb
00000180: ff22 983b 5f40 833b 77dd e43a 135b 6bbb
00000190: 6504 7c39 b910 8cba fc5d 57bb cc36 773a
000001a0: cc81 87bb 4bff 70ba 279b acba 3ab4 ab3a
000001b0: 24ef f9ba 02e2 4e3b 0cb6 85bb acb4 25bb
000001c0: f77d 93bb 03b8 3e3b 9fe8 503b 8152 773a
000001d0: 51bf 37bb 7bd0 e0ba 0e4e a93a ddaf 0cba
000001e0: 38f5 91bb c7fa 1f3b e6c7 5fbb 7bdc 91ba
000001f0: 8c35 8e39 040e 25ba 2b4b 42bb da31 053b
00000200: 22c9 dcba 9a7f 573a 3ba7 783b 2658 fc3a
00000210: 3941 573b 6414 edba a0d5 373b dc72 113a
00000220: 3746 333b 42dd 9cb9 c671 58bb 4128 40ba
00000230: 3c2d 02bb 43c6 b038 a856 ac3a b2a2 8cbb
00000240: 4a67 423b 453e 58ba f6a0 06b9 a9cb fdb8
00000250: a5c1 83ba 7695 533a 729c 1ebb cbdd 75ba
00000260: 6aee 4fbb 9af0 723b f5aa 8d3b fe87 8339
00000270: fb85 80b9 5d95 2fbb 3424 79bb 0a98 7b3b
00000280: 0d64 abba 1bfc 74bb d8b7 3ebb b481 313b
00000290: c41a 53bb 3d94 06bb 7cbd 083b 133a e5ba
000002a0: de31 c2b9 6f9f 2f3b c5ef b639 1d98 6dbb
000002b0: 1935 203b 6999 37bb 6170 403b 8cdf 7ebb
000002c0: 9d52 e1b9 f2df 81bb fa5f 853a c968 5abb
000002d0: b4da 7bbb ac85 94bb b8a8 5ebb 10ba 88bb
000002e0: 18e9 32bb df96 99bb f99c 823b e6f4 c33a
000002f0: 1ed2 c5b8 76db 8d3b 774c 8dba f1a5 863a
00000300: bdb8 59bb c3f7 ab3a d68b 013b b95a 6abb
00000310: faa0 f539 64ec 85bb 2da3 e4b9 d644 573b
00000320: d24d 62bb 51f9 0d3b 2b2c aa39 5efa 68bb
00000330: 740b 21bb 1fd7 8cbb b8c2 443b 93a3 bf3a
00000340: fd94 28ba 7597 723b 3642 263a e8d9 8f3a
00000350: 521b 62ba 7036 e13a c798 163b 2e23 6b3b
00000360: 5eb2 833b f522 46bb eb7c 4cbb a6df 3eba
00000370: f3ff 73b9 41df 88bb 37e4 523b 28cc 803b
00000380: 573e 5ebb 3695 6cb9 638c 3c3b 76ed 913b
00000390: 10fb c33a e277 10bb f3b0 8a3b be87 f8ba
000003a0: 66cc 38b9 069a 553b fba6 9f3a 9b19 84ba
000003b0: aa90 dbb9 9f3c 4dba 8165 5f3b acd8 eeb9
000003c0: 77e2 78bb 07b0 d3ba b42d 143b aea0 d53a
000003d0: c7a4 5ab9 17c5 b3ba c188 94bb 653a 4c3b
000003e0: b0b5 97bb 0641 7f3b b596 143b 29b9 7dbb
000003f0: ac15 85bb b408 3f3b 2a98 143b 2245 7bbb
-0.002459729 -0.0010046579 -0.0007323683 0.003544533 -0.00028313315 0.0005934247 -0.0025543824 -0.0021169058
0.0031818347 0.0006261223 0.0008708383 0.0022647576 -0.0018468837 -0.0022813 -0.0006978571 -0.003206148
0.00073225994 -0.0018599741 0.00076468027 -0.0038590312 -0.0043300595 -0.0032719714 5.823316e-07 -0.0025945036
0.000432855 0.004125899 -0.0022335597 0.003510625 0.0004391794 -0.0014313872 -0.00022852095 0.0015280627
-0.0032251144 -5.769554e-05 0.00240097 -0.0026695956 -0.000414248 -0.0008127831 -0.0026503657 0.00022042377
0.0019196741 0.0024242483 -0.0010285926 0.00064442534 -0.00406426 0.0003467562 -0.0016284027 0.0032409162
0.0038795127 -0.0021107516 -0.0014292073 0.0035088123 -0.0021460874 0.0016121782 -0.0021437947 -0.00339702
-0.0003704104 -0.00026695724 -0.00040455878 0.00031043423 0.0022117463 0.0035481618 -0.0008324171 0.00030826667
0.0022855317 0.0011208352 0.00195221 0.0016337861 0.0008626398 -0.004128363 -0.0032522737 -0.0026461887
0.003249419 -0.0009670623 0.0032304444 0.0017091682 -0.0014285253 0.0002550422 -0.000102486854 0.004220002
0.0037472714 0.0027815015 -0.0013556422 0.0026767037 -0.0024689997 -0.0044042706 0.0030729047 -0.0017461922
-0.0027690532 0.0037556002 -0.00036612176 0.0004684358 0.00096039067 -0.0017368749 0.0010690583 -0.003023192
0.0046428437 0.0040054764 0.0017461021 -0.0035912439 0.0002403423 -0.0010686136 -0.0032862416 0.00094304676
-0.004135346 -0.0009193315 -0.0013168798 0.0013099976 -0.0019068462 0.0031567817 -0.0040805396 -0.002528469
-0.0045011 0.0029101379 0.0031876934 0.0009434596 -0.0028037617 -0.0017151976 0.0012916939 -0.0005366782
-0.004454281 0.002441095 -0.0034146248 -0.001112833 0.00027124246 -0.0006296339 -0.0029646854 0.0020323903
-0.001684461 0.0008220613 0.0037941474 0.0019252345 0.0032845272 -0.0018087742 0.0028050914 0.00055484264
0.0027355084 -0.0002991949 -0.0033026799 -0.0007330217 -0.0019863388 8.429263e-05 0.0013148384 -0.0042918557
0.0029663616 -0.0008249025 -0.00012839198 -0.00012101915 -0.0010052217 0.00080712826 -0.0024202135 -0.0009379058
-0.00317278 0.003706968 0.004323358 0.0002508759 -0.00024513886 -0.0026791908 -0.0038015964 0.0038390183
-0.0013076082 -0.0037381712 -0.0029101279 0.0027085366 -0.0032211998 -0.0020535134 0.0020864895 -0.0017488621
-0.00037039717 0.002679791 0.00034892387 -0.0036253997 0.0024445711 -0.0028015024 0.0029363858 -0.0038890569
-0.00042976896 -0.003963464 0.0010175698 -0.0033326617 -0.0038429918 -0.0045325365 -0.0033975076 -0.004172571
-0.002729958 -0.0046871747 0.0039859978 0.0014950305 -9.4328294e-05 0.0043291403 -0.0010780235 0.0010272843
-0.0033221685 0.0013120103 0.0019767187 -0.0035759641 0.00046849978 -0.004087018 -0.00043609124 0.0032847426
-0.0034531248 0.0021663497 0.00032457834 -0.003554962 -0.0024573477 -0.0042981054 0.0030023288 0.0014620892
-0.00064308924 0.0037016545 0.00063422637 0.0010974975 -0.0008625287 0.0017182361 0.0022979246 0.0035879123
0.0040190658 -0.0030233238 -0.0031202387 -0.0007281251 -0.00023269634 -0.0041770046 0.0032179484 0.0039305873
-0.003391167 -0.000225623 0.00287702 0.0044533564 0.0014952142 -0.0022044112 0.00423252 -0.0018961353
-0.00017623752 0.0032593026 0.0012180501 -0.0010078432 -0.00041878718 -0.00078291626 0.00340876 -0.0004555633
-0.003797678 -0.0016150483 0.002261025 0.0016298497 -0.00020851484 -0.0013715354 -0.004532904 0.0031162736
-0.004629813 0.003894867 0.0022672836 -0.00387151 -0.0040614214 0.0029149475 0.0022673705 -0.0038340767

layers.3.bias f4 [2]
00000000: 73fe 66bd 3609 03bd
-0.056395005 -0.031991206
