old_figures/up2sept/19-SIREN-ncc-1e-05-2500-10000/epoch-500.pth (torch, 534808 bytes, 8 tensors)

layers.0.weight f4 [256, 2]
000000 8d e0 a3 bd 96 b0 4c 3e 07 18 c4 be 1f a2 8c 3d
       -0.08001814 0.19989237 -0.3829958 0.0686686
000010 8a 3e e9 be c5 c8 9e 3e b3 97 f8 3e 7d d6 36 be
       -0.45555526 0.3101255 0.48553237 -0.17855258
000020 0e 43 97 3d d2 f4 83 be 37 a7 a3 be f0 8c 81 be
       0.073858365 -0.2577272 -0.31963512 -0.2530284
000030 38 23 74 be ed d5 c2 3d e0 6b 6c bd 21 a1 0c 3d
       -0.2384156 0.09513459 -0.057720065 0.034333352
000040 ea 32 c4 be d9 97 a0 be 1e 40 dd be 7e 31 b8 be
       -0.38320094 -0.3136585 -0.4321298 -0.3597526
000050 8f 1c d6 3e 4c 78 3e 3e 9d 14 f4 be bd e3 aa bd
       0.41818663 0.18600577 -0.47671977 -0.08344219
000060 af 14 26 3d 93 c8 88 3e 7d 6c ed 3e 89 a1 f6 3d
       0.04054707 0.26715526 0.46371832 0.12042529
000070 4a 5e b4 3e f2 90 36 be e1 43 87 bc da 57 9a be
       0.35228187 -0.1782873 -0.01651186 -0.3014515
000080 af c0 ec 3d 7f 01 ec 3e 1b 75 a0 3e 33 82 fe 3e
       0.11560189 0.4609489 0.31339344 0.4970871
000090 d8 61 66 be 1d ff 7e bd ef 45 d3 3d cc a1 cd 3e
       -0.22498262 -0.062255014 0.10316073 0.40162504
0000a0 bb 30 eb be fe ac 7b be 9d 96 94 3d 3d fe 93 be
       -0.45935616 -0.2457771 0.0725529 -0.28904906
0000b0 51 58 3f 3e be 15 09 bd 46 1f 05 be 93 1a 89 3e
       0.18686034 -0.033468 -0.13000211 0.26778087
0000c0 16 13 b7 3e fa 0a f9 3e ce e3 67 3e 2c 03 5b bc
       0.3575675 0.48641187 0.22645494 -0.013367455
0000d0 12 24 d1 3e 49 cb cb 3e 85 0d 80 be 9b e3 68 3e
       0.40847832 0.39803532 -0.25010315 0.22743075
0000e0 ce e7 6f 3d 19 3d 5d be 5f ec f3 bd c3 9f f0 bd
       0.058570676 -0.21605338 -0.119103186 -0.11749222
0000f0 47 33 b3 be fd 86 1b be 77 0f 2c 3e 56 c5 bb 3e
       -0.3500006 -0.15188213 0.16802774 0.36673993
000100 e3 ff 18 3d 2a ae f7 be e0 7c 87 3e f6 aa 1b be
       0.037353408 -0.48375064 0.2646246 -0.15201935
000110 3a 7a e4 3e f1 24 f7 be 35 3b ef bd 4a 7d c6 3e
       0.446245 -0.48270372 -0.11681215 0.38767463
000120 85 6f 5d 3e a6 75 7f be bd 8b dd be 78 41 a9 bb
       0.21624573 -0.24947223 -0.43270674 -0.005165275
000130 81 42 45 3e 5a 85 d4 be c5 4e d6 be b9 79 d2 bb
       0.1926365 -0.4150799 -0.4185697 -0.006423202
000140 93 b9 d1 bd 9c 82 a4 3e 15 fd f7 be a5 7b a2 bd
       -0.102404736 0.32130897 -0.48435274 -0.079337396
000150 eb 40 c6 be d4 fa 93 bd 0e 98 82 be c6 59 21 3e
       -0.38721403 -0.07225576 -0.25506634 0.15756902
000160 ab 56 d6 be b6 49 c9 be c0 3e 91 be f6 15 e0 be
       -0.41862997 -0.3931405 -0.28368187 -0.43766755
000170 f1 4f a1 3e ca 78 93 bd 79 4f 8e be bf 6c b3 3e
       0.31506303 -0.07200773 -0.27795008 0.35043904
000180 b1 ec e8 bd c1 3b 84 3e d8 f2 1e be 95 2f d6 be
       -0.1137327 0.2582684 -0.15522325 -0.41833177
000190 58 74 e0 3d 74 5a 9f 3e b4 7d f9 be d9 26 54 3d
       0.10959691 0.31123698 -0.48728716 0.05179486
0001a0 46 dc ca 3d 68 f8 68 3d dc c5 46 bc 85 5b 1f be
       0.09905295 0.056877524 -0.012132134 -0.15562256
0001b0 13 bb c6 be 8d 13 a7 3d 06 b6 ab be 4a 27 d3 be
       -0.388146 0.08158026 -0.3353731 -0.41240913
0001c0 31 0a 24 be 33 f9 ae be d3 ad 1c 3e 34 59 b6 3e
       -0.16019513 -0.341745 0.15300684 0.35614932
0001d0 0b a7 c6 3e 9c ba 9e be bd 87 8b 3e b8 da b5 3e
       0.3879932 -0.31001747 0.27251998 0.35518432
0001e0 d2 1e b8 3b d5 10 58 3e 93 02 91 3e 03 f3 c3 3e
       0.0056189084 0.21100171 0.28322276 0.3827134
0001f0 6f aa 88 3e 15 d6 5a 3e 2e 6c 42 be fd 90 8e be
       0.2669253 0.21370728 -0.1898658 -0.27844992
000200 85 dc 72 be 8d 8b d2 3e fc 41 f8 bd bf 38 94 3c
       -0.23716934 0.41122094 -0.121219605 0.018093465
000210 2e ce ee be cb 24 b4 bc dd 83 10 be 8e 25 a5 be
       -0.46641678 -0.0219902 -0.14112802 -0.32255214
000220 21 2c c6 3e 6c 29 cf be ea b3 91 bd f0 b8 0f bd
       0.38705543 -0.4046129 -0.07114394 -0.03508848
000230 4c 9e e7 be c2 7e 9a 3e 83 b2 22 be ed a0 65 3e
       -0.45237958 0.30174834 -0.1588841 0.2242467
000240 54 eb 8e 3e 53 d5 e1 3e 47 a9 fd 3d e0 25 c0 3e
       0.27913916 0.44108066 0.12385803 0.37528896
000250 4d 49 ec 3e cf 4c ca 3d 4b be d0 bd 9a 01 0c be
       0.46149674 0.09877931 -0.101925455 -0.13672486
000260 82 0a a6 3d b7 e4 37 3e ad 3c f1 be 10 e5 bf 3e
       0.08107473 0.17958342 -0.47116604 0.37479448
000270 d0 b2 a1 3d dd 4d ee be a2 e9 23 3e f5 70 a2 3e
       0.07895434 -0.4654378 0.16007093 0.31726804
000280 00 48 3f 3e 14 db d0 3e 73 8a 2b 3c 6c 4e d4 be
       0.1867981 0.40792143 0.010470021 -0.4146608
000290 13 bf 96 ba b2 dd b9 3e 30 90 75 be 1a 7c 5a 3e
       -0.0011501036 0.36301953 -0.23980784 0.21336403
0002a0 fb 1a ec 3d 70 99 a5 bd b6 8d 63 3b 17 e5 59 3e
       0.115285836 -0.080859065 0.0034721917 0.21278797
0002b0 c6 23 af be db 9e a1 3e e9 39 ad 3e 29 2a 8f 3e
       -0.3420698 0.3156651 0.33833244 0.27961853
0002c0 aa 8d ff 3e cb 6e b5 bc 15 d0 b4 be 8d 38 bd 3c
       0.4991277 -0.022147557 -0.35315004 0.023098255
0002d0 84 e7 14 be 00 cc 34 3e aa 38 d8 3e b0 0d 8c be
       -0.14541441 0.17655945 0.4223073 -0.27354193
0002e0 68 07 ac 3c e2 cc f8 3e b0 76 cc be 9b a9 ae bd
       0.020999625 0.48593813 -0.399343 -0.085284434
0002f0 5d 52 f8 3e 2e db b2 3e b7 b9 14 3e 98 a2 5c be
       0.48500338 0.34932846 0.1452397 -0.215464
000300 ca af 3e bd 5f 3b e5 be bc f2 f0 be 71 6d ef be
       -0.046554364 -0.4477186 -0.47060192 -0.46763185
000310 26 10 f6 3e 1e 40 ca 3e 11 ed 4a 3e 72 c8 00 be
       0.48059195 0.39502043 0.19816996 -0.12576464
000320 c0 25 dc 3e 3d 64 07 be a5 9e b1 3e 45 d6 85 bc
       0.4299755 -0.13221832 0.3469135 -0.016337523
000330 8a cc 70 be c9 6d 0e be 37 2c da bd 94 11 ea be
       -0.23515525 -0.13909067 -0.106529646 -0.45716536
000340 5f 04 19 3e 86 d9 1b be f3 19 6b 3e 83 32 a3 3e
       0.14943074 -0.15219697 0.22959118 0.31874475
000350 2a 83 a2 bd f0 1a 78 3e e6 53 cc 3d e0 b2 ab 3e
       -0.07935174 0.24229026 0.0997694 0.33534908
000360 12 f6 a4 be e6 34 34 bd 1b 6d 2a be d3 42 e0 3e
       -0.32218987 -0.04399576 -0.16643183 0.43800983
000370 d5 8b e5 be e3 b5 8f be 08 2b 66 3d ae 03 e3 3e
       -0.44833246 -0.28068456 0.05619338 0.44338745
000380 fa 1e ad 3e 12 65 ef be 9f db b3 be 3e 1f f8 3e
       0.33812696 -0.46756798 -0.35128495 0.48461336
000390 11 62 95 3d 84 11 db be e3 3b 21 be d2 aa 60 3e
       0.07294095 -0.427868 -0.15745501 0.21940163
0003a0 a8 41 d6 bd f5 a2 c4 be 0a f8 9d be 99 56 84 be
       -0.10461742 -0.38405576 -0.308533 -0.2584732
0003b0 18 a9 a2 bc bd 5a 48 3e cb 50 75 3e 9d cb 78 be
       -0.01985602 0.19565864 0.23956601 -0.24296422
0003c0 4c f3 ab bd be b3 c5 be 6f 8b c1 3e f8 17 ff 3e
       -0.083960146 -0.38613695 0.37801692 0.49822974
0003d0 8b cf f8 3e c8 de 50 3e f6 a2 d9 bd ec 8b 4e bc
       0.48595843 0.20397484 -0.106267855 -0.012606602
0003e0 25 9f 38 3e 89 fe dd be 61 3e fd 3c bb f6 cf be
       0.18029459 -0.43358257 0.030913534 -0.40617928
0003f0 d6 e9 ff be 1f e6 87 bc 04 c8 22 be 95 2f a2 be
       -0.4998309 -0.016589222 -0.15896612 -0.31676927

layers.0.bias f4 [256]
000000 5f 63 07 bf f8 25 fd 3e 37 03 d0 3e 96 ef 31 bf
       -0.52886003 0.4944303 0.40627453 -0.69506204
000010 e4 02 0e bf 0b c8 ee be eb 33 c4 be 3e cf b4 3d
       -0.5547316 -0.46636996 -0.3832086 0.08828591
000020 d0 e9 32 bf 3f 18 06 bf a1 8c a5 3e d3 f2 6c be
       -0.6988802 -0.52380747 0.32333854 -0.23139505
000030 da e8 8f be a6 af 15 bf 6e d0 92 3e af 6a 4c 3d
       -0.2810734 -0.58471143 0.28674644 0.04990643
000040 49 0b 8c be b9 80 dd be 2c e1 19 3e a8 19 45 3e
       -0.2735236 -0.4326227 0.15027303 0.19248068
000050 b1 cc a0 3e 12 8e 57 3e 76 b5 dd bd 69 04 0c bf
       0.31406167 0.2105029 -0.108256266 -0.5469423
000060 d0 66 e6 3e 5d 71 b6 bb e9 92 f0 be 47 ff 1b 3f
       0.45000315 -0.005567713 -0.46987084 0.609364
000070 ab 00 ca 3e a9 2e 0e bf 86 a2 b4 be 75 4a 76 be
       0.39453635 -0.5553995 -0.35280246 -0.2405184
000080 4b e5 d0 be a2 75 a9 3e 7a ff 00 bf e8 50 28 3f
       -0.40799937 0.3309756 -0.50389826 0.65748453
000090 58 8b 95 be 4f 94 d5 3e 6e ad c5 3c 4b 21 9f be
       -0.29207873 0.41714713 0.02413055 -0.31080088
0000a0 26 97 f1 3e de 13 0a bf 89 af bf be 58 25 ad 3d
       0.4718563 -0.53936565 -0.3743861 0.084543884
0000b0 f7 7f 0f 3f 7f 0b 9b be 5f 22 dc be 98 f5 e6 be
       0.56054634 -0.30282208 -0.42994973 -0.45109248
0000c0 5f ba 9f be 74 dd 79 be 33 50 29 be 2e 15 ce be
       -0.31196877 -0.24400884 -0.165345 -0.40250534
0000d0 07 b2 62 3e 7d ff ae 3b 33 67 ec be 9c df ce be
       0.22138225 0.005340515 -0.46172485 -0.40404975
0000e0 64 d5 18 3e a4 ed 24 bc 21 1f 00 3f d5 82 db bd
       0.14925152 -0.010066424 0.500475 -0.107183136
0000f0 99 9a 12 bf ea c0 05 bf c7 bb 54 be c6 1f 20 be
       -0.5726715 -0.5224749 -0.20774756 -0.1563712
000100 67 4e a5 3d 92 d4 22 be 55 a9 85 3e e3 73 71 be
       0.08071595 -0.15901402 0.26105753 -0.23579364
000110 ef f4 04 3f 94 12 26 3e 9f b9 5e be 41 62 21 3f
       0.5193624 0.16218024 -0.21750496 0.6304055
000120 8e 05 39 3e 04 08 f6 be 15 63 c9 be 3e 04 e3 3e
       0.18068525 -0.4805299 -0.39333406 0.44339174
000130 49 8f a5 3e 46 56 0d 3f 80 4d 5f bd a1 14 fd 3e
       0.3233588 0.5520977 -0.05451727 0.494298
000140 71 05 b4 3e 64 0d 60 3e 27 55 27 be 81 78 2e 3f
       0.351604 0.21880108 -0.16341077 0.68152624
000150 26 75 12 3e b3 21 3a be 58 c4 24 bc 77 25 32 3f
       0.14302501 -0.18176918 -0.010056578 0.69588417
000160 5b 20 f3 3e c2 19 57 bd 9b 7d 31 3f 7d 17 9f 3e
       0.47485623 -0.0525148 0.69332284 0.31072608
000170 1a e3 c0 be a1 c3 24 bf c1 3c d2 3e 64 c5 29 3f
       -0.37673265 -0.64361006 0.41061977 0.6631682
000180 06 d9 d2 be 95 6e 94 3e 5b 21 f5 3c 44 86 1a be
       -0.411812 0.28990617 0.029923132 -0.15090281
000190 c5 6c 44 be 1d 73 49 3e 5a 71 1f 3e c0 8a f4 3e
       -0.19182117 0.19672818 0.15570584 0.47762108
0001a0 d2 b7 84 3e 4a bf a4 3e 91 b5 1f 3f 38 9e 61 3e
       0.25921494 0.32177192 0.62386423 0.22033012
0001b0 bc 28 d6 3d a4 ce 83 be b2 ba 04 3f fa e2 d6 3d
       0.10456988 -0.25743592 0.51847374 0.10492511
0001c0 67 2a e9 3e d2 a2 2e 3f 04 f0 21 be ce a1 fe 3e
       0.45540163 0.68217194 -0.15814215 0.49732822
0001d0 c4 31 12 be b0 3f 23 3f b6 9d 0e 3f 1e 98 81 be
       -0.14276797 0.63769054 0.557094 -0.2531137
0001e0 c2 42 cf 3c 9b 22 9e be 27 25 92 be 4e b2 11 be
       0.025300387 -0.30885777 -0.2854397 -0.14228174
0001f0 89 36 86 bb 97 14 7c be ec ea 2a bf 62 f6 da be
       -0.0040958566 -0.2461723 -0.6676471 -0.427661
000200 13 85 77 bd b7 e2 66 be 96 60 06 3f 4e 34 13 3f
       -0.060429644 -0.22547422 0.5249113 0.57501686
000210 e2 d0 e6 3e 54 49 a0 3e 24 9a 0f bf 11 d0 2a 3f
       0.4508124 0.31305945 -0.56094575 0.66723734
000220 ab 8f 1f bf 81 25 6e be d8 93 fe be 39 3c 82 3e
       -0.62328595 -0.23256494 -0.4972217 0.2543657
000230 cf 92 16 bf a4 b6 b2 be e0 cb e5 be 23 66 de be
       -0.5881776 -0.3490497 -0.44882107 -0.434373
000240 78 04 a9 be 0b e1 31 3f 59 43 6e bd 88 27 5c 3e
       -0.33011222 0.69484013 -0.058169696 0.21499455
000250 0d ba 33 bf b1 c8 20 3f e6 d2 1d be 65 1d 26 bf
       -0.70205766 0.6280623 -0.15412483 -0.648886
000260 bc 83 f9 3e 56 16 44 be 88 42 24 3f cd d6 f5 be
       0.48733318 -0.19149145 0.6416402 -0.48015442
000270 6a 09 28 bf b3 d4 07 bf 61 ef 9c 3e 78 ce a1 bd
       -0.65639365 -0.5305893 0.30651382 -0.07900709
000280 be b0 27 bf 8b 8b 06 3e 3a cd 38 bd 30 2c 83 3e
       -0.6550406 0.13139169 -0.045117594 0.2561965
000290 81 56 b8 be e5 2e 01 bf 56 d6 f6 3e b2 3a ae be
       -0.36003497 -0.5046218 0.482104 -0.34029156
0002a0 b2 cd fe 3e f5 b4 12 3f e7 b8 fc be 28 fc a6 be
       0.49766308 0.5730737 -0.4935982 -0.32614255
0002b0 9a 79 ae 3d 20 c1 2a bf 92 ec 5d 3e ea 08 97 be
       0.085192874 -0.66700935 0.21672276 -0.29498988
0002c0 eb a6 a0 be cf da 0b bf b7 30 a9 3e e8 a9 e6 be
       -0.31377348 -0.5463075 0.3304498 -0.45051503
0002d0 64 b4 10 bf 26 37 3e be 7e e8 c9 be ab 12 30 bf
       -0.56525254 -0.18575725 -0.3943519 -0.68778485
0002e0 95 ed 91 3e 23 ef 89 be 94 a1 fd 3e 66 d8 fe 3e
       0.28501573 -0.2694026 0.49537337 0.49774474
0002f0 90 04 e7 be 47 19 d3 be ad 7d 80 be 56 da d3 3e
       -0.45120668 -0.41230223 -0.25095883 0.41377515
000300 a6 f4 c6 bc cd b2 81 be ee 9a e0 3e 55 b3 2b 3f
       -0.02428658 -0.25331727 0.43868202 0.67070514
000310 88 c4 05 3f 58 5c 0a bf 10 50 16 be 4e 23 0b be
       0.5225301 -0.54047155 -0.14678979 -0.13587686
000320 61 7c 1a 3f 21 37 bb be 85 58 cf be 7a c8 38 3c
       0.6034604 -0.36565498 -0.40497223 0.011278266
000330 50 98 28 be 9c 27 89 3e d1 b5 b0 3d 11 00 d8 be
       -0.16464353 0.26788032 0.08628429 -0.4218755
000340 38 b7 03 3f 09 84 e1 3e 46 83 1e 3e 24 b2 23 bf
       0.51451445 0.44046047 0.15479764 -0.63943696
000350 12 13 aa 3e 8a 7a f0 3e b8 a7 49 3e 68 f8 8b be
       0.33217674 0.4696849 0.19692886 -0.27337956
000360 73 ba 40 3d 71 65 8b be 31 79 2a 3f 83 d8 2e 3f
       0.04705281 -0.2722583 0.66591173 0.6829912
000370 35 0c a9 bd 2f 99 f3 be 58 ea d4 3e ad f6 b8 3e
       -0.082542814 -0.47577807 0.4158504 0.361257
000380 9e 25 c0 3e 61 18 08 bf 19 86 75 3e 23 bf 9a be
       0.375287 -0.531622 0.23976935 -0.3022395
000390 e2 12 1f bf c4 d2 fc be 58 7e 99 3e 91 c9 87 3e
       -0.6213819 -0.4937955 0.29979205 0.2652097
0003a0 c7 dd 1e bf 5b 50 cd 3e 12 c2 0a 3f 54 5d 09 3f
       -0.62057155 0.4010037 0.5420238 0.5365803
0003b0 72 8c cc 3e ac cb e3 bd 3c 99 f2 3e de ba 0d 3f
       0.399509 -0.11122832 0.47382534 0.5536326
0003c0 64 db bc 3e 23 35 02 bf 3f 52 7c be f7 5d 0f 3f
       0.36886132 -0.5086233 -0.2464075 0.56002754
0003d0 c2 e9 09 3f c5 54 e7 3e bf 62 97 be 1f 8a 0f be
       0.5387231 0.45181862 -0.29567525 -0.14017533
0003e0 7d da 06 bf 2a 4b ce be 3e 0b 0b 3f 5a 9c 14 bf
       -0.52677137 -0.4029172 0.5431403 -0.58051074
0003f0 02 f1 32 be 0e d1 19 3e cf 64 d9 be 27 c3 28 3e
       -0.1747475 0.15021154 -0.42459723 0.16480695

layers.1.weight f4 [256, 256]
000000 cb f2 99 3b 67 da 05 ba de ff 65 bb 4c 7e 90 3b
       0.0046981326 -0.0005106092 -0.0035095136 0.004409587
000010 dc 7e b3 ba 77 08 b2 ba ba 48 70 3b 5b f6 bd ba
       -0.0013694423 -0.0013582845 0.0036664442 -0.0014492975
000020 8c 01 9e b9 07 03 87 bb e1 2d 4f bb b9 6f 58 3b
       -0.0003013726 -0.004120234 -0.003161304 0.0033025576
000030 16 62 83 3b a4 67 b7 39 ff f6 0e b8 69 79 80 3b
       0.0040094955 0.00034981698 -3.408547e-05 0.003920723
000040 3a c1 0d ba aa 29 3f bb b2 ed e3 ba b8 19 73 3b
       -0.0005407516 -0.002916912 -0.0017389564 0.0037094187
000050 72 83 2e 3b 03 6c 45 3b d0 fc 6a ba 35 ca e3 3a
       0.002662864 0.0030124194 -0.00089640636 0.0017378988
000060 ae 68 1e 3b f8 8a bc 3a 0b 37 93 3b b6 eb 7e 39
       0.002417128 0.0014384678 0.0044926456 0.00024311137
000070 c6 9b 84 39 7d e2 21 bb 23 48 27 ba 2e 3d fd 3a
       0.00025293062 -0.0024701648 -0.00063812936 0.0019320601
000080 4b f3 8a 3b eb 4a 5d 3b ef ba 90 38 40 18 05 bb
       0.0042404286 0.0033766578 6.901274e-05 -0.0020308644
000090 97 6d 5a bb 7e 22 db 3a 8f 62 c6 ba 3e 32 f5 3a
       -0.003332948 0.0016718653 -0.0015135574 0.001870699
0000a0 d1 a6 e1 ba cc c5 3f b9 38 8a 7b 3b 27 b8 f0 3a
       -0.0017215853 -0.00018288865 0.0038381945 0.0018365429
0000b0 fc 82 69 3b 9b 87 41 3b 22 29 2a bb a5 1f 19 bb
       0.0035631051 0.002953029 -0.0025964458 -0.002336481
0000c0 70 e5 a4 3a 9b de 0f 3b ac 73 19 b9 cd 28 30 ba
       0.0012580585 0.0021952752 -0.00014634308 -0.0006719947
0000d0 15 54 30 3b a0 7b 0d bb b5 99 58 bb 40 91 1a 39
       0.0026905586 -0.0021588579 -0.00330506 0.00014740694
0000e0 bf 1d 40 3b 48 0e 24 bb 27 84 89 ba 00 6f 27 3b
       0.0029314605 -0.0025032926 -0.0010491655 0.002554834
0000f0 e6 e6 27 bb b5 89 b1 ba 4f ee 92 3a 4d d8 2a 3b
       -0.0025619804 -0.0013545068 0.0011209938 0.0026068867
000100 15 15 87 3b b5 a7 87 3b d7 86 12 39 50 f0 bf ba
       0.004122386 0.0041398653 0.00013973877 -0.0014643762
000110 30 10 67 3b b9 44 2c 3a 96 45 92 3b 3f e3 1d 3b
       0.0035257451 0.000657152 0.0044638617 0.0024091748
000120 c6 81 3d bb 41 2b 50 bb 12 44 5d 39 1f 73 57 bb
       -0.0028916462 -0.0031764063 0.0002110156 -0.0032875014
000130 f9 80 07 ba fe 76 02 3b de 81 2f 3a 5a 65 78 3b
       -0.000516906 0.001990735 0.0006695072 0.0037902207
000140 9d fb 19 3b 40 a5 0b 3b b5 cb 92 3b 3b 0b f4 ba
       0.002349592 0.0021308213 0.00447985 -0.001861907
000150 6d 96 88 bb 4d 85 35 b7 57 e1 00 3b d0 54 58 3a
       -0.004168323 -1.0819477e-05 0.0019665563 0.0008252384
000160 ed 3c a4 b9 11 77 2d bb bb 3c 32 bb c1 db 21 ba
       -0.0003132591 -0.0026468674 -0.0027196843 -0.00061744085
000170 42 56 86 3b 21 36 99 3b 30 ed 8b 3a 1b 83 f5 ba
       0.004099638 0.004675642 0.0010675546 -0.0018731089
000180 7a d0 54 bb c2 b2 89 bb 43 95 7c 3b 09 be bd b9
       -0.0032472895 -0.004202218 0.0038541115 -0.00036190476
000190 46 7d 11 bb 5e 94 59 bb 46 2b 81 3b f9 4a 8c 3b
       -0.0022199913 -0.0033200006 0.003941926 0.0042813984
0001a0 b4 d6 b7 ba cf 77 7c ba 5f 6f fd ba 57 11 41 bb
       -0.0014025779 -0.000963089 -0.0019335559 -0.0029459798
0001b0 bf 02 af ba 01 71 04 3b 1c 1d 01 3a 0a e2 b3 3a
       -0.0013352259 0.0020208957 0.0004925297 0.0013723981
0001c0 ae 34 20 bb 18 99 eb 39 62 16 44 3a da 35 48 bb
       -0.0024445462 0.00044936757 0.0007480142 -0.0030549676
0001d0 e0 4e 3b 3b 7f 74 6f bb 7a 4d 67 ba 55 99 80 3b
       0.0028580949 -0.0036537943 -0.00088234956 0.0039245286
0001e0 df a5 14 3b 58 4a 34 ba 33 16 44 3a 8a 4a 42 bb
       0.0022681875 -0.0006877533 0.00074801146 -0.002964648
0001f0 5f 10 3e 3b b1 68 7f 3b 0d 69 a8 ba 0d dc 8c bb
       0.0029001457 0.0038972313 -0.001284869 -0.004298693
000200 4e ed 5b 3b d6 ed 39 bb 46 78 be ba 5e 26 d8 39
       0.0033558193 -0.002837052 -0.0014531694 0.00041227316
000210 92 78 98 ba 03 83 79 bb 25 dc 13 3b 9d 3b d1 38
       -0.0011632612 -0.0038072474 0.0022561636 9.9770004e-05
000220 aa bf 61 3b 12 48 83 bb 21 4f 85 3b 95 94 a6 ba
       0.0034446516 -0.004006394 0.004068271 -0.0012709076
000230 03 ad 46 3b c1 9b 49 bb 3f a9 d0 b9 6f bc 53 bb
       0.0030315525 -0.0030763003 -0.0003979895 -0.003230836
000240 3d 45 81 3b db 5c 62 ba 5a 19 b2 3a d9 99 85 39
       0.0039450214 -0.00086350524 0.0013587878 0.00025482362
000250 34 7d 8d bb ca 42 0b bb aa bf 34 ba 57 09 08 bb
       -0.004317904 -0.0021249526 -0.0006895015 -0.002075752
000260 42 6e 2e bb 84 e2 1a 3b 3e 52 6d 3b bf bd 87 3a
       -0.0026616012 0.002363355 0.003621235 0.0010356231
000270 f3 a7 3b bb 06 0e 5b 3b 43 68 80 3a f8 81 95 3b
       -0.002863404 0.0033425107 0.0009796697 0.0045626126
000280 eb 09 27 bb b0 87 81 b8 3a 2a af b9 98 e0 21 ba
       -0.002548809 -6.176473e-05 -0.00033410062 -0.00061751297
000290 70 48 8b 3b f9 c9 4f 3a 2e b4 f5 3a df ce 18 3b
       0.0042505786 0.00079265196 0.0018745714 0.0023316664
0002a0 a7 8b 2d bb 33 e9 07 3b bc 4c f8 ba 22 25 e0 ba
       -0.0026480944 0.0020738363 -0.0018943767 -0.001710091
0002b0 3c 3a 4a bb 3f 1a 61 bb 34 1d 45 bb 78 84 03 3a
       -0.0030857464 -0.003434792 -0.003007722 0.0005016993
0002c0 d4 10 89 3a 56 aa 48 3b 42 b5 df 39 e3 84 ee 3a
       0.0010457286 0.0030619106 0.00042668922 0.0018197562
0002d0 c2 93 64 3b e4 cc b2 3a ce 76 91 bb ca 4e 2e 3a
       0.003487811 0.0013641384 -0.0044392115 0.0006649314
0002e0 07 b1 a4 ba 5a 62 85 bb 31 dd cb ba 19 9b 07 ba
       -0.0012564965 -0.0040705623 -0.0015553591 -0.00051729527
0002f0 19 68 4f bb 89 eb 62 bb 05 08 14 bb ee a4 10 3b
       -0.003164774 -0.0034625253 -0.0022587788 0.0022070962
000300 c5 51 89 3b e9 ae 71 3a c7 f5 6e 3b a9 ed 76 3b
       0.004190656 0.0009219484 0.0036462413 0.0037678278
000310 a5 45 24 bb 8a 2d cf 3a 81 00 b1 3a 4c 8e 55 3b
       -0.0025065925 0.0015806418 0.0013504178 0.0032586036
000320 bb 9f 0c ba ed 22 84 3b da 49 17 3a 2e 32 7a bb
       -0.0005364378 0.004032484 0.00057711976 -0.0038176882
000330 a4 80 8b ba a8 3f 36 3b b9 98 7f bb 40 f8 b1 3a
       -0.0010643196 0.0027808938 -0.0039000942 0.0013578013
000340 b2 09 83 3b 31 96 25 bb b4 c8 e1 ba 03 f1 43 38
       0.0039989585 -0.0025266523 -0.0017225952 4.6716083e-05
000350 b7 15 02 ba fa 07 98 3b 68 f3 15 3b 92 94 88 ba
       -0.0004962342 0.0046396228 0.0022880677 -0.0010420254
000360 bc 11 d4 ba 8e 1c e5 ba 72 43 5a 3b 38 72 12 3b
       -0.0016179602 -0.0017479823 0.003330436 0.0022345912
000370 c0 3d 20 bb f3 77 9f 38 a9 db 97 ba 18 d2 6a bb
       -0.0024450868 7.604053e-05 -0.001158585 -0.0035830792
000380 f2 04 19 3b be d5 76 36 d0 f0 91 3b ca 88 60 3b
       0.0023348895 3.678127e-06 0.004453756 0.003426122
000390 f9 8d 33 ba bc 5d 87 ba 58 49 6f b9 89 c8 63 3b
       -0.00068494637 -0.0010327618 -0.00022820139 0.003475698
0003a0 46 0e 8f bb c1 4d 66 3b 67 34 84 ba 2e 39 63 3b
       -0.004365715 0.003514156 -0.0010086418 0.0034671533
0003b0 36 3f 84 bb d5 d7 6c 3b 60 04 a7 ba 99 1e 31 3b
       -0.0040358556 0.0036139388 -0.0012742393 0.0027026294
0003c0 e8 ae 39 bb 7b f2 03 b8 b4 ec bf ba 10 8c f3 ba
       -0.0028333012 -3.145866e-05 -0.0014642687 -0.0018581171
0003d0 55 fa 57 bb f2 bf 69 bb a5 f6 82 ba 75 c7 61 bb
       -0.0032955606 -0.0035667387 -0.0009991719 -0.003445116
0003e0 35 c2 a4 3b 85 39 40 bb e4 f3 37 3b 07 30 04 3b
       0.005028034 -0.002933116 0.0028068954 0.0020170228
0003f0 c9 e0 13 bb 32 ab 84 3a b8 a8 9f 3b f8 fa 46 b9
       -0.0022564402 0.0010121821 0.0048724078 -0.00018976245

layers.1.bias f4 [256]
000000 6b a4 52 3d 17 6f 14 bd 80 10 30 3b 9a 58 73 3d
       0.051426332 -0.036238756 0.0026865304 0.05941067
000010 3a f1 31 3d fa 08 02 bc 74 62 26 bd b4 11 6f bd
       0.043442942 -0.0079367105 -0.040621236 -0.058366492
000020 b8 be a5 bc 0b 1f 5e 3d da b5 14 3c 7c 69 10 bd
       -0.020232543 0.054228824 0.00907656 -0.035256848
000030 c5 0e 65 ba 31 a8 f5 3b 43 0b c9 3c af 62 37 3d
       -0.00087378576 0.0074968566 0.024541503 0.044771846
000040 3f 75 72 3d 33 b5 60 bc 29 29 53 3c fc 8e 1c 3d
       0.059193846 -0.013715076 0.012888231 0.038222298
000050 e5 0a 35 bc 22 05 85 3c 0e dd 50 bd 5e 1c 08 3b
       -0.011049961 0.0162378 -0.050992064 0.0020768861
000060 24 64 2a bb 9f 05 e4 3c 19 9b b4 3c ae da 50 3d
       -0.002599963 0.027834712 0.022046613 0.0509898
000070 fd bd 60 3d f8 36 58 3d 4f fd 14 3d 59 94 07 bd
       0.054868687 0.052786797 0.036374386 -0.03310046
000080 19 51 3d 3d c5 47 bd 3c a1 ec 7d bd fd 90 15 3d
       0.04621992 0.023105511 -0.061993245 0.036515225
000090 c9 70 b3 bb 12 52 31 bc 8f 1e 16 bc 77 2b 2b bd
       -0.0054760915 -0.01082279 -0.009162559 -0.0417895
0000a0 32 c1 29 3c 9b cc bf 3b 29 bc 00 bd 5e 05 d8 3c
       0.010361003 0.0058532483 -0.031429444 0.026369747
0000b0 89 32 43 3d bc b0 cc bc 6d 4e 1a 3b 33 20 3a bc
       0.047655616 -0.024986617 0.002354528 -0.011360216
0000c0 b4 8f 17 3d a2 31 17 3d d9 bf 73 bd 5f 24 5f bd
       0.03700228 0.036912568 -0.059509132 -0.054478046
0000d0 8d a5 0b 3b 3b a4 9e bc b0 2e 09 bd 35 46 fb bc
       0.0021308393 -0.01936542 -0.03349179 -0.030673126
0000e0 0b e6 b0 3c e2 ee 52 3d 89 33 55 bd cf ea a0 bc
       0.021594068 0.051497348 -0.0520511 -0.019643215
0000f0 8c ad 96 bc 48 cc f7 bc 16 6c 47 bc 9f d4 fd 3b
       -0.0183933 -0.030248776 -0.012171766 0.0077462937
000100 18 22 83 bc 46 1f 3e bc 52 0f af 3c 6d 85 5c 3b
       -0.016007468 -0.011604136 0.02136961 0.0033648864
000110 49 f9 c4 3c 09 d2 32 3d ec d4 f1 bc 85 4d 22 bd
       0.02404465 0.043657336 -0.029520474 -0.03962471
000120 71 e9 c4 bc 03 fd 3b bd 2f 5d 28 bd f9 b4 53 bc
       -0.024037095 -0.045895588 -0.04110449 -0.012921565
000130 44 76 5d ba 4c f4 26 bd 4b ee b4 3c 66 49 4e 3d
       -0.0008448104 -0.040760323 0.022086283 0.050362967
000140 7b ad 7a bd 5a 59 38 3c e5 61 cc bc f2 55 28 bd
       -0.0612006 0.011251772 -0.024949024 -0.04109759
000150 25 77 b2 3c a0 ef 72 bd e1 cf 65 bd 46 b6 0f 3c
       0.021785328 -0.059310555 -0.056106452 0.008771485
000160 1f a1 82 bc f7 4f 75 bc ac e3 71 3d 39 51 af bc
       -0.01594597 -0.014972678 0.059055015 -0.021401035
000170 32 65 fd 3c 5d 7f a8 3c d2 7f 40 3d 1a 8e 29 3d
       0.030932043 0.020568544 0.0469969 0.041395284
000180 68 16 aa bc 8a d0 98 3c 83 5a 4d 3d 6c 13 55 3c
       -0.020762637 0.018654127 0.050135147 0.013005119
000190 89 a1 8a 3c e2 95 32 bc 7a 0d 36 bd e7 d3 19 bc
       0.01692273 -0.010899993 -0.044446446 -0.0093889
0001a0 dc 01 51 bd 15 43 71 3d b7 6a 64 3d 8f 5a 1d 3a
       -0.051027164 0.058901865 0.055765834 0.0006002569
0001b0 65 64 95 bc 8e ee 0d bd a4 8e 9f bc 81 88 15 bc
       -0.018236348 -0.03465133 -0.019477196 -0.009126783
0001c0 c2 13 67 bc cd b5 76 3d c4 f4 11 bd 0f 0d 2b 3d
       -0.014103832 0.060231972 -0.035633817 0.0417605
0001d0 9b 3d 8e bc d1 54 3b bd 65 11 77 3c a5 d9 15 3c
       -0.01736336 -0.045735184 0.015079831 0.009146129
0001e0 5c f3 61 3d e9 51 6f bd 7b 68 b7 3b 94 31 4c bd
       0.055163726 -0.058427725 0.005597172 -0.04985197
0001f0 0f 3d 14 bc a5 9a 83 bb 6b 50 76 bd c7 58 c3 bc
       -0.009047761 -0.004016238 -0.060135286 -0.023846043
000200 af 6f c2 bc 95 36 75 3d 75 c7 a2 bc 58 dc a7 bc
       -0.023734896 0.059866507 -0.0198705 -0.02049081
000210 e2 cf 23 3d 6d f2 40 3d dd a0 39 3d 7f 07 40 bc
       0.039993174 0.047106195 0.045319427 -0.011720537
000220 94 3c 04 bd c6 7b 46 bd 2f 09 46 bd e6 6a f7 bb
       -0.032284334 -0.048457883 -0.048348602 -0.007550585
000230 55 f5 7c 3d 85 d2 63 ba 8f a6 2c bc af 22 67 3c
       0.061757404 -0.00086907326 -0.010537758 0.01410739
000240 52 e2 f2 3c 9a 3f 61 bc d0 02 45 3d e6 88 f1 3c
       0.029648934 -0.013748074 0.048098385 0.029484224
000250 43 97 85 39 7e 5c ef 3c 53 bb 1f bd 67 aa d8 bb
       0.00025480436 0.029218908 -0.038997006 -0.0066121104
000260 ec 18 d5 3c b4 09 b8 3c 25 eb a6 ba 6d b8 a0 bc
       0.02601286 0.022465564 -0.0012734873 -0.019619191
000270 e3 2e 18 3c de 3f 21 ba c7 5e 7b bd 40 59 4f 3d
       0.009288522 -0.00061511796 -0.061369684 0.050622225
000280 02 b2 05 bd 32 5d 38 3d 59 db 15 3d 7b 5a cb bc
       -0.032640465 0.045010753 0.03658614 -0.024823418
000290 67 48 b0 3b 16 bf c5 bc c8 cc dd 3c c3 58 f7 39
       0.005379725 -0.024138968 0.027075186 0.00047177644
0002a0 83 21 4c 3d f3 52 14 bd 40 f9 63 3d 2f b2 eb 3c
       0.049836647 -0.03621192 0.055657625 0.028771488
0002b0 7e 31 7f 3d 4d f2 84 3c b4 da 37 3c 7a 9b 33 3d
       0.06230306 0.01622882 0.0112215765 0.043849446
0002c0 92 12 76 bd 8e dd 1a 3c 1c 7c ab 3c e9 6a 4d bd
       -0.060076304 0.009452237 0.020933203 -0.050150786
0002d0 fa cb 26 bd 7c 3d 7a bc a6 02 f7 bc a9 03 61 3d
       -0.04072187 -0.015273448 -0.03015263 0.05493513
0002e0 2f 98 ba 3c 3a fb 63 bc 7b 54 29 3a 88 6a 7c bd
       0.022777645 -0.013914878 0.0006459427 -0.061625034
0002f0 67 51 83 bc f4 e2 08 3d 07 7d a0 39 ce ce 88 3b
       -0.016030027 0.033419564 0.0003061073 0.0041750437
000300 5b b8 13 3b d7 7a 2e 3c 34 21 1d 3c d5 aa 28 3c
       0.0022540304 0.0106494045 0.009590436 0.010294636
000310 90 4d da 3b c9 e5 78 3d bb 1a 73 3c 41 4c 4b 3d
       0.006662078 0.060766015 0.014837916 0.04963327
000320 28 85 76 bb 4e 1f 2d 3d 5a 5d 06 3d 2a 23 a6 bc
       -0.0037615988 0.042266183 0.03280387 -0.02028044
000330 32 62 a2 bc ab 06 1e bd dd de 68 3c 71 ad 1e 3d
       -0.019822214 -0.038580578 0.014213291 0.038739625
000340 8d a6 09 bd d9 28 1c bd ef ca 02 bd 1b 85 f0 bc
       -0.0336061 -0.038124893 -0.031931814 -0.029360345
000350 97 35 20 3d 80 da 50 3d 50 cf be bc 05 5e 96 bb
       0.039113607 0.050989628 -0.023292214 -0.0045888447
000360 fc 9a 93 3c b6 73 95 bc 57 68 6e 3d f0 16 f1 bc
       0.018018238 -0.018243652 0.058204975 -0.029429883
000370 90 e3 92 bc ee 1d 42 bd 94 f9 33 bd 8c 5b 92 bb
       -0.017930776 -0.047391824 -0.043939188 -0.0044664796
000380 ba d7 77 bd 66 4b 77 bd 80 23 8f 3b 3c 12 41 bd
       -0.060508467 -0.06037464 0.0043682456 -0.04713653
000390 af c1 14 3d 9d 66 4e bd 03 09 7a 3d a4 c0 a3 3a
       0.036317524 -0.05039083 0.06104375 0.0012493324
0003a0 2e 9a dd 3c 46 eb a2 bb c9 33 9a 3c 55 59 93 b9
       0.027051058 -0.0049718944 0.018823521 -0.00028104582
0003b0 8a 4a 61 bd 51 8d 7d 3d 88 e2 b8 bb b2 7a ee 3c
       -0.055002727 0.061902348 -0.005642239 0.02911124
0003c0 75 64 e2 bc a6 58 26 3c b0 b9 8b 3c 09 d1 72 3d
       -0.027635792 0.010152971 0.017056316 0.059281383
0003d0 1f 6c 6e bd bf f2 79 3d 3c eb 6c 3b d6 36 95 bc
       -0.05820858 0.061022516 0.0036150953 -0.018214624
0003e0 ab 23 f6 3b 68 73 6c 3d 45 88 fc 3b 9e b9 98 bc
       0.007511576 0.057727247 0.0077066743 -0.018643197
0003f0 d8 66 80 bc 9e 1c 46 bd 1b bc 71 bd f9 99 7a 3d
       -0.01567404 -0.048367135 -0.059017282 0.061181996

layers.2.weight f4 [256, 256]
000000 53 7b e5 ba 70 b9 97 3b e0 de 84 3b bd c9 72 3b
       -0.0017508067 0.00463026 0.004054889 0.0037046515
000010 fb 43 66 bb 71 62 92 bb ab 60 8d bb ec 91 94 3a
       -0.0035135734 -0.0044673015 -0.0043145022 0.0011334992
000020 e5 1e 20 3b d4 ae 7f bb 23 aa 02 bb 85 d0 85 bb
       0.0024432477 -0.0039014118 -0.0019937835 -0.0040836954
000030 72 92 80 3a 4f 53 00 3b 9c af 81 3b 55 6c 0f 3b
       0.0009809269 0.0019580906 0.003957702 0.002188464
000040 b9 1e 81 bb 41 7b 9c 39 99 1e 04 bb af c8 73 bb
       -0.00394043 0.0002984647 -0.002015984 -0.0037198474
000050 45 e5 c7 3a c6 98 84 3b 87 5b 11 bb de f9 5f b9
       0.0015250823 0.0040465323 -0.0022179799 -0.0002136002
000060 38 b7 95 3b 02 56 0c 3b f5 52 4c 3b fc 64 87 bb
       0.0045689605 0.002141357 0.0031177376 -0.0041319113
000070 a1 13 7c 3b 36 ad 3c bb 71 9d 28 bb 0e f7 41 3a
       0.0038463848 -0.0028789765 -0.0025728608 0.000739918
000080 63 0a 39 bb 2e 09 96 bb 24 f1 48 3b b3 0a 9b bb
       -0.002823495 -0.004578731 0.003066131 -0.0047315
000090 4b 32 8c bb 66 95 92 3a b3 98 d1 ba f1 c4 61 3b
       -0.0042784563 0.001118344 -0.0015990942 0.0034449662
0000a0 b9 03 92 3b 28 db 25 bb 4f f5 83 bb f0 ba 1f 3b
       0.00445601 -0.002530763 -0.004027046 0.0024372898
0000b0 a1 37 fd 3a ba cc 03 bb 72 20 78 ba 35 78 92 bb
       0.0019318947 -0.002011104 -0.0009465284 -0.004469896
0000c0 0b d4 52 b9 63 24 05 bb 67 97 66 ba ca cb 77 3b
       -0.00020106153 -0.0020315878 -0.00087963644 0.0037810677
0000d0 51 3d 02 bb a4 3e 12 3b 9d cf 92 3b 8e 17 b5 3a
       -0.0019872973 0.0022315169 0.004480316 0.0013816224
0000e0 d4 a5 74 3b a4 4e 35 bb ec c6 14 bb 7b 73 17 bb
       0.0037330287 -0.0027665282 -0.0022701574 -0.0023109603
0000f0 b2 fb 08 ba b0 75 6a bb 87 93 50 bb 9c 0b 8d 3b
       -0.0005225494 -0.0035775714 -0.0031826214 0.0043043625
000100 57 c2 38 3b 7b 28 b9 3a df 9a 68 bb 1b fa 95 bb
       0.0028192007 0.0014126444 -0.00354927 -0.004576934
000110 50 3b 44 ba 11 1a 1c ba c0 4e 85 ba c1 cc 9e ba
       -0.0007485645 -0.0005954812 -0.0010170564 -0.0012115465
000120 99 e7 8e 3b e2 52 0b 3a a4 d3 26 bb 51 11 13 bb
       0.0043611047 0.00053147797 -0.0025455737 -0.0022440741
000130 de 39 32 bb e7 b9 32 3a e2 cb 94 3a e6 d5 30 3b
       -0.0027195136 0.0006817863 0.0011352266 0.0026982962
000140 46 58 36 b9 2b 3d 8c bb f4 31 35 3b cd 41 16 bb
       -0.00017389757 -0.0042797527 0.0027648183 -0.0022927404
000150 47 8c 61 3b df 23 93 bb e3 6a 67 3b af b7 8e bb
       0.0034415887 -0.00449036 0.0035311512 -0.004355393
000160 5e 61 50 ba ec f2 67 b9 ca de 90 bb 31 f9 10 3b
       -0.0007949079 -0.00022120372 -0.00442109 0.0022121186
000170 e3 ea 93 bb 01 d4 01 bb 53 72 46 ba 0f 0a dd ba
       -0.0045140847 -0.0019810202 -0.0007570136 -0.001686396
000180 b2 cd 9c ba 81 c8 5a bb 33 41 39 39 c5 da f2 ba
       -0.0011963157 -0.003338367 0.00017667263 -0.0018528333
000190 ea e2 52 ba 6e 5a 3a 3b 2b 20 70 bb 04 f7 1f 3b
       -0.0008044677 0.0028435248 -0.0036640267 0.0024408707
0001a0 d8 e6 8f 3a 00 53 01 bb ed a8 1f 3b db 7e 6f 3a
       0.0010978831 -0.001973331 0.0024362162 0.00091360294
0001b0 54 75 77 3b 6d 38 57 bb ac c7 4e 3b 8f e2 5d bb
       0.0037759142 -0.003284003 0.003155212 -0.0033856963
0001c0 66 26 16 ba 54 ef 86 bb d0 92 5a 39 a8 b6 26 3b
       -0.0005727768 -0.0041178856 0.00020844792 0.0025438461
0001d0 36 68 55 3b ca c6 c4 39 76 9f 3a 3b d6 6f 16 3b
       0.0032563335 0.00037532143 0.0028476394 0.0022954843
0001e0 99 04 14 3a 65 97 40 3b 16 ab 50 bb a1 5c 5a bb
       0.0005646437 0.0029387113 -0.0031840256 -0.0033319371
0001f0 a6 36 8b 39 b5 a3 73 ba cf 0b 09 bb f7 08 90 ba
       0.00026552862 -0.00092941086 -0.002091158 -0.0010989
000200 3e 65 87 bb d8 08 90 3b 44 46 3b ba e7 87 dc ba
       -0.004131942 0.0043955855 -0.0007143954 -0.001682517
000210 53 b9 b2 39 7a 0c 68 3b e3 4a 6f 39 57 8c 56 ba
       0.00034088883 0.0035407827 0.00022820714 -0.00081843644
000220 1c 06 15 bb e5 d4 c8 b9 38 51 b9 3a 03 02 45 3b
       -0.0022739237 -0.0003830559 0.0014138585 0.0030061014
000230 a8 38 37 3a c4 39 15 3b 22 74 da ba 32 33 93 3b
       0.00069893384 0.0022770027 -0.001666669 0.004492187
000240 b6 50 d4 ba d1 f0 78 bb b7 38 7d 3b 0f 61 32 39
       -0.001619837 -0.0037985335 0.003863854 0.0001701156
000250 64 2e 10 3b 2d 51 83 3b 97 a8 82 bb 45 18 01 ba
       0.0022000307 0.0040074796 -0.0039873826 -0.0004924576
000260 c9 88 38 3b ac 99 9c bb 4c c9 25 3b c0 1f 47 bb
       0.0028157702 -0.0047790613 0.0025296984 -0.0030383915
000270 23 49 c2 ba 6d 17 66 3b 03 98 75 bb 25 75 7a 3b
       -0.0014822822 0.0035109178 -0.003747464 0.0038216796
000280 54 07 28 3b f5 07 58 bb 74 5d 67 ba 3f 99 c0 3a
       0.0025639134 -0.0032963727 -0.0008825876 0.0014694108
000290 94 58 a1 ba 58 28 ea 3a 70 be 73 bb 77 a0 42 ba
       -0.0012309724 0.0017864807 -0.0037192367 -0.0007424424
0002a0 40 9e 11 38 f4 0c ba 39 d4 cf 28 bb d5 23 d2 b9
       3.4718076e-05 0.00035486335 -0.002575864 -0.00040081018
0002b0 f8 22 af 3a 86 c8 c8 ba 34 8d 7b 3b 53 8a 26 b9
       0.0013361862 -0.001531855 0.0038383724 -0.00015882523
0002c0 f5 d9 6b bb 6d e2 9e bb 5c 6d 20 3a 5f 09 ec 39
       -0.0035988067 -0.0048487694 0.00061198114 0.0004502041
0002d0 d2 a1 09 ba 77 38 2f 3b 62 27 46 bb 43 44 6f bb
       -0.00052502484 0.0026736537 -0.0030235876 -0.0036509193
0002e0 c7 9e 2d 3a 43 b3 64 bb 1b 5d 19 3b cb fe d2 b9
       0.0006623086 -0.0034896887 0.0023401442 -0.00040244157
0002f0 4a ae 87 3a 4a c3 89 bb b8 15 a7 3a 59 42 32 bb
       0.0010351625 -0.0042041885 0.0012747562 -0.002720019
000300 18 52 8c 38 cd 58 18 bb 07 7d 72 bb 8a ce b5 3a
       6.6910114e-05 -0.0023246289 -0.0037000792 0.0013870758
000310 23 f0 8e 3b ba 9e 7f ba 28 df 04 39 52 04 9c ba
       0.0043621226 -0.000975113 0.00012671633 -0.0011903143
000320 5f 14 79 3b 2e 1e 63 bb ad e0 71 39 5b 32 cf b7
       0.0038006527 -0.003465544 0.0002306725 -2.4699772e-05
000330 73 7a 83 3b 5c bd 94 3a 79 54 7d ba ad 3a b9 3a
       0.0040124 0.0011347937 -0.00096637715 0.0014131867
000340 57 99 1c bb 2e e4 58 3b 91 04 07 bb e5 80 a9 3a
       -0.0023895109 0.003309499 -0.0020602087 0.001293209
000350 35 5a 6a 3b 11 66 0d 3b de 8e bc 39 4e de b1 ba
       0.0035759334 0.002157573 0.000359646 -0.001357028
000360 35 e7 8d 3b 8b 63 83 3a 94 14 3e bb c2 68 88 3b
       0.0043305405 0.0010024173 -0.0029003965 0.0041628787
000370 c7 14 39 bb 6d 23 0d bb 6d b4 31 ba 0f e2 67 3b
       -0.0028241144 -0.0021536008 -0.00067788997 0.0035382544
000380 10 5c 7b bb ec a3 6b 3a d7 ef 69 3a 48 65 1d bb
       -0.0038354434 0.0008988965 0.00089239836 -0.0024016667
000390 90 09 0f 3b 1e e3 1f 3b d6 b2 84 bb f9 13 82 3b
       0.0021825768 0.0024396847 -0.004049639 0.003969666
0003a0 8b 4a 6c 3b b2 db f6 3a 6b 84 4c 3b 4e b6 bb b9
       0.0036055173 0.0018833785 0.0031206857 -0.00035803247
0003b0 8e ae 37 3b 4a 49 75 ba 68 70 50 3a c0 3f 8a 3b
       0.0028027627 -0.0009356929 0.000795132 0.0042190254
0003c0 be ac 09 bb d8 06 bf ba 8f 4b 80 bb 98 2d 91 b9
       -0.0021007503 -0.0014574183 -0.0039152573 -0.00027690525
0003d0 40 2c 89 bb 3c aa 49 bb 00 f6 1f 3b b7 3b bf 3a
       -0.004186183 -0.0030771634 0.0024408102 0.001458994
0003e0 92 c8 97 3b 7a 19 90 bb 25 2f 8f bb 0c 0a 47 ba
       0.004632064 -0.0043975683 -0.0043696337 -0.00075927447
0003f0 24 06 c8 3a 73 0e 5a bb f7 d7 ab 3a 41 93 38 ba
       0.0015260619 -0.0033272773 0.0013110627 -0.00070409855

layers.2.bias f4 [256]
000000 4c 27 f5 3c cd b7 15 3d 81 68 c2 bc e5 60 12 3d
       0.029925965 0.03655224 -0.023731472 0.035736937
000010 5e b9 c4 3c 84 24 9c 3c 90 1f 10 bd fa 25 a5 3b
       0.024014171 0.01906038 -0.03518635 0.0050399275
000020 a2 c1 8b 3c eb 77 34 bd ae cd 6d bd 67 44 28 3c
       0.017060105 -0.044059675 -0.05805748 0.010270215
000030 aa 4d e8 bc 9a 69 e4 3c 2c d0 b4 bc 85 b8 03 bd
       -0.028357346 0.027882386 -0.02207192 -0.032158393
000040 35 de 46 bc 59 d5 d8 3c 4f 1a 75 3d 01 29 28 bd
       -0.012137939 0.02646892 0.059839543 -0.04105473
000050 e5 f1 0d 3d 98 10 23 3d db 0a 38 3c 6f c7 d8 bb
       0.034654517 0.039810747 0.011233057 -0.006615571
000060 ad 48 4e 3c 2e 62 91 3b 8a 77 6c bd 4c a3 01 bd
       0.012590569 0.0044367528 -0.05773119 -0.031649873
000070 70 a2 d1 39 9f 8d cb bc 7a a0 27 3d d5 5c ea 3c
       0.00039984612 -0.024847804 0.040924527 0.028608719
000080 cd d8 da bc 4a a8 c8 ba d9 33 04 bd 79 16 2a 3b
       -0.026714707 -0.0015308943 -0.03227601 0.0025953336
000090 7a 87 8d 3c 26 20 75 bd 36 03 6a 3d c2 be cd 3c
       0.017276514 -0.059845112 0.05713197 0.025115374
0000a0 0b b6 1b 3d 4c 78 1f 3c 73 7d 2f 3c e7 ee 35 bd
       0.038015407 0.009733271 0.010711062 -0.04441729
0000b0 12 71 2f 3d da d9 3a 3d 7b 43 aa bb 7d 83 02 bd
       0.04283244 0.045617916 -0.0051960326 -0.03186368
0000c0 c0 fa 06 3d 28 33 38 3d 8a aa de 3b 61 3c 60 3d
       0.032953978 0.04497066 0.006795232 0.05474508
0000d0 57 64 12 3d e5 a3 a6 3c dc 16 7e bd 83 0a 1f bc
       0.035740223 0.020341823 -0.06203352 -0.009707096
0000e0 d7 9b d8 3c 79 cf 7e bd 55 43 5f 3c b8 e5 a2 3c
       0.026441498 -0.06220958 0.013626893 0.019884929
0000f0 99 bd d0 3c 39 b5 53 3d 5b 33 c1 3c ef bc 79 3c
       0.025481032 0.0516865 0.023584059 0.015242799
000100 f5 64 5a bd 2d 54 4d bd 12 4e 3b 3d 12 1e 0e 3d
       -0.053318936 -0.050129104 0.04572875 0.034696646
000110 6e b6 40 3c 7d cb be bc 65 f0 38 3d 74 df b9 bc
       0.011762245 -0.02329039 0.045151133 -0.022689559
000120 92 c4 f9 3c 8e df f4 bb 65 7d 08 3d 8a e7 b2 3c
       0.03048924 -0.007472939 0.03332271 0.021838922
000130 34 26 16 bc 82 26 ad 3c 86 94 03 bd 8c dc 12 bd
       -0.009164382 0.021136526 -0.032124065 -0.03585486
000140 89 b4 db 3c ff 48 d3 3c a8 07 1d bc 36 d3 ec 3a
       0.026819484 0.025791643 -0.009584345 0.0018068317
000150 42 ca f1 bc e6 da 37 3d 46 11 6c bc 14 98 8d 3c
       -0.02951539 0.044886492 -0.014408415 0.01728443
000160 fb e8 4d bc a5 4e 32 3d ea 19 37 bd 8f 06 29 3d
       -0.012567754 0.043532033 -0.044702448 0.04126602
000170 4a a4 7a 3d 31 ad 29 bd ef 2f 5a bd 28 20 05 3d
       0.061191835 -0.041424934 -0.05326837 0.03250137
000180 b2 22 7d 3c 35 9d 1f 3d 9c 77 29 3c cf f2 b3 3c
       0.015450167 0.038968284 0.0103434585 0.021966366
000190 8f 99 f0 bc 1a 9e 4f 3d 4a 8f 8e 3c 9d 4f b8 39
       -0.029370097 0.050687887 0.01740231 0.0003515453
0001a0 5b 30 70 bb 8b 41 54 3c b3 75 81 3c 12 61 29 3d
       -0.0036649916 0.01295508 0.015803194 0.04135234
0001b0 78 10 1c 3c e7 63 a8 bc 88 9d eb 3c 6d 52 7b 3d
       0.009525411 -0.02055545 0.02876164 0.061357904
0001c0 af e9 ea 3c 43 84 3f 3d 24 37 18 bd a7 e5 cb 3c
       0.028675882 0.046756994 -0.03716196 0.02488978
0001d0 08 a7 71 3d 87 57 2c bd e3 c0 d6 3b 27 ff 99 bc
       0.058997184 -0.04207566 0.0065537556 -0.018798424
0001e0 2c ec 3c 3c 0e da 2e 3d 70 5c 9a 3c 43 92 b0 bc
       0.011530917 0.042688422 0.018842906 -0.021554118
0001f0 90 5d 64 3d cb 09 4d bd 15 1c ce 3c c6 c8 e9 3c
       0.05575329 -0.050058167 0.025159875 0.028538119
000200 d4 89 4d 3b dd 2d 31 bd a9 62 44 3d 3e 2e 99 bb
       0.003136267 -0.04325663 0.047945652 -0.004674702
000210 52 4b f9 3b d6 7b 99 bc 1c 3c 36 3d e5 eb fb bc
       0.007607856 -0.018735807 0.04449092 -0.030752132
000220 e8 f3 51 bd 67 94 4d 3c 64 ea 8c 3b cf 13 0f bd
       -0.051257998 0.012547589 0.0043004025 -0.034931
000230 cb df a5 bc f1 9d 97 3b 64 af fd bc 4e 96 de bc
       -0.020248314 0.0046269824 -0.030967422 -0.02717128
000240 1c 0b ac bc 14 51 87 bb 70 32 45 bd 30 0c 45 3c
       -0.021001391 -0.0041295383 -0.048143804 0.0120268315
000250 d0 62 14 bd 7b fc ae 3b 57 a9 d0 3c d3 1a 9c bc
       -0.036227047 0.0053401566 0.025471373 -0.01905576
000260 0b f0 2b 3d a8 0b 63 bd 60 c9 45 3d 52 66 87 ba
       0.04197697 -0.05543104 0.04828775 -0.0010330176
000270 ce 44 6c 3c b4 1d 5a 3d ff e7 7c bd 71 bb 26 3c
       0.014420701 0.053250983 -0.061744686 0.010176525
000280 67 00 1b bc 03 f3 03 bd 05 8a de 3c 64 dc 2e 3d
       -0.009460545 -0.032214176 0.027165422 0.04269065
000290 cc b7 a8 bc cc 00 54 bc ef a2 08 3d 5f 44 6d 3c
       -0.020595454 -0.012939643 0.03335851 0.014481633
0002a0 69 ac 8c bc cd bd 33 3c aa ad 39 bd 30 17 66 3d
       -0.017172055 0.010970545 -0.045331635 0.056174457
0002b0 cb 9d b6 3c 7b 3f 2f 3d 02 bb 78 bd 0d e9 38 bd
       0.022292038 0.04278515 -0.06072522 -0.04514413
0002c0 54 d3 cb bc 86 08 42 3d ce 93 57 3c ae 67 69 3d
       -0.024881043 0.04737141 0.013157798 0.056983642
0002d0 8d 4e 46 bd e2 c5 89 b8 68 a7 15 3d 1a b7 5e 3d
       -0.048414756 -6.5695276e-05 0.036536604 0.054373838
0002e0 af 00 47 3d 7e 93 25 bd ed 40 db 3c 3b 68 15 3d
       0.048584636 -0.040423863 0.026764357 0.036476355
0002f0 df 35 f7 bc 23 52 7e bc 57 82 c2 3c d8 f3 af 3c
       -0.030177055 -0.015522513 0.023743792 0.021478578
000300 26 1c 72 3d e0 f4 4a bd fb a9 2d b9 74 be ae bc
       0.059108876 -0.049549937 -0.00016561888 -0.02133105
000310 56 02 42 bd ca e4 48 3d 05 cb 05 3d 13 47 3b 3d
       -0.04736551 0.049046315 0.032664318 0.04572208
000320 de 92 71 3c b7 60 ae 3b d8 9a 24 bd de d3 2b bd
       0.0147444885 0.005321588 -0.040186733 -0.0419501
000330 0b 95 25 3c d8 17 51 3d c4 c8 55 bc e6 96 7e 3a
       0.010106335 0.05104813 -0.013048355 0.00097118167
000340 6d 7b 0b 3d c7 22 ce 3c 2c 89 ab bc db 9c 08 3d
       0.034053255 0.025163068 -0.020939432 0.033352714
000350 dc a6 e2 3c 5e 10 23 3d 73 cd 05 3d f5 ef 1f bd
       0.027667455 0.03981053 0.032666635 -0.0390472
000360 75 2d fd 3c 38 15 4e 3d 89 56 13 3c 25 f2 1c 3d
       0.030905465 0.050313205 0.0089928 0.038316865
000370 01 e4 64 3c 7e 80 cd 3a 41 0e 15 3d a0 df 36 3d
       0.013970376 0.0015678552 0.036390547 0.04464686
000380 a1 dc 19 3d 92 e8 12 3c 39 33 ac 3c 3b 79 8e 3c
       0.037563924 0.008966582 0.021020519 0.017391792
000390 cb c8 5e bc 69 8a 63 bd 4a e4 37 bd 2b ad 3c bd
       -0.013597677 -0.05555192 -0.044895448 -0.046063583
0003a0 30 4d 54 3d 5a ef 73 bd 77 ba 70 bd 7b 60 25 bc
       0.051831424 -0.059554435 -0.058771577 -0.0100938035
0003b0 d1 5b fa 3b 38 3c 32 bd 2c 80 7b ba 94 62 5f bd
       0.00764034 -0.04351446 -0.0009593989 -0.05453737
0003c0 d4 5b 7a 3d 70 6e e9 bc 14 70 10 3d 25 d2 a4 bc
       0.06112273 -0.028495044 0.035263136 -0.020119736
0003d0 36 05 18 bd ad e7 bf bc c6 a7 38 3d 53 73 16 3c
       -0.037114345 -0.023425901 0.045081876 0.009182769
0003e0 59 d8 71 bc ef 0e 05 3d 30 97 05 bd eb 05 14 bd
       -0.014761054 0.032484945 -0.032614887 -0.036138456
0003f0 2e f4 25 bd d8 7c 55 3d 80 2a e1 ba cc f0 1d bd
       -0.04051607 0.052121013 -0.0017178804 -0.03855972
