old_figures/up2sept/19-SIREN-ncc-1e-05-2500-10000/epoch-2000.pth (torch, 534820 bytes, 8 tensors)

layers.0.weight f4 [256, 2]
0	0xbda381ab	-0.079837166
1	0x3e4ca4f6	0.19984803
2	0xbec3db9e	-0.38253492
3	0x3d8c0ef0	0.068387866
4	0xbee8eb15	-0.45491853
5	0x3e9ea30b	0.30983767
6	0x3ef856d2	0.4850374
7	0xbe366eb6	-0.1781567
8	0x3d971189	0.073763914
9	0xbe83b377	-0.25722858
10	0xbea38895	-0.3194014
11	0xbe816b5c	-0.2527722
12	0xbe748e1b	-0.23882334
13	0x3dc23d2f	0.09484326
14	0xbd6a7667	-0.057241824
15	0x3d0c07e2	0.034187205
16	0xbec4240e	-0.38308758
17	0xbea03a7f	-0.3129463
18	0xbedce88b	-0.43146166
19	0xbeb84f5c	-0.35998046
20	0x3ed61757	0.41814682
21	0x3e3e361d	0.1857533
22	0xbef3d721	-0.47625068
23	0xbdaa8a87	-0.08327203
24	0x3d2855d0	0.041097462
25	0x3e88c568	0.2671311
26	0x3eed51ff	0.4635162
27	0x3df6d974	0.12053195
28	0x3eb43651	0.3519769
29	0xbe365bc9	-0.17808451
30	0xbc871f95	-0.016494552
31	0xbe9a2801	-0.30108646
32	0x3decebc6	0.11568408
33	0x3eebfb75	0.46090284
34	0x3ea054ec	0.3131479
35	0x3efe2db9	0.4964426
36	0xbe668993	-0.22513418
37	0xbd80022c	-0.06250414
38	0x3dd2fc6f	0.10302054
39	0x3ecd9ac0	0.40157127
40	0xbeeaf5dc	-0.458907
41	0xbe7b9f2f	-0.24572442
42	0x3d9472e4	0.07248476
43	0xbe93a498	-0.28836513
44	0x3e3e3251	0.18573882
45	0xbd088861	-0.033333186
46	0xbe04a784	-0.12954527
47	0x3e892373	0.26784858
48	0x3eb703f3	0.357452
49	0x3ef8ccd5	0.48593774
50	0x3e66f5af	0.22554658
51	0xbc5a2e6d	-0.013316733
52	0x3ed120e5	0.4084541
53	0x3ecbbf9a	0.39794618
54	0xbe7f9cc1	-0.2496214
55	0x3e6846a8	0.22683203
56	0x3d6f5b24	0.058436528
57	0xbe5cc490	-0.21559358
58	0xbdf51ec8	-0.11968762
59	0xbdf014b4	-0.11722699
60	0xbeb32560	-0.34989452
61	0xbe1adebe	-0.15124032
62	0x3e2ba562	0.16762307
63	0x3ebb9673	0.3663822
64	0x3d187e64	0.03722991
65	0xbef75926	-0.48310202
66	0x3e875764	0.2643386
67	0xbe1bb1aa	-0.15204492
68	0x3ee472d0	0.44618845
69	0xbef6f491	-0.48233464
70	0xbdef30b3	-0.116792105
71	0x3ec6a47e	0.38797373
72	0x3e5d3d20	0.21605349
73	0xbe7ee294	-0.2489112
74	0xbedd35c1	-0.43205073
75	0xbbaabfde	-0.0052108606
76	0x3e44bd1c	0.19212765
77	0xbed4741f	-0.41494843
78	0xbed5d7f4	-0.41766322
79	0xbbde3fc4	-0.006782504
80	0xbdd14aa8	-0.10219318
81	0x3ea44e84	0.32091153
82	0xbef7960a	-0.48356658
83	0xbda3433f	-0.079718105
84	0xbec64ccc	-0.38730466
85	0xbd930c0d	-0.07180033
86	0xbe829433	-0.25503692
87	0x3e21914b	0.15778081
88	0xbed62ed9	-0.41832617
89	0xbec91b89	-0.3927882
90	0xbe913d65	-0.28367153
91	0xbee0024c	-0.43751752
92	0x3ea13c84	0.31491482
93	0xbd93efc8	-0.07223469
94	0xbe8e65d4	-0.27812064
95	0x3eb315ef	0.34977672
96	0xbde87d0c	-0.11351976
97	0x3e84489a	0.2583664
98	0xbe1eb86c	-0.15500039
99	0xbed63373	-0.41836128
100	0x3ddf08c9	0.108903475
101	0x3e9f5b83	0.31124505
102	0xbef93a95	-0.48677507
103	0x3d51e82e	0.051246814
104	0x3dc9db6b	0.09856304
105	0x3d67e56f	0.05661529
106	0xbc4168a2	-0.011804732
107	0xbe1f32a3	-0.1554666
108	0xbec62ff2	-0.38708454
109	0x3da65c76	0.08123104
110	0xbeab7e06	-0.33494586
111	0xbed306e6	-0.412162
112	0xbe24b3d1	-0.1608422
113	0xbeaea172	-0.34107548
114	0x3e1cc059	0.1530775
115	0x3eb636f9	0.35588816
116	0x3ec665c2	0.3874951
117	0xbe9e9cc2	-0.30978972
118	0x3e8b640c	0.27224767
119	0x3eb5ac07	0.3548281
120	0x3bbfd38b	0.0058540753
121	0x3e57e912	0.21085003
122	0x3e911a68	0.2834046
123	0x3ec3d68a	0.38249618
124	0x3e886311	0.26638082
125	0x3e5ad8e6	0.21371803
126	0xbe430aaf	-0.19047044
127	0xbe8e2cec	-0.27768648
128	0xbe730e5e	-0.2373595
129	0x3ed27aa5	0.41109195
130	0xbdf7295e	-0.12068437
131	0x3c95c3f7	0.01828192
132	0xbeee900c	-0.46594274
133	0xbcb2ae63	-0.02181167
134	0xbe1027fe	-0.14077756
135	0xbea4ee61	-0.3221312
136	0x3ec675a1	0.3876162
137	0xbecef3b8	-0.40420318
138	0xbd909c2e	-0.07061039
139	0xbd0ef250	-0.034899056
140	0xbee785e1	-0.4521933
141	0x3e9a483e	0.3013324
142	0xbe22501f	-0.15850876
143	0x3e650440	0.22364902
144	0x3e8ecde8	0.2789147
145	0x3ee1d5a6	0.44108313
146	0x3dfd2eed	0.12362466
147	0x3ebfe549	0.37479618
148	0x3eec1986	0.46113223
149	0x3dca1b1d	0.09868453
150	0xbdcf969d	-0.10136149
151	0xbe0bb1a8	-0.13641989
152	0x3da6038d	0.08106146
153	0x3e377a90	0.17917848
154	0xbef0f29c	-0.47060096
155	0x3ebfc01a	0.3745125
156	0x3da20510	0.07911122
157	0xbeedf65d	-0.46477023
158	0x3e23aaa7	0.15983067
159	0x3ea22c41	0.31674388
160	0x3e3e9fe0	0.18615675
161	0x3ed0c5b6	0.4077584
162	0x3c2e4b23	0.010638031
163	0xbed42046	-0.41430873
164	0xbac57f67	-0.0015067876
165	0x3eb962d6	0.36208218
166	0xbe75013a	-0.23926249
167	0x3e5a803b	0.21337979
168	0x3debfd9b	0.11522981
169	0xbda57e31	-0.0808071
170	0x3b6a11c7	0.0035716163
171	0x3e5a00ce	0.2128937
172	0xbeaedbb3	-0.34151992
173	0x3ea16ccc	0.31528318
174	0x3ead08eb	0.33795866
175	0x3e8f0935	0.27936712
176	0x3eff636e	0.49880546
177	0xbcb3b6d3	-0.021937763
178	0xbeb46ef9	-0.35240915
179	0x3cbb64ed	0.022875274
180	0xbe14e05d	-0.14538713
181	0x3e344839	0.17605676
182	0x3ed805b4	0.4219185
183	0xbe8b609d	-0.27222148
184	0x3caa7436	0.020807367
185	0x3ef89ed2	0.4855867
186	0xbecc3fbb	-0.39892372
187	0xbdad6064	-0.08465651
188	0x3ef7f46a	0.4842866
189	0x3eb2c04f	0.34912345
190	0x3e151302	0.14558032
191	0xbe5c92c7	-0.21540366
192	0xbd3e901c	-0.046524152
193	0xbee48597	-0.4463317
194	0xbef11601	-0.470871
195	0xbeef1be0	-0.46700954
196	0x3ef5fca8	0.48044324
197	0x3eca2d7d	0.3948783
198	0x3e4ac979	0.19803418
199	0xbe00e708	-0.12588131
200	0x3edbc7f3	0.42925987
201	0xbe076a4f	-0.13224147
202	0x3eb1a16e	0.34693474
203	0xbc873f07	-0.016509546
204	0xbe70bd3f	-0.23509692
205	0xbe0e6fd1	-0.13909842
206	0xbdda93ad	-0.10672698
207	0xbee9d190	-0.45667696
208	0x3e181cd6	0.1485475
209	0xbe1b3707	-0.1515771
210	0x3e6b71eb	0.22992675
211	0x3ea30a3e	0.31843752
212	0xbda24519	-0.079233356
213	0x3e77c33d	0.24195571
214	0x3dccd438	0.10001415
215	0x3eab7ec6	0.33495158
216	0xbea45eab	-0.32103476
217	0xbd3575cd	-0.044301797
218	0xbe2a82da	-0.16651478
219	0x3edfc69b	0.4370621
220	0xbee5752f	-0.44815966
221	0xbe8fbd1e	-0.28073972
222	0x3d66b193	0.05632169
223	0x3ee2ff7c	0.44335544
224	0x3ead0857	0.33795425
225	0xbeef1a04	-0.46699536
226	0xbeb3b1a5	-0.3509647
227	0x3ef82427	0.48465082
228	0x3d957d53	0.07299294
229	0xbedacb6f	-0.42733333
230	0xbe218aed	-0.15775652
231	0x3e6159d6	0.22006926
232	0xbdd6d7bb	-0.10490366
233	0xbec4a301	-0.38405612
234	0xbe9dd957	-0.3082988
235	0xbe842367	-0.2580826
236	0xbc9f449d	-0.019441897
237	0x3e471a81	0.19443704
238	0x3e74ed83	0.23918729
239	0xbe789d8b	-0.24278848
240	0xbdab5f31	-0.08367766
241	0xbec59867	-0.38592836
242	0x3ec15a3f	0.37764165
243	0x3efea20d	0.4973301
244	0x3ef89f8c	0.48559225
245	0x3e506f62	0.20354989
246	0xbdd8de37	-0.10589259
247	0xbc475e24	-0.012168441
248	0x3e389877	0.1802691
249	0xbeddb51f	-0.43302247
250	0x3cfe497b	0.031040898
251	0xbecf9854	-0.40545905
252	0xbeffea73	-0.49983558
253	0xbc8537ef	-0.016262023
254	0xbe22a4f4	-0.15883237
255	0xbea24de2	-0.31700045

layers.0.bias f4 [256]
0	0xbf0794c0	-0.5296135
1	0x3efd34d6	0.49454373
2	0x3ed02334	0.40651858
3	0xbf31ee03	-0.695038
4	0xbf0dfb31	-0.5546141
5	0xbeeee93f	-0.46662328
6	0xbec430fa	-0.38318616
7	0x3db53c53	0.088493966
8	0xbf32ebb9	-0.69890934
9	0xbf060f97	-0.5236754
10	0x3ea59f9b	0.32348332
11	0xbe6d07f4	-0.23147565
12	0xbe8fc801	-0.28082278
13	0xbf15a622	-0.58456624
14	0x3e92c687	0.2866709
15	0x3d4d3690	0.050100863
16	0xbe8c0d9e	-0.2735414
17	0xbedd669d	-0.4324235
18	0x3e1a335e	0.15058658
19	0x3e454d71	0.19267823
20	0x3ea0e680	0.31425858
21	0x3e574fe9	0.21026577
22	0xbddd67df	-0.108108275
23	0xbf0c0801	-0.54699713
24	0x3ee669d7	0.45002624
25	0xbbaf37ba	-0.0053472193
26	0xbef07c60	-0.4696989
27	0x3f1c114e	0.60963905
28	0x3eca4942	0.39509016
29	0xbf0e2d72	-0.55538094
30	0xbeb49db0	-0.35276556
31	0xbe75f6d5	-0.2401994
32	0xbed0e342	-0.40798384
33	0x3ea9a0d5	0.33130518
34	0xbf0101ac	-0.50393176
35	0x3f284e7a	0.65744746
36	0xbe957857	-0.29193375
37	0x3ed593a4	0.41714203
38	0x3cc5d4c4	0.024149306
39	0xbe9f299e	-0.3108644
40	0x3ef16301	0.47145846
41	0xbf0a0f2f	-0.5392942
42	0xbebfbd78	-0.3744924
43	0x3dacebb6	0.08443396
44	0x3f0f7b69	0.56047684
45	0xbe9b06f5	-0.30278745
46	0xbedc0f74	-0.4298054
47	0xbee6d244	-0.45082295
48	0xbe9fb83b	-0.31195244
49	0xbe79d85e	-0.24398944
50	0xbe298a77	-0.16556726
51	0xbecdf862	-0.40228564
52	0x3e6245a0	0.22096872
53	0x3bb3370d	0.005469209
54	0xbeeca661	-0.46220687
55	0xbecef993	-0.40424785
56	0x3e18d2fc	0.14924234
57	0xbc252b8f	-0.010081186
58	0x3f0033c4	0.5007899
59	0xbddb8f7d	-0.107207276
60	0xbf128a3f	-0.57242197
61	0xbf05c47b	-0.5225293
62	0xbe54c4eb	-0.20778243
63	0xbe2033bb	-0.15644734
64	0x3da4d109	0.08047683
65	0xbe231726	-0.15926799
66	0x3e85b385	0.26113525
67	0xbe719e55	-0.23595555
68	0x3f05167a	0.5198742
69	0x3e2669fa	0.16251364
70	0xbe5e8471	-0.2173021
71	0x3f216e30	0.6305876
72	0x3e393ad7	0.18088852
73	0xbef5f912	-0.48041588
74	0xbec9776e	-0.3934893
75	0x3ee305c0	0.44340324
76	0x3ea5dc2c	0.3239454
77	0x3f0d4232	0.5517913
78	0xbd611921	-0.054955605
79	0x3efd2770	0.4944415
80	0x3eb42a6f	0.35188624
81	0x3e601cb7	0.21885954
82	0xbe277083	-0.16351514
83	0x3f2e78fa	0.68153346
84	0x3e124409	0.14283766
85	0xbe39b91a	-0.18137017
86	0xbc22c341	-0.0099342475
87	0x3f32318c	0.6960685
88	0x3ef33fa9	0.47509506
89	0xbd56f9d5	-0.052484352
90	0x3f317d56	0.6933187
91	0x3e9f1770	0.3107257
92	0xbec0bee4	-0.37645638
93	0xbf24ea8b	-0.64420384
94	0x3ed269e3	0.4109641
95	0x3f29bc2f	0.6630277
96	0xbed2ff7e	-0.4121055
97	0x3e9449b6	0.28962487
98	0x3cf66332	0.030076597
99	0xbe1a08e0	-0.15042448
100	0xbe4418c9	-0.1915008
101	0x3e49a787	0.19692813
102	0x3e1ecf19	0.15508689
103	0x3ef4939a	0.4776886
104	0x3e8536e2	0.26018435
105	0x3ea4acd0	0.32163095
106	0x3f1fbfad	0.6240185
107	0x3e6176ce	0.22017977
108	0x3dd59836	0.104294226
109	0xbe83c814	-0.25738585
110	0x3f04aa0b	0.51821965
111	0x3dd822de	0.105535254
112	0x3ee925ea	0.4553674
113	0x3f2e9fda	0.68212664
114	0xbe21b896	-0.1579307
115	0x3efe52fe	0.49672693
116	0xbe1187dc	-0.14211982
117	0x3f232fed	0.63745004
118	0x3f0ebcb2	0.55756676
119	0xbe81bd56	-0.25339764
120	0x3cce8dac	0.025214039
121	0xbe9ddd3b	-0.30832848
122	0xbe91fd14	-0.28513396
123	0xbe1174ae	-0.14204666
124	0xbb91341a	-0.00443126
125	0xbe7c73ce	-0.24653551
126	0xbf2ada08	-0.6673894
127	0xbedb0833	-0.42779693
128	0xbd795a21	-0.06087697
129	0xbe66df1d	-0.22546048
130	0x3f0643ce	0.5244721
131	0x3f1336cb	0.5750548
132	0x3ee70e5d	0.45128146
133	0x3ea03711	0.31292012
134	0xbf0f8fb5	-0.56078655
135	0x3f2aa185	0.6665271
136	0xbf1f9cd9	-0.62348706
137	0xbe6e0a84	-0.23246199
138	0xbefea4f2	-0.49735218
139	0x3e8261e3	0.25465307
140	0xbf168a4d	-0.5880478
141	0xbeb2d219	-0.34925917
142	0xbee5c12e	-0.44873947
143	0xbede3884	-0.43402493
144	0xbea91144	-0.33020985
145	0x3f31ed25	0.6950248
146	0xbd6f0af9	-0.058360074
147	0x3e5bb86f	0.21457075
148	0xbf33c4a9	-0.70221955
149	0x3f20c5b5	0.62801677
150	0xbe1d75d4	-0.15376979
151	0xbf25fafc	-0.64836097
152	0x3ef96607	0.48710653
153	0xbe441909	-0.19150175
154	0x3f2448d6	0.6417364
155	0xbef5fa40	-0.48042488
156	0xbf27ff20	-0.65623665
157	0xbf07d6b1	-0.5306197
158	0x3e9d0088	0.30664468
159	0xbda220cd	-0.079164125
160	0xbf27c565	-0.65535575
161	0x3e06d521	0.1316724
162	0xbd3a18c8	-0.04543379
163	0x3e8371ed	0.25672856
164	0xbeb85a59	-0.3600643
165	0xbf013bc9	-0.5048185
166	0x3ef7035e	0.48244756
167	0xbeae25d7	-0.34013245
168	0x3efe9ce2	0.49729067
169	0x3f12af6a	0.5729891
170	0xbefcbd43	-0.49363145
171	0xbea6ee6e	-0.32603782
172	0x3daded04	0.08492473
173	0xbf2abf83	-0.66698474
174	0x3e5d8d34	0.21635896
175	0xbe96e013	-0.2946783
176	0xbea0e34f	-0.31423423
177	0xbf0bd9ec	-0.546294
178	0x3ea93e3f	0.33055303
179	0xbee6acb4	-0.45053637
180	0xbf10ad50	-0.56514454
181	0xbe3e2b4c	-0.18571204
182	0xbec9f1ce	-0.39442295
183	0xbf2fff2b	-0.6874873
184	0x3e9240ab	0.28564963
185	0xbe8a3446	-0.26993006
186	0x3efd5783	0.4948083
187	0x3efec62b	0.49760565
188	0xbee76e7e	-0.45201486
189	0xbed3022f	-0.41212603
190	0xbe80c180	-0.2514763
191	0x3ed3e3b0	0.4138465
192	0xbcc8df91	-0.024520667
193	0xbe81b9ec	-0.2533716
194	0x3ee0be47	0.4389517
195	0x3f2bbb87	0.6708302
196	0x3f05b1bf	0.52224344
197	0xbf0a48bc	-0.54017234
198	0xbe166ce5	-0.14689977
199	0xbe0af326	-0.13569316
200	0x3f1a6221	0.6030598
201	0xbebb612b	-0.3659757
202	0xbecf2266	-0.4045593
203	0x3c3636e9	0.01112149
204	0xbe28b873	-0.16476612
205	0x3e891b87	0.26778814
206	0x3db1380d	0.08653269
207	0xbed82b35	-0.42220464
208	0x3f039732	0.5140258
209	0x3ee1733c	0.4403323
210	0x3e1e9cd5	0.15489514
211	0xbf239e73	-0.6391365
212	0x3eaa074a	0.33208686
213	0x3ef0b3a9	0.4701207
214	0x3e49ce9d	0.19707723
215	0xbe8bcf55	-0.2730662
216	0x3d3f67fc	0.046730027
217	0xbe8b80dd	-0.27246752
218	0x3f2a86cd	0.6661194
219	0x3f2ed90e	0.6829995
220	0xbda8b67c	-0.08237931
221	0xbef3c996	-0.47614735
222	0x3ed4f582	0.41593558
223	0x3eb8eff0	0.36120558
224	0x3ec01dc6	0.37522715
225	0xbf081630	-0.53158855
226	0x3e753550	0.23946118
227	0xbe9aa9d5	-0.30207697
228	0xbf1f2077	-0.6215891
229	0xbefc8b07	-0.4932482
230	0x3e996cbe	0.29965776
231	0x3e87de64	0.26536858
232	0xbf1ee472	-0.6206733
233	0x3ecd3497	0.40079185
234	0x3f0ac58f	0.542077
235	0x3f09588b	0.5365073
236	0x3ecc81e9	0.39942864
237	0xbde42f54	-0.111418396
238	0x3ef278e2	0.4735785
239	0x3f0db5c7	0.55355495
240	0x3ebcdf63	0.3688918
241	0xbf0215db	-0.508146
242	0xbe7c416a	-0.24634328
243	0x3f0f644f	0.56012434
244	0x3f09e7e6	0.53869474
245	0x3ee7771c	0.4520806
246	0xbe97491e	-0.2954797
247	0xbe0fa5b3	-0.14028053
248	0xbf06e4d3	-0.5269291
249	0xbece5c02	-0.4030457
250	0x3f0b2a8e	0.5436181
251	0xbf14b118	-0.58082724
252	0xbe32bcbb	-0.17454807
253	0x3e19611d	0.14978452
254	0xbed9732e	-0.42470688
255	0x3e28ee45	0.16497143

layers.1.weight f4 [256, 256]
0	0x3b9e7035	0.0048351535
1	0xba323fc8	-0.0006799665
2	0xbb6dccc5	-0.0036285382
3	0x3b988112	0.0046540583
4	0xba86b939	-0.0010278589
5	0xbabf330f	-0.001458736
6	0x3b5d2c9b	0.003374851
7	0xbad5ed4a	-0.0016321328
8	0xb98c3d57	-0.00026748583
9	0xbb803d46	-0.0039135544
10	0xbb4bc5ab	-0.003109316
11	0x3b67b2b2	0.0035354313
12	0x3b81fa67	0.003966618
13	0x3a21a963	0.0006166903
14	0xb85cad62	-5.2613563e-05
15	0x3b82d9c4	0.003993245
16	0xba2a6956	-0.00065006816
17	0xbb4122bc	-0.0029470166
18	0xba9f6266	-0.0012160062
19	0x3b87de4e	0.004146374
20	0x3b1891e3	0.0023280315
21	0x3b60378b	0.0034212794
22	0xbaa1a7e0	-0.0012333356
23	0x3af52475	0.0018702882
24	0x3b16855b	0.002296767
25	0x3aeab746	0.0017907403
26	0x3b8a7b4a	0.004226123
27	0x398e0c58	0.00027093547
28	0x395ca3e8	0.00021041895
29	0xbae39ee5	-0.001736608
30	0xba10254e	-0.0005498723
31	0x3ae5aa4e	0.0017522068
32	0x3b81c79f	0.0039605643
33	0x3b496776	0.0030731834
34	0x38f20058	0.00011539523
35	0xbaff8200	-0.0019493699
36	0xbb5c76d5	-0.0033640165
37	0x3ab2fe2d	0.0013656073
38	0xbaa56c70	-0.0012620818
39	0x3ae367aa	0.001734962
40	0xbac0ecae	-0.0014718974
41	0xba22ce51	-0.0006210553
42	0x3b852600	0.004063368
43	0x3b0c3ab4	0.0021397294
44	0x3b58b1c7	0.0033064948
45	0x3b2bcf42	0.0026216065
46	0xbb459948	-0.0030151177
47	0xbb01b467	-0.0019791366
48	0x3ab8b154	0.0014090934
49	0x3b05d809	0.0020422956
50	0x39c6c160	0.00037909579
51	0xba71d01a	-0.000922443
52	0x3b30fd89	0.0027006587
53	0xbb0c0247	-0.0021363662
54	0xbb5df120	-0.0033865646
55	0xb93b7a26	-0.00017879214
56	0x3b32af90	0.0027265288
57	0xbb14bd81	-0.002269596
58	0xbac1c224	-0.001478259
59	0x3b2d3558	0.00264295
60	0xbb24300f	-0.002505306
61	0xbabf3910	-0.001458915
62	0x3a90ce12	0.0011047742
63	0x3b2a5384	0.002598972
64	0x3b8f35fe	0.00437045
65	0x3b871609	0.0041225
66	0xb95637a9	-0.00020429365
67	0xbaf299f7	-0.001850902
68	0x3b4c2bb5	0.003115398
69	0x3a21d375	0.0006173172
70	0x3b81c316	0.0039600236
71	0x3b191475	0.002335814
72	0xbb5fba3e	-0.0034138109
73	0xbb726238	-0.0036984812
74	0x3a1ad97d	0.0005907042
75	0xbb3abb09	-0.002849283
76	0xb9f25fa1	-0.00046229086
77	0x3aeead77	0.0018209656
78	0x3a7da64a	0.0009675963
79	0x3b69b2a1	0.003565945
80	0x3b03bfe6	0.0020103394
81	0x3b21eb41	0.0024706873
82	0x3b8054c4	0.003916355
83	0xbae967ba	-0.0017807402
84	0xbb83bd2a	-0.004020353
85	0x3848db72	4.788809e-05
86	0x3aeca586	0.0018054701
87	0x3a5d4af2	0.00084416487
88	0xba5e58f1	-0.0008481881
89	0xbb4f31c9	-0.0031615368
90	0xbb2c2049	-0.002626436
91	0xba8c2275	-0.0010691421
92	0x3b82f4da	0.0039964737
93	0x3b9ad31c	0.004724873
94	0x3a4dddab	0.00078531605
95	0xbb01708f	-0.0019750928
96	0xbb3f5f5f	-0.0029201133
97	0xbb82bf78	-0.00399011
98	0x3b7a81cb	0.0038224335
99	0xb9979f55	-0.00028919676
100	0xbb08417a	-0.002079098
101	0xbb7577c8	-0.0037455428
102	0x3b8b5d73	0.0042530834
103	0x3b923e2e	0.004462979
104	0xbac75f52	-0.0015210903
105	0xb9c5c4f6	-0.00037721515
106	0xbae58170	-0.0017509889
107	0xbb1ea76f	-0.0024208685
108	0xbae53a6c	-0.0017488725
109	0x3b07a6f8	0.0020698886
110	0xb87025f0	-5.725579e-05
111	0x3accd9ca	0.0015628871
112	0xbb27de82	-0.0025614803
113	0x3a24ddae	0.00062891364
114	0x3a16822a	0.0005741442
115	0xbb3e143d	-0.0029003762
116	0x3b41d826	0.0029578297
117	0xbb77dcb0	-0.003782075
118	0xba7ae750	-0.00095712114
119	0x3b80ed66	0.00393455
120	0x3b039254	0.0020076232
121	0xba494a14	-0.000767858
122	0x3a589f9f	0.00082635315
123	0xbb3bd964	-0.002866351
124	0x3b4ad383	0.0030948825
125	0x3b875b1b	0.0041307337
126	0xba18170f	-0.0005801776
127	0xbb959bae	-0.0045656776
128	0x3b57d6c6	0.0032934411
129	0xbb3e34b7	-0.002902312
130	0xba5bf12d	-0.0008390125
131	0x3a043976	0.0005043963
132	0xba805ab6	-0.0009792659
133	0xbb8c869f	-0.004288509
134	0x3b134690	0.0022472478
135	0x3970d5ba	0.00022967803
136	0x3b48bac1	0.0030628892
137	0xbb86cba5	-0.004113632
138	0x3b74311e	0.0037260721
139	0xbadfdb8f	-0.0017078983
140	0x3b564c94	0.0032699453
141	0xbb29f6eb	-0.0025934528
142	0x38a26ed2	7.745404e-05
143	0xbb35111c	-0.0027628606
144	0x3b89dd22	0.0042072693
145	0xb9a68061	-0.00031757637
146	0x3abd105d	0.0014424432
147	0xb94fe9ef	-0.00019828205
148	0xbb898a98	-0.00419743
149	0xbb0502b6	-0.0020295805
150	0xbaa656df	-0.0012690685
151	0xbb12d159	-0.0022402613
152	0xbb354c14	-0.0027663754
153	0x3b21f8d1	0.0024714957
154	0x3b52a9f9	0.0032144769
155	0x3a88aef4	0.0010428117
156	0xbb312811	-0.0027031938
157	0x3b81af79	0.0039576855
158	0x3a4a3777	0.00077139534
159	0x3b975685	0.004618468
160	0xbb188021	-0.002326973
161	0x3959dfa1	0.00020778041
162	0xba43b78b	-0.00074660097
163	0xba1575cf	-0.0005701454
164	0x3b6e28e7	0.0036340298
165	0x3a360937	0.0006944122
166	0x3b08ebc2	0.0020892476
167	0x3b25cfbe	0.0025300826
168	0xbb2dca33	-0.0026518225
169	0x3b018ab0	0.0019766502
170	0xbabe9391	-0.0014539828
171	0xba909da3	-0.0011033308
172	0xbb4c466f	-0.0031169911
173	0xbb6998f5	-0.0035644148
174	0xbb4a77bb	-0.0030894119
175	0x39e07dc0	0.000428183
176	0x3a58b552	0.0008266765
177	0x3b4fd208	0.0031710882
178	0xb951a8d0	-0.00019994681
179	0x3ac8218a	0.0015268784
180	0x3b597466	0.003318095
181	0x3acb3331	0.0015502927
182	0xbb890613	-0.0041816323
183	0x39a30ca0	0.0003109919
184	0xba3a29ec	-0.0007101584
185	0xbb8bdf54	-0.004268566
186	0xbadf93f6	-0.0017057646
187	0xba549f22	-0.0008110871
188	0xbb49fd8d	-0.0030821294
189	0xbb5d850b	-0.0033801224
190	0xbb0572ec	-0.0020362688
191	0x3b180c1e	0.0023200582
192	0x3b8a15f2	0.004214042
193	0x3a45c686	0.0007544536
194	0x3b8cc166	0.004295516
195	0x3b7287f1	0.0037007297
196	0xbb1ab6ba	-0.0023607449
197	0x3af3e972	0.0018609001
198	0x3aa22d4d	0.001237312
199	0x3b476641	0.0030425938
200	0xba2895cb	-0.00064310123
201	0x3b90449a	0.004402709
202	0x3a29b57f	0.00064738834
203	0xbb64ab5e	-0.0034892182
204	0xba7c86cf	-0.0009633125
205	0x3b4bd4c5	0.0031102162
206	0xbb8fdd95	-0.0043904283
207	0x3a9e5e0f	0.0012082475
208	0x3b7662c3	0.0037595488
209	0xbb1efb6c	-0.0024258746
210	0xbad34871	-0.0016119612
211	0xb9c83dcd	-0.00038193018
212	0xba08556f	-0.0005200719
213	0x3b9f98ac	0.004870495
214	0x3b0991e4	0.0020991499
215	0xba985565	-0.0011622129
216	0xbaae6e54	-0.0013308027
217	0xbad51425	-0.0016256614
218	0x3b5ed8d3	0.003400375
219	0x3b21ecb9	0.0024707748
220	0xbb0ff4de	-0.002196602
221	0x38ccf20d	9.7725635e-05
222	0xba83cc7b	-0.0010055447
223	0xbb5993eb	-0.0033199738
224	0x3b0f4cd0	0.0021865852
225	0x3809790b	3.2776075e-05
226	0x3b94cc26	0.004540938
227	0x3b6e4d4f	0.0036361997
228	0xba2f4e96	-0.00066874304
229	0xbac33dca	-0.0014895734
230	0xb9e91500	-0.0004445687
231	0x3b71f866	0.0036921739
232	0xbb8c7c78	-0.004287299
233	0x3b60dd26	0.0034311502
234	0xbac66933	-0.0015137553
235	0x3b643c73	0.003482607
236	0xbb684258	-0.0035439935
237	0x3b615318	0.0034381803
238	0xbaa795a0	-0.0012785681
239	0x3b36c563	0.0027888648
240	0xbb3ee75b	-0.0029129598
241	0xb983c1be	-0.00025130616
242	0xbaa8536f	-0.0012842248
243	0xbae5717b	-0.0017505133
244	0xbb63a585	-0.0034736109
245	0xbb626297	-0.0034543627
246	0xba855b39	-0.0010174281
247	0xbb78dc62	-0.0037973155
248	0x3b9acfb4	0.004724467
249	0xbb49598f	-0.0030723547
250	0x3b2b6d79	0.002615778
251	0x3b0d6b2e	0.0021578777
252	0xbb1402ef	-0.0022584756
253	0x3ab21826	0.0013587519
254	0x3b978f84	0.0046252627
255	0x393c077f	0.0001793187

layers.1.bias f4 [256]
0	0x3d524580	0.05133581
1	0xbd13fb93	-0.03612859
2	0x3b34100a	0.002747538
3	0x3d72180a	0.059104957
4	0x3d2ffcd2	0.042965718
5	0xbc00d82f	-0.007864042
6	0xbd26a4d6	-0.040684544
7	0xbd6d767e	-0.05797433
8	0xbca75c78	-0.020429835
9	0x3d5bc5e2	0.053655513
10	0x3c1a8e2a	0.009433309
11	0xbd0efa34	-0.03490658
12	0xb9d12ef7	-0.00039898578
13	0x3bea814a	0.0071565257
14	0x3cc7b9a7	0.024380518
15	0x3d370a75	0.044687707
16	0x3d71e088	0.05905202
17	0xbc5ef63d	-0.0136085125
18	0x3c513d9d	0.012771037
19	0x3d1c8af1	0.038218442
20	0xbc319b49	-0.0108402455
21	0x3c82c63f	0.015963672
22	0xbd4fa824	-0.05069746
23	0x3affa0de	0.0019502898
24	0xbb4c4e65	-0.0031174656
25	0x3ce5002e	0.027954187
26	0x3cb4ceb2	0.022071216
27	0x3d527d0f	0.051388796
28	0x3d627970	0.055291593
29	0x3d59207f	0.053009506
30	0x3d13a1e0	0.036043048
31	0xbd06e461	-0.032932643
32	0x3d3f081b	0.04663859
33	0x3cbd1618	0.023081824
34	0xbd7daac8	-0.061930448
35	0x3d1585db	0.036504608
36	0xbbaddefe	-0.0053061238
37	0xbc381160	-0.011234611
38	0xbc10ed62	-0.008845659
39	0xbd2bdb67	-0.041957285
40	0x3c2e6f99	0.010646724
41	0x3bb2e08e	0.005458898
42	0xbd00a695	-0.031408865
43	0x3cd99faa	0.026565392
44	0x3d41978b	0.047263663
45	0xbccb5907	-0.024822725
46	0x3b19d5ae	0.002347331
47	0xbc3d6656	-0.011560043
48	0x3d16b9c5	0.036798257
49	0x3d1767ca	0.036964215
50	0xbd73e8bc	-0.059548125
51	0xbd5c7f42	-0.0538323
52	0x3b111bab	0.0022141736
53	0xbca10cea	-0.019659478
54	0xbd0848d9	-0.033272598
55	0xbcf71f8b	-0.030166408
56	0x3cb21da8	0.021742657
57	0x3d548214	0.051881865
58	0xbd556090	-0.052094042
59	0xbca0416c	-0.019562446
60	0xbc96a704	-0.018390186
61	0xbcf8474e	-0.030307438
62	0xbc48f24c	-0.012264799
63	0x3bf93d26	0.0076061664
64	0xbc864141	-0.016388537
65	0xbc3a4d1c	-0.011370923
66	0x3cb0284f	0.021503596
67	0x3b63078e	0.0034641954
68	0x3cc509d3	0.024052536
69	0x3d33ec48	0.043926507
70	0xbcf1fc1c	-0.02953916
71	0xbd2341ea	-0.039857782
72	0xbcc36c79	-0.023855435
73	0xbd3a9ec8	-0.04556158
74	0xbd27df51	-0.040984455
75	0xbc566203	-0.013084891
76	0xba5b1a87	-0.000835814
77	0xbd27b6bb	-0.04094575
78	0x3cb68076	0.022278052
79	0x3d4fc4d9	0.050724838
80	0xbd78bd42	-0.060727365
81	0x3c37d104	0.011219267
82	0xbcca9598	-0.024729535
83	0xbd297a85	-0.04137661
84	0x3cb2fa8d	0.021847988
85	0xbd71a9ab	-0.0589997
86	0xbd6661a3	-0.056245457
87	0x3c0af506	0.00848127
88	0xbc83db8a	-0.016095895
89	0xbc756fb3	-0.014980244
90	0x3d7288c9	0.05921248
91	0xbcaf3fbe	-0.0213927
92	0x3cf8e8a6	0.030384373
93	0x3ca8a975	0.020588616
94	0x3d4190b8	0.047257155
95	0x3d27cd89	0.040967498
96	0xbca9aeae	-0.020713177
97	0x3c987c62	0.018613998
98	0x3d4eecaf	0.050518688
99	0x3c541650	0.012944773
100	0x3c884d13	0.016638314
101	0xbc2df706	-0.010617977
102	0xbd356e0a	-0.044294395
103	0xbc141061	-0.009037108
104	0xbd4fb478	-0.050709218
105	0x3d716f14	0.058943823
106	0x3d64a779	0.055823777
107	0x3a007956	0.0004900893
108	0xbc959b2c	-0.018262468
109	0xbd0c3c37	-0.034237113
110	0xbc9ed633	-0.019389248
111	0xbc16d37a	-0.009205693
112	0xbc62f938	-0.013853364
113	0x3d764fb4	0.060134605
114	0xbd128293	-0.035769057
115	0x3d291f37	0.041289534
116	0xbc8f611b	-0.017502358
117	0xbd3c129e	-0.045916192
118	0x3c71a076	0.0147477295
119	0x3c15c14d	0.009140325
120	0x3d60dafb	0.054896336
121	0xbd6fb13f	-0.058518644
122	0x3bb984b0	0.0056615695
123	0xbd4c8733	-0.049933624
124	0xbc0eff28	-0.008727826
125	0xbb866268	-0.0041010864
126	0xbd75fb8f	-0.060054358
127	0xbcc33a22	-0.02383143
128	0xbcc2fe6d	-0.02380296
129	0x3d74a3c4	0.05972649
130	0xbca396c1	-0.019969346
131	0xbca9d976	-0.020733576
132	0x3d238301	0.039919857
133	0x3d3eb2da	0.046557285
134	0x3d380949	0.04493073
135	0xbc3b3cda	-0.011428082
136	0xbd051422	-0.032489903
137	0xbd4874f0	-0.048939645
138	0xbd45e0eb	-0.0483102
139	0xbbfe1318	-0.007753741
140	0x3d7dacba	0.061932303
141	0xba458336	-0.00075345056
142	0xbc2d3e74	-0.010573972
143	0x3c65b4da	0.014020169
144	0x3cf2aae9	0.029622512
145	0xbc61adbc	-0.013774332
146	0x3d456d94	0.048200205
147	0x3ced7e5a	0.028990913
148	0xb86ac9ad	-5.5977773e-05
149	0x3ced309d	0.028953845
150	0xbd1ef269	-0.0388054
151	0xbbcf45d2	-0.006325462
152	0x3cd3796d	0.025814736
153	0x3cb7e52d	0.022448147
154	0xbacdab48	-0.0015691305
155	0xbc9f81f4	-0.019471146
156	0x3c149b97	0.009070299
157	0xba0286fb	-0.000497922
158	0xbd7b01bf	-0.061280962
159	0x3d4f5ce9	0.050625715
160	0xbd06b57d	-0.032887924
161	0x3d3885c1	0.045049433
162	0x3d14e11c	0.036347494
163	0xbcc9e4e2	-0.024645273
164	0x3bb59d27	0.0055424157
165	0xbcc61a0f	-0.024182348
166	0x3cdcffaa	0.026977379
167	0x3a0247a1	0.000496978
168	0x3d4bbc35	0.049740035
169	0xbd136d1a	-0.03599272
170	0x3d646aa0	0.055765748
171	0x3ce7dc7e	0.028303381
172	0x3d7edaa5	0.062220234
173	0x3c86f92b	0.016476234
174	0x3c393449	0.01130397
175	0x3d3489b4	0.044076636
176	0xbd762c3e	-0.060100786
177	0x3c15e145	0.009147947
178	0x3ca94bd3	0.020666039
179	0xbd4c50cf	-0.049881753
180	0xbd25c4f3	-0.04047103
181	0xbc7c4bac	-0.015398901
182	0xbcf5f7a1	-0.030025305
183	0x3d61ce5b	0.055128437
184	0x3cb8fd8a	0.022581834
185	0xbc626b4d	-0.013819528
186	0x3a25441c	0.00063043996
187	0xbd7c20a8	-0.06155458
188	0xbc83de57	-0.01609723
189	0x3d08e666	0.03342285
190	0x39033bc9	0.00012515405
191	0x3b85bd1a	0.0040813806
192	0x3b0cd808	0.002149107
193	0x3c2985ed	0.010346872
194	0x3c1b73ac	0.009488028
195	0x3c2aacff	0.010417222
196	0x3bda71b0	0.0066663846
197	0x3d7a42ff	0.06109905
198	0x3c72e3c5	0.014824812
199	0x3d4b8792	0.049689837
200	0xbb70af7e	-0.0036725695
201	0x3d2ca215	0.04214676
202	0x3d06a888	0.032875568
203	0xbca71423	-0.020395344
204	0xbca29e59	-0.019850897
205	0xbd1f159a	-0.03883896
206	0x3c667169	0.014065125
207	0x3d1db990	0.038507044
208	0xbd091f21	-0.033476952
209	0xbd1aff97	-0.037841406
210	0xbd011fac	-0.031524345
211	0xbcf27107	-0.029594911
212	0x3d20c1b4	0.03924723
213	0x3d510d47	0.051038053
214	0xbcbcbf68	-0.023040488
215	0xbb95e588	-0.0045744814
216	0x3c921e0a	0.01783659
217	0xbc92ef3d	-0.017936343
218	0x3d6e1747	0.058127668
219	0xbcf2a48d	-0.02961948
220	0xbc90c12d	-0.017670238
221	0xbd420bde	-0.0473746
222	0xbd342338	-0.0439789
223	0xbb947c8a	-0.004531448
224	0xbd779850	-0.06044799
225	0xbd7900d6	-0.060791813
226	0x3b946808	0.004529003
227	0xbd40b158	-0.04704413
228	0x3d14753a	0.03624461
229	0xbd4ffed2	-0.050780125
230	0x3d792d96	0.06083449
231	0x3ab493d7	0.001377697
232	0x3cde82c6	0.027161967
233	0xbbac2365	-0.005253243
234	0x3c9959f3	0.018719649
235	0xba0919f4	-0.00052300026
236	0xbd61707f	-0.055038925
237	0x3d7e196d	0.062035967
238	0xbbbc6e29	-0.005750437
239	0x3ced5122	0.028969351
240	0xbce063a0	-0.027391255
241	0x3c23a7b3	0.009988713
242	0x3c8a3434	0.016870596
243	0x3d719e56	0.05898889
244	0xbd6ee6a4	-0.058325425
245	0x3d7ab409	0.06120685
246	0x3b728c2b	0.0037009816
247	0xbc950dbc	-0.018195026
248	0x3bedbe1c	0.007255329
249	0x3d6af30d	0.057360698
250	0x3bf6725d	0.0075209574
251	0xbc982156	-0.018570583
252	0xbc81cb86	-0.015844118
253	0xbd467870	-0.048454702
254	0xbd70eba1	-0.058818463
255	0x3d7b4462	0.06134451

layers.2.weight f4 [256, 256]
0	0xbad509e7	-0.0016253561
1	0x3b9678ea	0.004592051
2	0x3b700219	0.0036622344
3	0x3b76aa91	0.0037638287
4	0xbb6f996c	-0.0036559952
5	0xbb93543e	-0.0044961264
6	0xbb8ebb24	-0.004355805
7	0x3a8ff145	0.0010981938
8	0x3b21ed24	0.0024707997
9	0xbb7918d6	-0.0038009188
10	0xbaecace2	-0.0018056894
11	0xbb8822ef	-0.004154555
12	0x3a0ec4fb	0.00054462225
13	0x3b13e754	0.0022568302
14	0x3b7cf865	0.0038600203
15	0x3b0a5085	0.0021105122
16	0xbb85b786	-0.0040807156
17	0x39d7118c	0.0004102107
18	0xbafbc745	-0.0019209167
19	0xbb728a11	-0.0037008564
20	0x3ac1d083	0.0014786873
21	0x3b7f3d2a	0.0038946369
22	0xbb1eb717	-0.0024218017
23	0x3735b8b1	1.08314425e-05
24	0x3b980628	0.0046394058
25	0x3b107230	0.0022040717
26	0x3b56923d	0.0032740973
27	0xbb84da2b	-0.004054328
28	0x3b805592	0.003916451
29	0xbb30be38	-0.0026968848
30	0xbb279e48	-0.002557652
31	0x3a355d31	0.00069184887
32	0xbb35b534	-0.0027726414
33	0xbb9eef1f	-0.004850283
34	0x3b4c4103	0.003116668
35	0xbb9ad2d6	-0.0047248406
36	0xbb9463cd	-0.0045284987
37	0x3a52488f	0.00080216763
38	0xbabb73d4	-0.0014301487
39	0x3b5fab38	0.0034129154
40	0x3b929a71	0.0044739773
41	0xbb0ec8c8	-0.0021787155
42	0xbb870acf	-0.0041211615
43	0x3b194002	0.00233841
44	0x3afad6b1	0.0019137469
45	0xbb045f6f	-0.0020198484
46	0xba2142fd	-0.00061516446
47	0xbb89b6b2	-0.004202687
48	0xb90033e6	-0.00012226365
49	0xbb073e79	-0.0020636602
50	0xba5d6991	-0.00084462116
51	0x3b78ec6d	0.0037982718
52	0xbb134874	-0.0022473605
53	0x3b1cf8ed	0.0023952082
54	0x3b989fd2	0.004657724
55	0x3ab4dba8	0.0013798373
56	0x3b72ad16	0.0037029437
57	0xbb37254c	-0.0027945815
58	0xbb204277	-0.0024453679
59	0xbb1fd5ff	-0.0024389026
60	0xb9b0b5a0	-0.00033704657
61	0xbb7735fd	-0.0037721389
62	0xbb55c9fd	-0.0032621615
63	0x3b8d478d	0.004311508
64	0x3b37f986	0.0028072312
65	0x3ac9305a	0.0015349493
66	0xbb764d9d	-0.0037582882
67	0xbb88f313	-0.0041793673
68	0xba322d2c	-0.0006796892
69	0xba2ece4d	-0.00066683145
70	0xba9aeba1	-0.001181949
71	0xbaa85ff5	-0.001284598
72	0x3b981f13	0.004642376
73	0x3a1206a5	0.0005570448
74	0xbb30d19f	-0.0026980413
75	0xbb05ca41	-0.0020414742
76	0xbb370c89	-0.0027931056
77	0x3a2244a4	0.0006190038
78	0x3ae859a4	0.001772691
79	0x3b2b1359	0.0026104061
80	0xb7ca7c13	-2.4138053e-05
81	0xbb8e9155	-0.004350821
82	0x3b2c4b15	0.002628987
83	0xbb08ed71	-0.002089348
84	0x3b4bfe2d	0.0031126842
85	0xbb957eb2	-0.0045622224
86	0x3b70d839	0.0036749972
87	0xbb8a6730	-0.0042237267
88	0xba4293cf	-0.0007422538
89	0xb8f407ad	-0.000116362564
90	0xbb923e2c	-0.004462978
91	0x3b1075dc	0.0022042906
92	0xbb8e4e65	-0.0043428415
93	0xbae423f2	-0.0017405732
94	0xba073a41	-0.0005158522
95	0xbac8546b	-0.0015283948
96	0xbab654ba	-0.0013910749
97	0xbb523e54	-0.0032080607
98	0x391e7a59	0.00015113632
99	0xbaa06e5d	-0.0012239922
100	0xba38625e	-0.0007033701
101	0x3b219d18	0.0024660286
102	0xbb7212d8	-0.0036937501
103	0x3b3001c7	0.0026856528
104	0x3a9d5d10	0.0012005884
105	0xbb0e0138	-0.0021668207
106	0x3b19baa5	0.0023457196
107	0x3a33b90c	0.0006855882
108	0x3b810d69	0.003938366
109	0xbb680ae7	-0.003540689
110	0x3b5883e5	0.00330376
111	0xbb6fe3da	-0.0036604316
112	0xb9f4d992	-0.0004670141
113	0xbb89034b	-0.0041813008
114	0xb8084d3c	-3.2496857e-05
115	0x3b298948	0.002586918
116	0x3b42120b	0.0029612805
117	0x39d412b7	0.00040449735
118	0x3b42c4ca	0.0029719346
119	0x3b243ef4	0.0025061937
120	0x3a191acc	0.000584048
121	0x3b3d5938	0.002889229
122	0xbb3efcbe	-0.0029142345
123	0xbb596ef5	-0.0033177708
124	0x396157f1	0.00021490433
125	0xba71643f	-0.0009208358
126	0xbb15c473	-0.0022852689
127	0xbaa07c03	-0.001224399
128	0xbb83a080	-0.004016936
129	0x3b9921f5	0.0046732374
130	0xba6c6db3	-0.0009019032
131	0xbade860d	-0.0016977206
132	0x39cc5777	0.00038975078
133	0x3b641b50	0.0034806319
134	0x392ec660	0.00016667834
135	0xba223cdb	-0.0006188878
136	0xbb0dc7b9	-0.0021633937
137	0xb9e03bab	-0.00042769065
138	0x3ad19061	0.0015988463
139	0x3b4a275a	0.003084621
140	0x3a130869	0.0005608858
141	0x3b138a3d	0.0022512816
142	0xbaefaebf	-0.0018286331
143	0x3b8cc396	0.0042957766
144	0xbadbbda0	-0.0016764887
145	0xbb741407	-0.0037243383
146	0x3b73f49c	0.0037224656
147	0x39425d8a	0.00018536128
148	0x3b0daee0	0.0021619126
149	0x3b7da661	0.0038703906
150	0xbb830208	-0.003998045
151	0xba4e3c91	-0.00078673015
152	0x3b44a47b	0.0030005265
153	0xbba20a16	-0.00494505
154	0x3b2972f2	0.0025855866
155	0xbb4820e3	-0.003053718
156	0xbaf30928	-0.0018542157
157	0x3b753bf2	0.0037419763
158	0xbb785aa0	-0.0037895814
159	0x3b8110e0	0.0039387792
160	0x3b2ab996	0.002605056
161	0xbb57e9e9	-0.0032945818
162	0xba461c76	-0.00075573416
163	0x3ab53986	0.0013826347
164	0xba89e599	-0.0010520696
165	0x3ad49028	0.0016217278
166	0xbb6d0d8a	-0.00361714
167	0xba0112b9	-0.00049237494
168	0x389d9ac3	7.51517e-05
169	0x399f975d	0.00030439618
170	0xbb1d19f2	-0.0023971763
171	0xb9cd1067	-0.00039112868
172	0x3a9b991c	0.0011871192
173	0xbad0047c	-0.0015870477
174	0x3b78f35c	0.003798685
175	0xb8cf82b5	-9.894875e-05
176	0xbb6e0562	-0.0036319126
177	0xbbad4305	-0.0052875304
178	0x3a775f6a	0.000943652
179	0x39f6b746	0.00047057326
180	0xb9f828b8	-0.00047332584
181	0x3b335565	0.0027364132
182	0xbb630015	-0.00346375
183	0xbb54a8c2	-0.003244922
184	0x3a1c3d29	0.00059600413
185	0xbb6b9559	-0.0035947172
186	0x3b0e13f6	0.0021679378
187	0xb9a3edac	-0.00031266862
188	0x3a7db744	0.0009678493
189	0xbb87bc1a	-0.0041422965
190	0x3aa685d0	0.0012704674
191	0xbb30ae8d	-0.002695951
192	0x393f3224	0.00018233858
193	0xbb259fae	-0.0025272178
194	0xbb768297	-0.0037614459
195	0x3a9794e1	0.0011564755
196	0x3b98e9b1	0.00466653
197	0xba82eeb2	-0.000998935
198	0xb952f44f	-0.00020118173
199	0xbaa20b18	-0.0012362925
200	0x3b628cd3	0.00345688
201	0xbb668e1f	-0.0035179926
202	0x39ed3d9a	0.0004525006
203	0x395ce96f	0.00021067796
204	0x3b8839b5	0.00415727
205	0x3a8a706e	0.0010562071
206	0xba99bcd4	-0.0011729249
207	0x3aac84bb	0.0013162115
208	0xbb1f9b23	-0.0024353943
209	0x3b5191c9	0.0031977764
210	0xbb0083c5	-0.001960979
211	0x3aa20455	0.001236091
212	0x3b7e6812	0.0038819355
213	0x3b137e6d	0.0022505776
214	0x39ccbe8f	0.0003905189
215	0xbab1ab6e	-0.0013555118
216	0x3b910f2b	0.004426857
217	0x3a9ae702	0.0011818113
218	0xbb364976	-0.0027814782
219	0x3b85cbec	0.0040831473
220	0xbb3c4bb6	-0.002873165
221	0xbb08f18f	-0.0020895933
222	0xba26751d	-0.00063498487
223	0x3b668847	0.0035176442
224	0xbb7eca32	-0.0038877842
225	0x3a6bbc8f	0.0008992636
226	0x3a8fbe9f	0.0010966844
227	0xbb21aa7c	-0.0024668267
228	0x3b237015	0.0024938632
229	0x3b1ba74a	0.0023750835
230	0xbb85dc48	-0.0040850975
231	0x3b8660dc	0.004100902
232	0x3b7699c5	0.0037628275
233	0x3aedbdec	0.0018138266
234	0x3b527852	0.0032115174
235	0xba1934e6	-0.00058443693
236	0x3b4712eb	0.0030376266
237	0xba5295f6	-0.000803321
238	0x3a1ca654	0.00059757126
239	0x3b8630c0	0.004095167
240	0xbb104e55	-0.0022019346
241	0xbacd447d	-0.001566067
242	0xbb7b78d7	-0.0038371587
243	0xb88fe47a	-6.8613284e-05
244	0xbb8eb3da	-0.004354936
245	0xbb477782	-0.0030436222
246	0x3b0d2f31	0.002154302
247	0x3ab0ab4b	0.0013478784
248	0x3b95bf66	0.0045699356
249	0xbb8b6513	-0.0042539923
250	0xbb891e33	-0.004184508
251	0xba83316f	-0.0010009239
252	0x3ac4a2d0	0.0015002135
253	0xbb5b7443	-0.0033486045
254	0x3aa95d21	0.0012921431
255	0xba3cf2ce	-0.00072078116

layers.2.bias f4 [256]
0	0x3cf55efb	0.029952517
1	0x3d15872c	0.036505863
2	0xbcc284c2	-0.023744944
3	0x3d11f43d	0.035633314
4	0x3cc3ca92	0.023900304
5	0x3c9cae6c	0.01912614
6	0xbd113d9d	-0.03545915
7	0x3ba42c50	0.0050101653
8	0x3c8a417b	0.016876927
9	0xbd34a91e	-0.044106595
10	0xbd6d9f46	-0.058013223
11	0x3c29a88c	0.010355126
12	0xbce8d49a	-0.028421689
13	0x3ce45d38	0.027876481
14	0xbcb55a4f	-0.022137789
15	0xbd0404a4	-0.03223099
16	0xbc45e8d9	-0.012079441
17	0x3cda40cb	0.026642224
18	0x3d7596f7	0.059958424
19	0xbd283f52	-0.041076012
20	0x3d0e419f	0.03473055
21	0x3d22da4d	0.03975897
22	0x3c388883	0.011263016
23	0xbbd6237a	-0.006534991
24	0x3c4ff480	0.012692571
25	0x3b9a254e	0.004704154
26	0xbd6cdd4d	-0.057828236
27	0xbd015951	-0.03157932
28	0x39f56082	0.00046801945
29	0xbccca10b	-0.024979135
30	0x3d285d8d	0.041104842
31	0x3ceb0bbf	0.028692124
32	0xbcdbccd9	-0.026831077
33	0xbab0bc29	-0.001348381
34	0xbd043999	-0.032281492
35	0x3b2678b9	0.0025401546
36	0x3c8c596c	0.017132483
37	0xbd74f073	-0.059799623
38	0x3d699146	0.05702331
39	0x3ccd49b6	0.025059562
40	0x3d1bdd0a	0.038052596
41	0x3c20e8c0	0.009821117
42	0x3c2da6cd	0.01059885
43	0xbd366988	-0.044534236
44	0x3d2f478c	0.04279284
45	0x3d3a317f	0.04545736
46	0xbbad8d22	-0.0052963654
47	0xbd022e9d	-0.031782735
48	0x3d06ee6d	0.032942224
49	0x3d380b04	0.04493238
50	0x3bdb7ab4	0.006697977
51	0x3d5ff409	0.05467609
52	0x3d1228c0	0.035683393
53	0x3ca7b90d	0.020473981
54	0xbd7e3070	-0.062057912
55	0xbc1c6506	-0.00954557
56	0x3cd7e23d	0.026352996
57	0xbd7e2b1d	-0.062052835
58	0x3c5d0d00	0.013491869
59	0x3ca33e14	0.019927062
60	0x3ccf81a6	0.025330376
61	0x3d536be8	0.05161658
62	0x3cc1620e	0.023606326
63	0x3c7b14c8	0.015324779
64	0xbd5a2275	-0.053255517
65	0xbd4cdc90	-0.050015032
66	0x3d3b343b	0.045704108
67	0x3d0dd6b0	0.03462857
68	0x3c4046ba	0.0117356125
69	0xbcc07306	-0.023492347
70	0x3d38b22f	0.045091804
71	0xbcb91c0b	-0.02259638
72	0x3cfa61ff	0.030564306
73	0xbbf68856	-0.0075235767
74	0x3d08c3cc	0.03338985
75	0x3cb2428c	0.021760248
76	0xbc16fb52	-0.009215193
77	0x3cac57ca	0.021037955
78	0xbd04471f	-0.03229439
79	0xbd12f3ff	-0.035877224
80	0x3cdbe5ea	0.02684303
81	0x3cd347d4	0.025791086
82	0xbc1d064f	-0.009584024
83	0x3aea6610	0.00178832
84	0xbcf2c22d	-0.029633606
85	0x3d37fb31	0.04491729
86	0xbc6c963a	-0.014440114
87	0x3c8cd0cb	0.017189404
88	0xbc4d2f01	-0.012523414
89	0x3d326cea	0.0435609
90	0xbd373aaa	-0.04473368
91	0x3d293df0	0.041318834
92	0x3d7a950f	0.06117731
93	0xbd299937	-0.041405883
94	0xbd5a6033	-0.0533144
95	0x3d05eda4	0.032697335
96	0x3c7e2ce0	0.015513629
97	0x3d204487	0.039127853
98	0x3c2ac8f4	0.0104238875
99	0x3cb4fa24	0.022091933
100	0xbcf0f68f	-0.029414443
101	0x3d4ff098	0.050766557
102	0x3c8e6095	0.017380038
103	0x39eacd6f	0.00044785018
104	0xbb755d7e	-0.003743976
105	0x3c54587a	0.012960548
106	0x3c81d908	0.015850559
107	0x3d2988c0	0.04139018
108	0x3c1b2838	0.009470038
109	0xbca820d1	-0.02052346
110	0x3ceaeb18	0.028676555
111	0x3d7ae13d	0.06124996
112	0x3ceb1231	0.028695198
113	0x3d400cd5	0.046887238
114	0xbd185480	-0.03718996
115	0x3ccbd713	0.024882829
116	0x3d71b7f0	0.059013307
117	0xbd2c6ffd	-0.042098988
118	0x3bdef2b7	0.006803836
119	0xbc9b319e	-0.018944558
120	0x3c3d3aaa	0.011549631
121	0x3d2f3046	0.042770647
122	0x3c9851ea	0.018593747
123	0xbcb0a016	-0.02156071
124	0x3d64be76	0.0558457
125	0xbd4d3328	-0.050097615
126	0x3ccde4b0	0.02513346
127	0x3cead66c	0.028666697
128	0x3b4aea70	0.003096249
129	0xbd311e7b	-0.04324196
130	0x3d446d40	0.04795575
131	0xbb98eb52	-0.0046667242
132	0x3c011427	0.00787834
133	0xbc99cb89	-0.018773811
134	0x3d367362	0.04454363
135	0xbcfbbf79	-0.03073095
136	0xbd523199	-0.05131683
137	0x3c4f2705	0.01264358
138	0x3b904354	0.0044025574
139	0xbd0f34ec	-0.03496258
140	0xbca6ae32	-0.020346735
141	0x3b99c00f	0.0046920846
142	0xbcfeb0be	-0.031090137
143	0xbcdf2cc4	-0.027243026
144	0xbcac656f	-0.021044461
145	0xbb8024e6	-0.0039106486
146	0xbd46373e	-0.048392527
147	0x3c45fe1f	0.012084513
148	0xbd1405f2	-0.036138482
149	0x3baa62cf	0.005199767
150	0x3ccfe24e	0.025376465
151	0xbc9c7b87	-0.019101871
152	0x3d2c807e	0.042114727
153	0xbd631e36	-0.055448733
154	0x3d45c4ef	0.048283514
155	0xba871e14	-0.0010308647
156	0x3c6c1b06	0.01441074
157	0x3d59997f	0.0531249
158	0xbd7cac28	-0.06168762
159	0x3c26cc68	0.01018057
160	0xbc1985cb	-0.009370278
161	0xbd03a017	-0.032135095
162	0x3cdd7a6f	0.02703592
163	0x3d2e498c	0.04255061
164	0xbca9ce09	-0.020728128
165	0xbc55481c	-0.0130176805
166	0x3d08ef4a	0.03343133
167	0x3c6f8bd6	0.014620742
168	0xbc8dd6ba	-0.017314304
169	0x3c3332eb	0.010937433
170	0xbd3a506d	-0.045486856
171	0x3d66234e	0.056186013
172	0x3cb56cb9	0.02214657
173	0x3d2f1292	0.04274232
174	0xbd78457a	-0.060613133
175	0xbd398065	-0.045288462
176	0xbccca6fa	-0.024981964
177	0x3d41e22a	0.047334827
178	0x3c54fc0e	0.012999548
179	0x3d6960c0	0.056977034
180	0xbd4667c3	-0.0484388
181	0xb78e6c5a	-1.6978174e-05
182	0x3d1620a8	0.036652237
183	0x3d5f8152	0.05456669
184	0x3d471dca	0.048612393
185	0xbd2610f6	-0.04054352
186	0x3cdc90d8	0.026924536
187	0x3d158bf3	0.03651042
188	0xbcf79a5d	-0.030224973
189	0xbc7dd2f9	-0.015492194
190	0x3cc358c9	0.023846047
191	0x3cb0fd6b	0.021605214
192	0x3d71fed2	0.059080906
193	0xbd4b032b	-0.049563568
194	0xb931d5af	-0.00016959639
195	0xbcaecd40	-0.021338105
196	0xbd4179a3	-0.047235142
197	0x3d48e9ef	0.04905122
198	0x3d051f61	0.03250063
199	0x3d3abe6d	0.04559176
200	0x3c70436b	0.014664511
201	0x3bb17d89	0.0054165763
202	0xbd25807c	-0.040405735
203	0xbd2c7135	-0.04210015
204	0x3c231e47	0.009955949
205	0x3d51419f	0.05108797
206	0xbc575659	-0.0131431455
207	0x3a869e5a	0.0010270581
208	0x3d0add88	0.033902675
209	0x3ccc601c	0.024948172
210	0xbcac0530	-0.020998567
211	0x3d08f2d2	0.033434696
212	0x3ce39cc3	0.02778471
213	0x3d228d69	0.03968564
214	0x3d05758b	0.0325828
215	0xbd1f880b	-0.0389481
216	0x3cfd0e20	0.030890524
217	0x3d4ea838	0.050453395
218	0x3c1628a7	0.009164966
219	0x3d1d12bc	0.038347945
220	0x3c641232	0.013920354
221	0x3ad6c15c	0.001638453
222	0x3d154460	0.03644216
223	0x3d36d670	0.044638097
224	0x3d1a9e25	0.037748475
225	0x3c136e61	0.008998484
226	0x3cabd023	0.02097327
227	0x3c8ef874	0.017452456
228	0xbc5d7ffa	-0.0135192815
229	0xbd64587c	-0.055748448
230	0xbd380928	-0.044930607
231	0xbd3c09aa	-0.045907654
232	0x3d543d08	0.051816016
233	0xbd744c18	-0.05964288
234	0xbd714e9f	-0.05891287
235	0xbc241fcd	-0.0100173475
236	0x3bf68a20	0.00752379
237	0xbd318067	-0.043335345
238	0xba870a5c	-0.001030277
239	0xbd5f308d	-0.05448966
240	0x3d7a9375	0.061175782
241	0xbce98d02	-0.02850962
242	0x3d103c39	0.035213683
243	0xbca56c3c	-0.020193212
244	0xbd17aee9	-0.03703204
245	0xbcc04b60	-0.023473442
246	0x3d38e1f3	0.045137357
247	0x3c15df7a	0.009147519
248	0xbc733d50	-0.014846161
249	0x3d048075	0.03234907
250	0xbd057ccb	-0.032589715
251	0xbd145c60	-0.03622091
252	0xbd2661a8	-0.040620476
253	0x3d556410	0.05209738
254	0xbadef41c	-0.0017010006
255	0xbd1de1ba	-0.038545348

layers.3.weight f4 [2, 256]
0	0xbb01039d	-0.0019685992
1	0xba721c87	-0.0009235818
2	0xba04267c	-0.0005041135
3	0x3b446913	0.0029969856
4	0xba29b949	-0.0006474448
5	0x3a04130c	0.00050382386
6	0xbb1f4d13	-0.0024307414
7	0xbaf26fee	-0.0018496492
8	0x3b3c84b5	0.0028765623
9	0x39c69927	0.0003787961
10	0x3a7d489f	0.00096620055
11	0x3b1ece4e	0.0024231854
12	0xbadbfdf8	-0.0016784063
13	0xbb213f9b	-0.0024604562
14	0xba2f9567	-0.0006697983
15	0xbb322a4e	-0.002718586
16	0x39d3da69	0.00040407784
17	0xbad35d5b	-0.0016125845
18	0x3a681569	0.0008853288
19	0xbb5fadac	-0.0034130616
20	0xbb87c48e	-0.004143304
21	0xbb3a4128	-0.0028420184
22	0x3a29ee0e	0.00064823113
23	0xbb27110a	-0.0025492334
24	0x392bb64a	0.00016375739
25	0x3b6c1c62	0.003602766
26	0xbb0d4e40	-0.0021561533
27	0x3b70ef82	0.0036763852
28	0x3a05c328	0.0005102628
29	0xbab3f843	-0.0013730604
30	0xb92e2a9b	-0.00016609805
31	0x3aef7a8b	0.0018270774
32	0xbb4e5afd	-0.0031487339
33	0xb9398568	-0.00017692673
34	0x3b254ef8	0.002522407
35	0xbb2a9dab	-0.002603392
36	0xba47a738	-0.0007616165
37	0xba3c616e	-0.0007186149
38	0xbb137284	-0.0022498677
39	0x390bdfbc	0.0001333942
40	0x3b0148e0	0.0019727275
41	0x3b0db763	0.00216242
42	0xba295190	-0.0006458992
43	0x3a00e2cd	0.00049166085
44	0xbb56e96e	-0.0032792944
45	0x3a3cf864	0.0007208644
46	0xbabd72b9	-0.0014453746
47	0x3b2ffdfa	0.0026854263
48	0x3b750810	0.0037388839
49	0xbaec318b	-0.0018020136
50	0xbabca3cb	-0.0014392076
51	0x3b4e1a6d	0.0031448856
52	0xbb141a93	-0.0022598847
53	0x3ab08d2f	0.001346981
54	0xbb01fa06	-0.0019832863
55	0xbb66c7a3	-0.0035214208
56	0xba188e75	-0.00058195676
57	0xb78d7225	-1.6861663e-05
58	0xb9cc8fb1	-0.0003901697
59	0x39eb638f	0.0004489687
60	0x3b1961d5	0.002340426
61	0x3b64fb58	0.0034939852
62	0xba0f22de	-0.00054602127
63	0x39c67ccf	0.00037858493
64	0x3ae42bf7	0.0017408122
65	0x3a775065	0.0009434282
66	0x3ad47417	0.0016208914
67	0x3ad78005	0.0016441351
68	0x396ea003	0.00022757058
69	0xbb73f9e4	-0.0037227804
70	0xbb3b5920	-0.0028587058
71	0xbb2f7e5d	-0.00267782
72	0x3b48e182	0.0030651991
73	0xbae5f7eb	-0.0017545199
74	0x3b522565	0.0032065746
75	0x3aecb5b4	0.0018059523
76	0xbace7796	-0.0015752192
77	0x39666ff8	0.00021976221
78	0xb9e2ef88	-0.00043284544
79	0x3b7006bd	0.003662511
80	0x3b4d88de	0.0031362097
81	0x3b394a1a	0.0028272928
82	0xba86973a	-0.0010268458
83	0x3b2209b0	0.0024725012
84	0xbb1b7d36	-0.0023725755
85	0xbb8834f8	-0.004156705
86	0x3b27c8db	0.0025601897
87	0xbaab9181	-0.0013089628
88	0xbb258e06	-0.0025261655
89	0x3b651cf0	0.0034959875
90	0xba0d2cfd	-0.0005385427
91	0x39ab943b	0.00032726102
92	0x3a925073	0.0011162892
93	0xbb04fe4c	-0.0020293174
94	0x3a4bd871	0.0007776088
95	0xbb1de5fb	-0.0024093378
96	0x3b8e66bd	0.0043457435
97	0x3b77026f	0.003769066
98	0x3acc4016	0.0015583064
99	0xbb58770b	-0.003302994
100	0x391b4872	0.0001480894
101	0xba81902c	-0.0009884886
102	0xbb525acc	-0.0032097576
103	0x39c009cb	0.0003662839
104	0xbb777275	-0.003775743
105	0xba654e25	-0.0008747301
106	0xbb01e01c	-0.0019817417
107	0x3a6ed50e	0.0009110727
108	0xbac77270	-0.00152166
109	0x3b33af01	0.0027417543
110	0xbb87a52c	-0.004139563
111	0xbb16526c	-0.002293731
112	0xbb82c292	-0.0039904797
113	0x3b319999	0.0027099608
114	0x3b209701	0.0024504068
115	0x3aab1a2f	0.0013054068
116	0xbb0e9687	-0.0021757202
117	0xbae8fe69	-0.0017776015
118	0x3aa6e800	0.0012733936
119	0xb97b7849	-0.00023982035
120	0xbb8aaa75	-0.004231746
121	0x3b162129	0.0022907949
122	0xbb494848	-0.003071325
123	0xbace0407	-0.0015717753
124	0x3a03b292	0.00050238625
125	0xba1b7b2b	-0.0005931134
126	0xbb405924	-0.0029350007
127	0x3b0c5fed	0.002141948
128	0xba96817f	-0.0011482685
129	0x3a1d75f3	0.00060066505
130	0x3b691830	0.0035567395
131	0x3adacb74	0.0016692714
132	0x3b3b67d3	0.002859582
133	0xbac2b256	-0.0014854174
134	0x3b3cc88e	0.0028806063
135	0x3a9b7c48	0.00118626
136	0x3b3b4c70	0.0028579496
137	0xb92a1293	-0.00016219383
138	0xbb4ba7ed	-0.0031075433
139	0xba0fbca0	-0.00054831244
140	0xbb159d5a	-0.0022829385
141	0x3990af2a	0.00027596328
142	0x3a505dcb	0.00079485466
143	0xbb842efd	-0.0040339218
144	0x3b1bb9b8	0.002376182
145	0xba3c8fb7	-0.0007193046
146	0xb9563370	-0.00020427792
147	0xb9710010	-0.00022983574
148	0xba85ba32	-0.0010202585
149	0x39d79ce3	0.00041124885
150	0xbb1a395a	-0.002353272
151	0xba7a55f5	-0.0009549552
152	0xbb4f82b5	-0.00316636
153	0x3b54580c	0.0032401113
154	0x3b84b01c	0.004049314
155	0x39f7a459	0.0004723396
156	0xb9a82463	-0.00032070567
157	0xbb289072	-0.0025720862
158	0xbb706830	-0.0036683194
159	0x3b6de8fc	0.00363022
160	0xba8f8b2c	-0.0010951511
161	0xbb7aa3b7	-0.0038244554
162	0xbb17c023	-0.0023155294
163	0x3b24307e	0.0025053318
164	0xbb5a20f7	-0.0033283809
165	0xbb0ebb7a	-0.0021779225
166	0x3b0f4cc3	0.0021865822
167	0xbac72f2d	-0.0015196555
168	0xb9e446bd	-0.00043540253
169	0x3b33c578	0.0027430933
170	0xb88b3bdb	-6.6391854e-05
171	0xbb7200c0	-0.0036926717
172	0x3b19bcd8	0.0023458507
173	0xbb29b2e6	-0.0025893985
174	0x3b255cf7	0.0025232413
175	0xbb784c28	-0.003788719
176	0xb9e7bba9	-0.0004419957
177	0xbb779153	-0.003777583
178	0x3a8910b0	0.0010457244
179	0xbb5c9722	-0.0033659418
180	0xbb71c9cb	-0.003689396
181	0xbb7d0ce6	-0.0038612424
182	0xbb465e69	-0.0030268675
183	0xbb77f316	-0.00378341
184	0xbb1e68da	-0.0024171383
185	0xbb910af5	-0.004426355
186	0x3b85fee3	0.0040892228
187	0x3aa21e7b	0.0012368703
188	0xb8d6265c	-0.0001021146
189	0x3b7a9062	0.0038233032
190	0xba914f56	-0.0011086266
191	0x3a8ba05c	0.0010652649
192	0xbb38ca2b	-0.0028196673
193	0x3a76803a	0.00094032625
194	0x3b03444e	0.0020029726
195	0xbb5d7922	-0.0033794125
196	0x39ed1f99	0.00045227705
197	0xbb65da04	-0.0035072574
198	0xb907bd7a	-0.00012945189
199	0x3b4bbf99	0.0031089543
200	0xbb5a4f3a	-0.0033311383
201	0x3b053121	0.0020323473
202	0x38c1e436	9.245465e-05
203	0xbb63b71b	-0.003474659
204	0xbaec55f4	-0.0018030987
205	0xbb6ff7b7	-0.0036616155
206	0x3b202aaf	0.0024439504
207	0x3aaa12dd	0.0012975592
208	0xba3ceb6d	-0.0007206712
209	0x3b709865	0.0036711928
210	0x3a74fdcb	0.00093456794
211	0x3a93ad61	0.0011266881
212	0xba13ab39	-0.0005633119
213	0x3ac3117b	0.0014882529
214	0x3b0f0e7d	0.0021828704
215	0x3b4e46ee	0.0031475383
216	0x3b87314c	0.0041257497
217	0xbb309f66	-0.0026950478
218	0xbb303c5a	-0.002689144
219	0xb9babc3f	-0.0003561694
220	0xb8f5c93d	-0.00011719994
221	0xbb7809d3	-0.0037847653
222	0x3b572967	0.0032831074
223	0x3b717cb1	0.0036848004
224	0xbb425afe	-0.0029656286
225	0xb9113bbf	-0.00013850535
226	0x3b37e305	0.0028058898
227	0x3b96cce8	0.0046020634
228	0x3acff520	0.00158659
229	0xbb04470c	-0.0020183949
230	0x3b6f29d0	0.0036493428
231	0xbb030213	-0.001999025
232	0xba071ed9	-0.0005154438
233	0x3b46520a	0.0030261301
234	0x3a399d75	0.0007080653
235	0xbaa4f2bd	-0.0012584549
236	0xba02d511	-0.0004990856
237	0xba5c4509	-0.0008402621
238	0x3b5d0a07	0.00337279
239	0x369f1719	4.741258e-06
240	0xbb6a5d3c	-0.0035761138
241	0xbad81330	-0.001648521
242	0x3b0648c3	0.0020490147
243	0x3af6dd53	0.001883427
244	0xb9be51cf	-0.00036300576
245	0xbae0cdad	-0.001715114
246	0xbb86be66	-0.0041120527
247	0x3b4a8084	0.0030899355
248	0xbb97c28e	-0.004631347
249	0x3b7a73e8	0.0038216058
250	0x3b182d9a	0.002322054
251	0xbb828fd5	-0.0039844313
252	0xbb7c1c8e	-0.0038469168
253	0x3b2bdfd4	0.0026225941
254	0x3b10be44	0.0022086063
255	0xbb72913f	-0.0037012843

layers.3.bias f4 [2]
0	0xbd662dda	-0.05619607
1	0xbd0279a4	-0.031854287
