old_figures/up2sept/18-SIREN-ncc-1e-05-2500-10000/epoch-1500.pth (torch, 534820 bytes, 8 tensors)

layers.0.weight f4 [256, 2]
0	0xbda87cf7	-0.0822696
1	0x3e4d7c1b	0.20066874
2	0xbec468a5	-0.38361087
3	0x3d8c57c7	0.0685268
4	0xbee9c9fe	-0.4566192
5	0x3e9ed0e5	0.3101875
6	0x3ef87372	0.48525578
7	0xbe36e35a	-0.17860165
8	0x3d973b9f	0.07384419
9	0xbe83a48d	-0.2571148
10	0xbea36475	-0.3191258
11	0xbe822472	-0.2541843
12	0xbe73910d	-0.23785801
13	0x3dc1b839	0.09458966
14	0xbd69ccf5	-0.057080228
15	0x3d0ea3ac	0.03482406
16	0xbec3d5ca	-0.38249046
17	0xbea08ff3	-0.31359825
18	0xbeddbf93	-0.43310222
19	0xbeb87104	-0.36023724
20	0x3ed65487	0.41861364
21	0x3e3dd7f2	0.18539408
22	0xbef3e170	-0.47632933
23	0xbdab520d	-0.08365259
24	0x3d238fd9	0.039932106
25	0x3e884da0	0.26621723
26	0x3eed5975	0.46357313
27	0x3df5de7d	0.12005327
28	0x3eb3d652	0.3512445
29	0xbe34e3f1	-0.17665078
30	0xbc829166	-0.015938472
31	0xbe99a5b1	-0.30009225
32	0x3deaefeb	0.11471542
33	0x3eebab10	0.46028948
34	0x3ea059fd	0.31318656
35	0x3efe75ce	0.49699253
36	0xbe65c89a	-0.22439805
37	0xbd7fa8aa	-0.06241671
38	0x3dd2fb0d	0.103017904
39	0x3ecd4bbb	0.4009684
40	0xbeeb49b0	-0.45954657
41	0xbe7b9daa	-0.24571863
42	0x3d94fce9	0.07274801
43	0xbe9329d5	-0.28742853
44	0x3e3ea92e	0.18619224
45	0xbd0eb7f6	-0.034843408
46	0xbe04182b	-0.12899844
47	0x3e88bc77	0.26706287
48	0x3eb6b4a6	0.356847
49	0x3ef92574	0.48661387
50	0x3e6759bb	0.22592823
51	0xbc369ce5	-0.011145805
52	0x3ed0dd9f	0.40794083
53	0x3ecb92c7	0.3976042
54	0xbe800df2	-0.2501064
55	0x3e68f85a	0.22750989
56	0x3d733343	0.05937506
57	0xbe5ca8bb	-0.2154874
58	0xbdf3707c	-0.11886689
59	0xbdf26cdb	-0.11837169
60	0xbeb2f1e7	-0.34950182
61	0xbe1c36a6	-0.15255222
62	0x3e2c5fbe	0.16833398
63	0x3ebb26c2	0.36553007
64	0x3d18ff09	0.037352595
65	0xbef7d9c5	-0.48408332
66	0x3e874bd4	0.2642504
67	0xbe1bafd4	-0.15203792
68	0x3ee4910a	0.44641906
69	0xbef716e0	-0.4825964
70	0xbdf1664b	-0.11787089
71	0x3ec615b6	0.3868844
72	0x3e5d53a4	0.21613938
73	0xbe7f0a55	-0.24906285
74	0xbeddd16f	-0.43323848
75	0xbba21747	-0.0049466225
76	0x3e45897a	0.19290724
77	0xbed3e567	-0.41385958
78	0xbed61539	-0.41813067
79	0xbbb3d820	-0.0054884106
80	0xbdd1a43d	-0.10236404
81	0x3ea3f265	0.3202087
82	0xbef7e544	-0.48417103
83	0xbda2a603	-0.079418205
84	0xbec61b50	-0.38692713
85	0xbd95b5eb	-0.07310089
86	0xbe830941	-0.25592998
87	0x3e207dae	0.15672943
88	0xbed5ecb4	-0.41782153
89	0xbec95e81	-0.39329913
90	0xbe911356	-0.28335065
91	0xbee002d2	-0.43752152
92	0x3ea12244	0.31471455
93	0xbd921ddd	-0.07134602
94	0xbe8de84a	-0.27716285
95	0x3eb37ba4	0.35055268
96	0xbde73985	-0.11290268
97	0x3e840909	0.25788143
98	0xbe1db2cb	-0.15400235
99	0xbed619f0	-0.41816664
100	0x3ddf4d2b	0.109033905
101	0x3e9f3fce	0.31103367
102	0xbefa0620	-0.48832798
103	0x3d5243bf	0.05133414
104	0x3dc81825	0.0977023
105	0x3d6e0b4e	0.05811625
106	0xbc34bb82	-0.0110310335
107	0xbe1f5687	-0.15560351
108	0xbec6bc86	-0.38815707
109	0x3da5be9f	0.08092999
110	0xbeaba511	-0.33524373
111	0xbed35e9e	-0.41283125
112	0xbe23dc4a	-0.16002002
113	0xbeaeed59	-0.34165457
114	0x3e1c0716	0.15237078
115	0x3eb64be6	0.3560478
116	0x3ec6bc2b	0.38815436
117	0xbe9ebcd8	-0.3100345
118	0x3e8b8dfe	0.2725677
119	0x3eb5aa44	0.35481465
120	0x3b9d8517	0.0048071253
121	0x3e5804a1	0.21095516
122	0x3e90f7e6	0.28314131
123	0x3ec39ad1	0.38204053
124	0x3e88fb9f	0.26754472
125	0x3e595935	0.21225436
126	0xbe4175d2	-0.18892601
127	0xbe8eaab0	-0.278646
128	0xbe71b67f	-0.23604773
129	0x3ed246ea	0.41069728
130	0xbdf95047	-0.12173515
131	0x3c9675a3	0.01836664
132	0xbeee9ac4	-0.46602452
133	0xbcb42f35	-0.021995166
134	0xbe114239	-0.14185418
135	0xbea52995	-0.32258287
136	0x3ec60447	0.38675138
137	0xbece99e4	-0.40351784
138	0xbd91b0ce	-0.07113801
139	0xbd10bfb9	-0.03533909
140	0xbee76a5c	-0.45198333
141	0x3e9aa698	0.30205226
142	0xbe22a6e1	-0.15883972
143	0x3e64fc22	0.22361806
144	0x3e8ece94	0.27891982
145	0x3ee1c466	0.44095153
146	0x3dfb155f	0.122599356
147	0x3ebfeff0	0.37487745
148	0x3eec0918	0.46100688
149	0x3dca4231	0.09875906
150	0xbdcf609b	-0.10125848
151	0xbe0c2f49	-0.13689913
152	0x3da51817	0.080612354
153	0x3e37944e	0.17927667
154	0xbef15b87	-0.47140142
155	0x3ebf8df7	0.37412998
156	0x3da28aeb	0.07936653
157	0xbeedb15e	-0.46424383
158	0x3e242089	0.16028036
159	0x3ea2087a	0.31647092
160	0x3e3f6607	0.18691264
161	0x3ed0903c	0.40735042
162	0x3c2dcb9a	0.010607624
163	0xbed3ef2e	-0.41393417
164	0xbad1358b	-0.0015961392
165	0x3eb9913c	0.36243618
166	0xbe765069	-0.24054112
167	0x3e5b0772	0.21389559
168	0x3dead9de	0.11467336
169	0xbda66ad5	-0.08125845
170	0x3b693cb6	0.0035589165
171	0x3e597833	0.21237259
172	0xbeaf0500	-0.34183502
173	0x3ea18253	0.31544742
174	0x3ead2492	0.33816963
175	0x3e8fa243	0.28053483
176	0x3effca66	0.49959105
177	0xbcb58932	-0.022160146
178	0xbeb4a242	-0.35280043
179	0x3cbbd2a1	0.022927584
180	0xbe14a271	-0.14515091
181	0x3e34512d	0.17609091
182	0x3ed86a07	0.42268392
183	0xbe8beaa1	-0.27327445
184	0x3cac73cd	0.021051312
185	0x3ef885cf	0.48539588
186	0xbecc3a39	-0.3988817
187	0xbdafd8b8	-0.08586258
188	0x3ef81ff3	0.48461875
189	0x3eb30c29	0.34970215
190	0x3e146d3f	0.14494799
191	0xbe5c6e00	-0.21526337
192	0xbd417104	-0.04722692
193	0xbee538b0	-0.44769812
194	0xbef1686e	-0.47149986
195	0xbeef6d95	-0.46763292
196	0x3ef59f8e	0.47973293
197	0x3eca6d31	0.3953643
198	0x3e4ae20c	0.19812793
199	0xbdffe870	-0.12495506
200	0x3edcae80	0.43101883
201	0xbe075cf7	-0.13219057
202	0x3eb1d801	0.3473511
203	0xbc8005e9	-0.015627818
204	0xbe70bc52	-0.23509338
205	0xbe0df6d1	-0.13863684
206	0xbdda59e0	-0.106616735
207	0xbeea1ee9	-0.45726708
208	0x3e18cc07	0.1492158
209	0xbe1d7956	-0.15378317
210	0x3e6ac71a	0.22927514
211	0x3ea2b76c	0.31780565
212	0xbda30d97	-0.079615764
213	0x3e77b01e	0.24188277
214	0x3dcbbff3	0.09948721
215	0x3eab9056	0.33508557
216	0xbea58130	-0.32325125
217	0xbd31f1a9	-0.043443356
218	0xbe2af298	-0.16694105
219	0x3edfa8fc	0.43683612
220	0xbee55bb2	-0.4479652
221	0xbe8fa4d9	-0.28055456
222	0x3d6808d5	0.056649048
223	0x3ee2873b	0.44243798
224	0x3eacef41	0.33776286
225	0xbeef0bf9	-0.46688822
226	0xbeb414bb	-0.35172066
227	0x3ef775a9	0.48331955
228	0x3d952a49	0.07283456
229	0xbedb5749	-0.4284003
230	0xbe21c397	-0.15797268
231	0x3e5f2ec1	0.21795179
232	0xbdd5dae9	-0.104421444
233	0xbec43318	-0.3832023
234	0xbe9ddec7	-0.30834028
235	0xbe849176	-0.25892228
236	0xbca1afa6	-0.019737076
237	0x3e47f483	0.19526868
238	0x3e76780e	0.24069235
239	0xbe78aca7	-0.24284612
240	0xbdac5b3a	-0.084158376
241	0xbec587d7	-0.385802
242	0x3ec16e53	0.37779483
243	0x3efed03e	0.4976825
244	0x3ef88210	0.4853673
245	0x3e50ad98	0.20378721
246	0xbddb3436	-0.10703318
247	0xbc51bae5	-0.012800907
248	0x3e37ff4e	0.17968485
249	0xbeddb4a6	-0.43301886
250	0x3d023e48	0.031797677
251	0xbecfe8fc	-0.4060744
252	0xbeffd948	-0.4997046
253	0xbc865cfb	-0.016401758
254	0xbe227b67	-0.15867387
255	0xbea1aac3	-0.31575593

layers.0.bias f4 [256]
0	0xbf07bae9	-0.5301958
1	0x3efd996d	0.49531117
2	0x3ed001ff	0.40626523
3	0xbf31c2cd	-0.6943787
4	0xbf0dda41	-0.55411154
5	0xbeeec020	-0.46630955
6	0xbec412fe	-0.3829574
7	0x3db55aed	0.08855233
8	0xbf32d368	-0.6985383
9	0xbf061ffc	-0.52392554
10	0x3ea59ea2	0.3234759
11	0xbe6c86d1	-0.23098303
12	0xbe908727	-0.28228113
13	0xbf15ada0	-0.58468056
14	0x3e934681	0.28764728
15	0x3d53418c	0.051576182
16	0xbe8c7f5c	-0.27440917
17	0xbede18dc	-0.4337834
18	0x3e1a49db	0.15067236
19	0x3e44a5e7	0.19203912
20	0x3ea09bda	0.31368905
21	0x3e587601	0.21138765
22	0xbddc212b	-0.10748514
23	0xbf0c390b	-0.5477454
24	0x3ee69867	0.4503815
25	0xbb934bf7	-0.0044951397
26	0xbef093b1	-0.4698768
27	0x3f1c142a	0.6096827
28	0x3eca7f59	0.39550284
29	0xbf0e2958	-0.55531836
30	0xbeb49b70	-0.3527484
31	0xbe76ba43	-0.2409449
32	0xbed0ba5b	-0.40767178
33	0x3ea90822	0.33014017
34	0xbf00f744	-0.503773
35	0x3f28040e	0.65631187
36	0xbe9534e3	-0.29141912
37	0x3ed58e67	0.41710207
38	0x3cd1940f	0.025583295
39	0xbe9f4f87	-0.31115362
40	0x3ef17515	0.4715964
41	0xbf0a0ca4	-0.5392554
42	0xbebf8a5c	-0.37410247
43	0x3dacc0d8	0.084352195
44	0x3f0fac77	0.56122535
45	0xbe9af258	-0.3026302
46	0xbedcb338	-0.43105483
47	0xbee717e8	-0.45135427
48	0xbea0223d	-0.31276122
49	0xbe79b42a	-0.24385133
50	0xbe28bdba	-0.16478625
51	0xbece5dc6	-0.40305918
52	0x3e60e5e5	0.21962698
53	0x3bd00ac4	0.0063489396
54	0xbeec62c6	-0.46169108
55	0xbecec52d	-0.40384808
56	0x3e19ae91	0.15007998
57	0xbc2b3d7b	-0.01045167
58	0x3f002b0d	0.5006569
59	0xbdde4a2d	-0.10853992
60	0xbf12a9a2	-0.5729009
61	0xbf05d122	-0.52272236
62	0xbe55524f	-0.2083218
63	0xbe20649a	-0.15663376
64	0x3da30646	0.07960181
65	0xbe23ce6e	-0.15996715
66	0x3e858d77	0.26084492
67	0xbe70d389	-0.23518194
68	0x3f04fc0a	0.5194708
69	0x3e2996e5	0.16561468
70	0xbe5dde21	-0.21666767
71	0x3f210ae3	0.62907237
72	0x3e384d08	0.17998135
73	0xbef653b4	-0.48110735
74	0xbec95ab0	-0.39327002
75	0x3ee34872	0.4439121
76	0x3ea4fdf2	0.32224995
77	0x3f0d3c7e	0.5517043
78	0xbd5c0a51	-0.053720776
79	0x3efcb3b8	0.49355865
80	0x3eb3a629	0.35087708
81	0x3e60706b	0.21917884
82	0xbe2834f2	-0.16426447
83	0x3f2e94f1	0.68196017
84	0x3e11dbeb	0.14244048
85	0xbe3b6337	-0.18299566
86	0xbc372cdf	-0.011180132
87	0x3f31dd26	0.6947807
88	0x3ef2f7e2	0.47454745
89	0xbd55c91b	-0.052193742
90	0x3f3140f3	0.6923973
91	0x3e9f1c07	0.3107607
92	0xbec13855	-0.3773829
93	0xbf24b820	-0.6434345
94	0x3ed243a3	0.41067228
95	0x3f29cbb6	0.66326463
96	0xbed25c46	-0.41086024
97	0x3e94e753	0.29082736
98	0x3cf31ea3	0.029677695
99	0xbe1abebf	-0.15111826
100	0xbe44cb0f	-0.19218086
101	0x3e489fcd	0.19592209
102	0x3e20d26f	0.15705274
103	0x3ef4ace7	0.47788164
104	0x3e844207	0.25831625
105	0x3ea4b07b	0.32165894
106	0x3f1fbc19	0.6239639
107	0x3e60e989	0.21964087
108	0x3dd793d9	0.105262466
109	0xbe8406d2	-0.25786453
110	0x3f04fc70	0.5194769
111	0x3dd4ae55	0.10384814
112	0x3ee97df1	0.45603898
113	0x3f2e7c81	0.6815873
114	0xbe221f64	-0.15832287
115	0x3efe91d4	0.49720633
116	0xbe12198c	-0.14267558
117	0x3f234f77	0.6379313
118	0x3f0e6d26	0.556353
119	0xbe81b7f9	-0.25335672
120	0x3cd57607	0.026057256
121	0xbe9e0e87	-0.30870458
122	0xbe928faf	-0.28625247
123	0xbe115b5c	-0.14195007
124	0xbb8b85f5	-0.0042579123
125	0xbe7b1b96	-0.24522242
126	0xbf2af74e	-0.66783607
127	0xbedafda2	-0.4277163
128	0xbd81ccd1	-0.06337894
129	0xbe65ede4	-0.2245403
130	0x3f067489	0.5252157
131	0x3f13697a	0.5758282
132	0x3ee6b104	0.45056927
133	0x3ea039b4	0.31294024
134	0xbf0faff8	-0.5612788
135	0x3f2b04a6	0.6680397
136	0xbf1f937b	-0.6233441
137	0xbe6e2ee7	-0.2326008
138	0xbeff4c43	-0.4986287
139	0x3e821ec7	0.25414106
140	0xbf16b15c	-0.5886438
141	0xbeb25518	-0.34830546
142	0xbee5e2bc	-0.44899547
143	0xbedf64c1	-0.43631557
144	0xbea894d1	-0.32926038
145	0x3f320257	0.6953482
146	0xbd70b53a	-0.05876658
147	0x3e5c84a4	0.21534973
148	0xbf339fb2	-0.7016555
149	0x3f211a02	0.6293031
150	0xbe1dd77b	-0.1541423
151	0xbf2625a9	-0.64901215
152	0x3ef9c830	0.48785543
153	0xbe430456	-0.19044623
154	0x3f243fa2	0.64159596
155	0xbef59382	-0.47964102
156	0xbf27edfa	-0.655975
157	0xbf083184	-0.53200555
158	0x3e9ccdc1	0.30625728
159	0xbda2047e	-0.07911013
160	0xbf27c1ea	-0.65530264
161	0x3e0696c2	0.13143447
162	0xbd3706de	-0.044684283
163	0x3e82da09	0.25556973
164	0xbeb8405a	-0.35986596
165	0xbf00f155	-0.50368243
166	0x3ef6533c	0.48110378
167	0xbeae0986	-0.3399164
168	0x3efe9949	0.49726322
169	0x3f12c5ba	0.57332957
170	0xbefd4080	-0.49463272
171	0xbea6ff3f	-0.32616612
172	0x3dada36d	0.084784366
173	0xbf2a9d1f	-0.66646
174	0x3e5ef883	0.21774487
175	0xbe973d67	-0.29539034
176	0xbea0d849	-0.31415012
177	0xbf0bccc4	-0.5460932
178	0x3ea91b7d	0.33028784
179	0xbee704a6	-0.45120734
180	0xbf1097b9	-0.5648151
181	0xbe3ea31d	-0.1861691
182	0xbeca1d72	-0.3947559
183	0xbf303c9b	-0.68842477
184	0x3e91514f	0.28382346
185	0xbe89c720	-0.26909733
186	0x3efdae82	0.495472
187	0x3efe967e	0.4972419
188	0xbee68813	-0.4502569
189	0xbed2fae7	-0.41207048
190	0xbe8005ad	-0.2500433
191	0x3ed3d48c	0.41373098
192	0xbcc6e45b	-0.02427881
193	0xbe80ccf7	-0.25156376
194	0x3ee07ddc	0.43846023
195	0x3f2bcdb3	0.6711075
196	0x3f05cc27	0.52264637
197	0xbf0a660d	-0.5406197
198	0xbe174dd8	-0.14775789
199	0xbe0af010	-0.13568139
200	0x3f1ab7ef	0.6043691
201	0xbebadff2	-0.36498982
202	0xbecf209d	-0.4045457
203	0x3c44eb9d	0.012019065
204	0xbe28eb14	-0.16495925
205	0x3e893781	0.2680016
206	0x3db00157	0.085940056
207	0xbed7f892	-0.42181832
208	0x3f034a06	0.51284826
209	0x3ee13907	0.4398882
210	0x3e1e81bc	0.15479177
211	0xbf23bbe7	-0.6395859
212	0x3eaa0568	0.3320725
213	0x3ef0842a	0.46975833
214	0x3e49ad1c	0.19694942
215	0xbe8bdb44	-0.27315724
216	0x3d41d693	0.047323775
217	0xbe8b2eea	-0.2718423
218	0x3f2a9141	0.6662789
219	0x3f2e98ef	0.6820211
220	0xbda8554d	-0.08219395
221	0xbef3ad71	-0.47593263
222	0x3ed4f558	0.41593432
223	0x3eb91154	0.36146033
224	0x3ebfec1e	0.3748483
225	0xbf080682	-0.5313493
226	0x3e761ea2	0.24035123
227	0xbe9ac77c	-0.3023032
228	0xbf1ef23c	-0.6208837
229	0xbefcfce9	-0.49411705
230	0x3e996b99	0.29964903
231	0x3e87974a	0.26482612
232	0xbf1ea31f	-0.61967653
233	0x3ecd544e	0.40103382
234	0x3f0b1ac1	0.543377
235	0x3f09caee	0.5382527
236	0x3eccaa58	0.39973712
237	0xbde2b5f4	-0.11069861
238	0x3ef2fb60	0.4745741
239	0x3f0db2f1	0.5535117
240	0x3ebc958d	0.36832848
241	0xbf023c67	-0.50873417
242	0xbe7c6746	-0.2464877
243	0x3f0f2f7d	0.55931836
244	0x3f0a323c	0.539829
245	0x3ee74eea	0.45177394
246	0xbe9725d2	-0.29521042
247	0xbe0ed3b7	-0.1394795
248	0xbf06e91b	-0.5269944
249	0xbece6960	-0.4031477
250	0x3f0af86f	0.5428533
251	0xbf145640	-0.5794411
252	0xbe3371c1	-0.17523862
253	0x3e19695b	0.14981596
254	0xbed8d9b1	-0.42353585
255	0x3e294faf	0.16534303

layers.1.weight f4 [256, 256]
0	0x3b929cc9	0.0044742567
1	0xba22c0a6	-0.00062085164
2	0xbb6f7545	-0.0036538404
3	0x3b8b60e5	0.004253494
4	0xbaf1c1d5	-0.0018444607
5	0xbab847ed	-0.0014059521
6	0x3b40cd3e	0.002941921
7	0x38cd1dd2	9.780716e-05
8	0xb85b029e	-5.2216106e-05
9	0xbb78df4f	-0.00379749
10	0xbb481786	-0.00305316
11	0x3b301d5d	0.002687297
12	0x3b8168a4	0.0039492417
13	0x39b2faed	0.0003413776
14	0x370a8426	8.256209e-06
15	0x3b773e91	0.0037726501
16	0x3936831f	0.00017405719
17	0xbb533e77	-0.0032233277
18	0xbad23853	-0.0016038514
19	0x3b750e81	0.0037392678
20	0x3b218ef4	0.0024651857
21	0x3b3d104b	0.0028848823
22	0xbaa6f8d0	-0.0012738947
23	0x3ac6e55a	0.0015174553
24	0x3b23cc0c	0.0024993448
25	0x3ad71fe0	0.0016412698
26	0x3b848fa5	0.004045444
27	0x39ca677b	0.0003860554
28	0x382b2566	4.0804407e-05
29	0xbb40b79f	-0.0029406322
30	0xba8b52a6	-0.001062949
31	0x3b106367	0.0022031905
32	0x3b8c489b	0.004281116
33	0x3b28fbd7	0.0025784874
34	0x39b6cd6b	0.00034866793
35	0xbb2d8c8d	-0.002648148
36	0xbb52472f	-0.0032085886
37	0x3ac1058b	0.0014726383
38	0xbaeca884	-0.0018055593
39	0x3b1f7e9f	0.0024336947
40	0xbb00c15c	-0.0019646501
41	0x39cdedc0	0.00039277785
42	0x3b7f5d0b	0.003896537
43	0x3b27a096	0.0025577894
44	0x3b520bc0	0.003205046
45	0x3b2fc599	0.0026820658
46	0xbb2ab556	-0.0026048026
47	0xbb03bbf2	-0.0020101038
48	0x3a65f5fc	0.0008772311
49	0x3b194011	0.0023384134
50	0x39971c47	0.00028822033
51	0xba8bd02f	-0.0010666902
52	0x3b210648	0.0024570394
53	0xbb0d17c8	-0.0021529067
54	0xbb5ba5ea	-0.003351564
55	0x3a015486	0.00049335544
56	0x3b359f2a	0.0027713277
57	0xbaf2ade1	-0.0018514955
58	0xba890977	-0.0010455091
59	0x3ae8a7b2	0.0017750172
60	0xbb1f5a27	-0.002431521
61	0xbb057a2e	-0.0020367014
62	0x3ad2583b	0.0016048023
63	0x3b2a69eb	0.0026003073
64	0x3b8c5768	0.0042828806
65	0x3b5613f1	0.0032665695
66	0x3a203154	0.0006110866
67	0xbb044ce8	-0.0020187441
68	0x3b64d5e0	0.0034917518
69	0x3a73ef41	0.0009305366
70	0x3b84be8f	0.0040510367
71	0x3b2a9466	0.0026028394
72	0xbb3a8276	-0.0028459108
73	0xbb66d31f	-0.0035221053
74	0x392fc168	0.0001676135
75	0xbb6d52d1	-0.0036212693
76	0xba1d9423	-0.0006011149
77	0x3acc3838	0.0015580719
78	0x38be71d9	9.081112e-05
79	0x3b501e8b	0.0031756486
80	0x3b2c210a	0.002626481
81	0x3afaff63	0.0019149598
82	0x3b71d55a	0.003690085
83	0xbadae0b5	-0.0016699048
84	0xbb8fcf60	-0.0043887347
85	0x38e6ede8	0.00011011568
86	0x3aef4c2f	0.0018256957
87	0x3a589f3a	0.00082634727
88	0xba893c2a	-0.0010470201
89	0xbb326086	-0.0027218177
90	0xbb5ed699	-0.0034002422
91	0xba3d5ee1	-0.0007223916
92	0x3b8e0e38	0.004335191
93	0x3b9741a0	0.0046159774
94	0x3ad4c25a	0.0016232238
95	0xbac51519	-0.0015036195
96	0xbb3ce8dd	-0.002882532
97	0xbb6667d4	-0.0035157101
98	0x3b866c53	0.0041022687
99	0xb9f721c4	-0.0004713667
100	0xbb390ae8	-0.002823526
101	0xbb3e9092	-0.002907787
102	0x3b67a99c	0.0035348898
103	0x3b6aca19	0.0035826026
104	0xba9fc6a7	-0.001218994
105	0xbabab9a4	-0.0014245999
106	0xbb13dd69	-0.002256239
107	0xbb321a13	-0.0027176186
108	0xba90c630	-0.0011045393
109	0x3b33a10b	0.0027409222
110	0x3a004b39	0.00048940215
111	0x3adec4f9	0.0016995958
112	0xbb04c8e3	-0.002026134
113	0x3a18c9c7	0.0005828407
114	0x3a4b71a7	0.0007760771
115	0xbb6da78b	-0.0036263193
116	0x3b1ffd15	0.0024412323
117	0xbb707337	-0.0036689767
118	0xba7ba021	-0.0009598751
119	0x3b5fb3a9	0.0034134185
120	0x3ae71e58	0.0017632945
121	0xba25c363	-0.00063233654
122	0x39d50a74	0.00040634314
123	0xbb71a213	-0.0036870285
124	0x3b559453	0.0032589629
125	0x3b8e89b0	0.0043499097
126	0xba6fc8d1	-0.00091470504
127	0xbb9f054f	-0.0048529278
128	0x3b75f00c	0.0037527112
129	0xbb1586b0	-0.0022815876
130	0xba7f6a04	-0.00097432756
131	0x3935bf35	0.00017332735
132	0xbab114fe	-0.0013510284
133	0xbb8eea8b	-0.004361456
134	0x3b13246e	0.0022452134
135	0x3a0baf7b	0.0005328578
136	0x3b65ad03	0.003504575
137	0xbb923a0f	-0.0044624875
138	0x3b81c0b5	0.00395974
139	0xbac17636	-0.0014759961
140	0x3ae29664	0.0017287252
141	0xbb3a6448	-0.002844112
142	0xba559c36	-0.00081485824
143	0xbb2ba239	-0.0026189222
144	0x3b6e4b2d	0.0036360726
145	0xbaa3e1df	-0.0012503228
146	0x3a94daf3	0.0011356756
147	0xba141525	-0.0005648903
148	0xbb7ef263	-0.0038901798
149	0xbb31d0d6	-0.0027132533
150	0xba7b9813	-0.0009597551
151	0xbb123a78	-0.0022312682
152	0xbb39975e	-0.0028318982
153	0x3ac9f0c4	0.0015406837
154	0x3b78d16f	0.003796663
155	0x3afe4a44	0.0019400795
156	0xbb61f8b8	-0.0034480523
157	0x3b6a91d4	0.0035792487
158	0x3a3cc608	0.000720114
159	0x3baad7b4	0.005213702
160	0xbb141f5b	-0.0022601697
161	0x3893b91f	7.043988e-05
162	0xb9be1841	-0.00036257695
163	0xba39442b	-0.0007067348
164	0x3b924a1c	0.004464401
165	0x3aac3978	0.0013139686
166	0x3af10c1e	0.0018390452
167	0x3b286b26	0.002569863
168	0xbb1db731	-0.002406549
169	0x3b473444	0.0030396143
170	0xbaff9954	-0.0019500651
171	0xbb112221	-0.0022145587
172	0xbb36ef82	-0.0027913754
173	0xbb803879	-0.003912982
174	0xbb309394	-0.0026943432
175	0x3a79a3e2	0.00095230166
176	0x3a469de2	0.0007576627
177	0x3b260ee9	0.0025338477
178	0x3a2cd86c	0.00065935287
179	0x3afd0b4e	0.0019305737
180	0x3b5ff672	0.0034173992
181	0x3a7d7e39	0.0009669993
182	0xbba1792d	-0.0049277754
183	0x3a508b87	0.00079553615
184	0xbabf2837	-0.0014584129
185	0xbb84ccbb	-0.004052726
186	0xbaa097c7	-0.0012252264
187	0xba860b5a	-0.0010226772
188	0xbb7e4e2a	-0.0038803914
189	0xbb5966bb	-0.0033172804
190	0xbac2913f	-0.0014844312
191	0x3b0982c4	0.0020982483
192	0x3b84d3c8	0.0040535666
193	0x3a648c44	0.0008718411
194	0x3b3f573b	0.002919628
195	0x3b78baf3	0.0037953227
196	0xbafdbdc0	-0.0019358918
197	0x3abf48a9	0.0014593798
198	0x3a806f7a	0.0009798848
199	0x3b40c5e2	0.0029414822
200	0xba9dd5aa	-0.0012041826
201	0x3b81ae62	0.0039575556
202	0x3a5bd1ed	0.00083854684
203	0xbb7ab29b	-0.003825343
204	0xba92dfed	-0.0011205651
205	0x3b425619	0.002965337
206	0xbb66a278	-0.0035192054
207	0x3aaa709c	0.0013003531
208	0x3b78ca37	0.0037962326
209	0xbb1002ac	-0.0021974249
210	0xbac277fa	-0.0014836781
211	0xb9a37c70	-0.00031182496
212	0xba33bda9	-0.00068565697
213	0x3b880b79	0.0041517583
214	0x3b2ef8a5	0.0026698497
215	0xbaa83078	-0.0012831828
216	0xbab71852	-0.001396904
217	0xbb070809	-0.0020604155
218	0x3b297e9d	0.002586282
219	0x3b14330f	0.002261344
220	0xbb1a9710	-0.0023588575
221	0x3a35992d	0.0006927427
222	0xbaaaa5fd	-0.0013019439
223	0xbb555e1c	-0.0032557314
224	0x3b2dc4ce	0.002651501
225	0xba0112bc	-0.0004923751
226	0x3b94dd7c	0.0045430046
227	0x3b5d73f7	0.0033791044
228	0xba666819	-0.00087893155
229	0xba67f241	-0.00088480493
230	0x39c2dfbe	0.00037169264
231	0x3b6d6acf	0.0036226993
232	0xbb8297f2	-0.0039853984
233	0x3b477ef5	0.0030440663
234	0xba42abcc	-0.00074261124
235	0x3b530508	0.0032199044
236	0xbb831dc9	-0.0040013534
237	0x3b4f2ced	0.0031612471
238	0xb9fdb551	-0.00048391012
239	0x3b2efe18	0.0026701745
240	0xbb52990e	-0.0032134685
241	0x3a011145	0.0004923533
242	0xbacb7e13	-0.0015525244
243	0xba5d9230	-0.00084522646
244	0xbb1f4965	-0.002430522
245	0xbb808234	-0.0039217714
246	0xbaba8a99	-0.0014231979
247	0xbb5af606	-0.0033410802
248	0x3b8d8954	0.0043193493
249	0xbaf66884	-0.0018799459
250	0x3b5adddf	0.0033396406
251	0x3a85232f	0.001015758
252	0xbb0bdebb	-0.0021342475
253	0x3a9a8dd5	0.0011791537
254	0x3ba8ee9f	0.005155399
255	0x39eff055	0.00045764694

layers.1.bias f4 [256]
0	0x3d51a3ce	0.051181607
1	0xbd1745e8	-0.036931902
2	0x3b764a24	0.0037580812
3	0x3d719f03	0.058989536
4	0x3d3560e8	0.04428187
5	0xbc077078	-0.008266561
6	0xbd23642c	-0.039890453
7	0xbd70e66f	-0.05881351
8	0xbca924a0	-0.020647347
9	0x3d5c5734	0.0537941
10	0x3c159545	0.009129827
11	0xbd12b6e6	-0.035818957
12	0xba918e02	-0.0011104944
13	0x3bf008a1	0.0073252474
14	0x3cd376c4	0.025813468
15	0x3d36e5dd	0.04465281
16	0x3d749a4d	0.059717465
17	0xbc5fc2b4	-0.013657261
18	0x3c508565	0.012727116
19	0x3d17f48c	0.037098452
20	0xbc32d1f3	-0.010914314
21	0x3c7a59f5	0.0152802365
22	0xbd511622	-0.051046498
23	0x3acc5360	0.0015588813
24	0xbb37bc0f	-0.0028035676
25	0x3ce958f6	0.028484803
26	0x3cb27824	0.021785803
27	0x3d5254f6	0.051350556
28	0x3d630461	0.055424098
29	0x3d5a54a1	0.053303365
30	0x3d14d991	0.0363403
31	0xbd0a23e4	-0.033725634
32	0x3d3cbf4f	0.046080884
33	0x3cbc9dcc	0.023024462
34	0xbd7bedb0	-0.061505973
35	0x3d18d442	0.0373118
36	0xbbb9544e	-0.005655802
37	0xbc347152	-0.011013346
38	0xbc1bb247	-0.009502954
39	0xbd2e4cfb	-0.042553883
40	0x3c3317df	0.010930984
41	0x3bb149cc	0.0054104086
42	0xbcfbd77f	-0.030742405
43	0x3cd9481d	0.026523644
44	0x3d45da21	0.048303727
45	0xbccb8e36	-0.024848085
46	0x3b23ab1d	0.0024973818
47	0xbc3d2e67	-0.011546708
48	0x3d12f322	0.0358764
49	0x3d154b73	0.036448907
50	0xbd78c218	-0.060731977
51	0xbd5cba21	-0.053888444
52	0x3aec978d	0.0018050537
53	0xbc9c9526	-0.019114088
54	0xbd0807b6	-0.03321048
55	0xbcfc3a36	-0.030789476
56	0x3cb2a22c	0.021805845
57	0x3d51f0af	0.051254924
58	0xbd54bd2a	-0.051938213
59	0xbc9d161c	-0.019175582
60	0xbc997623	-0.01873309
61	0xbcf81a73	-0.03028605
62	0xbc4e91af	-0.012607976
63	0x3c06dd6e	0.008231504
64	0xbc7f583c	-0.015585002
65	0xbc46958b	-0.012120615
66	0x3cad337b	0.021142712
67	0x3b329564	0.0027249688
68	0x3cc786d2	0.02435628
69	0x3d34bd06	0.04412558
70	0xbcf0e89e	-0.029407796
71	0xbd2371c8	-0.039903432
72	0xbcbeb8c8	-0.02328147
73	0xbd3c4090	-0.04596001
74	0xbd29aa93	-0.041422438
75	0xbc4b0c50	-0.012393072
76	0xba66e76e	-0.00088082894
77	0xbd27a69e	-0.040930383
78	0x3caf5188	0.021401182
79	0x3d5014f4	0.050801232
80	0xbd7c095b	-0.06153236
81	0x3c3e6e2c	0.011622947
82	0xbcd14a7d	-0.025548214
83	0xbd2894d1	-0.041157547
84	0x3cb6822b	0.022278866
85	0xbd7021cc	-0.05862598
86	0xbd65ac8c	-0.056072757
87	0x3c11ad98	0.008891486
88	0xbc8140da	-0.015777994
89	0xbc71d6fd	-0.01476073
90	0x3d7368a1	0.059425954
91	0xbcaf6ce1	-0.021414222
92	0x3cf6cfb4	0.030128337
93	0x3caa64cf	0.020800022
94	0x3d40cb6e	0.047069006
95	0x3d2ab0ca	0.041672505
96	0xbca8358f	-0.020533351
97	0x3ca0e52a	0.019640524
98	0x3d4c873b	0.049933653
99	0x3c590e57	0.013248048
100	0x3c86922b	0.01642712
101	0xbc312c0a	-0.010813722
102	0xbd33b103	-0.043869983
103	0xbc1acd24	-0.009448323
104	0xbd4e6c18	-0.050396055
105	0x3d727e8b	0.059202712
106	0x3d64a5c8	0.055822164
107	0x39a2af71	0.00031029762
108	0xbc943254	-0.018090405
109	0xbd0c7949	-0.034295354
110	0xbc9f29b8	-0.019429073
111	0xbc1c935a	-0.009556616
112	0xbc6c4104	-0.014419798
113	0x3d73a06b	0.05947916
114	0xbd10342a	-0.035205998
115	0x3d2cb352	0.0421632
116	0xbc8b0137	-0.016968353
117	0xbd3b8d3f	-0.045789
118	0x3c79fbd7	0.015257797
119	0x3c15902b	0.009128611
120	0x3d6151f2	0.05500979
121	0xbd6e97f1	-0.05825037
122	0x3bc2e1a2	0.0059473077
123	0xbd4b235c	-0.04959427
124	0xbc0f9bbf	-0.00876516
125	0xbb8e9808	-0.0043516196
126	0xbd7787ea	-0.060432352
127	0xbcc59474	-0.02411864
128	0xbcbef317	-0.023309274
129	0x3d763742	0.06011129
130	0xbca2e123	-0.019882744
131	0xbcaa06fa	-0.02075528
132	0x3d286832	0.041114993
133	0x3d3e8dca	0.04652194
134	0x3d39bffe	0.045349114
135	0xbc3ecd4c	-0.011645626
136	0xbd0588eb	-0.03260128
137	0xbd45a0ab	-0.048248928
138	0xbd472cb0	-0.0486266
139	0xbbf160b1	-0.007366263
140	0x3d7d2cb8	0.061810225
141	0xba8566c5	-0.0010177722
142	0xbc216532	-0.009850787
143	0x3c6a958d	0.014317882
144	0x3cf6f1ae	0.030144539
145	0xbc7080d8	-0.014679156
146	0x3d443993	0.04790647
147	0x3cf57d21	0.029966893
148	0x3a4a0eb0	0.0007707877
149	0x3cfa327b	0.03054165
150	0xbd213b8f	-0.03936344
151	0xbbe05404	-0.006845953
152	0x3ccfe55f	0.025377927
153	0x3cb33880	0.021877527
154	0xba9c3463	-0.0011917468
155	0xbc998847	-0.01874174
156	0x3c0a2ffb	0.008434291
157	0xba90e47e	-0.0011054424
158	0xbd7c09f6	-0.061532937
159	0x3d50d801	0.050987247
160	0xbd07cffc	-0.033157334
161	0x3d35bb21	0.044367913
162	0x3d158780	0.036506176
163	0xbccc1462	-0.024912063
164	0x3ba295e5	0.0049617165
165	0xbccaa66b	-0.024737557
166	0x3cd6c443	0.026216632
167	0x3a762c50	0.00093907584
168	0x3d4d5f54	0.05013974
169	0xbd14dabf	-0.036341425
170	0x3d627e88	0.05529645
171	0x3ce48d36	0.027899366
172	0x3d7c5344	0.061602846
173	0x3c7b1ce8	0.015326716
174	0x3c40fb0d	0.011778605
175	0x3d32dcbc	0.04366754
176	0xbd7653f2	-0.06013865
177	0x3c0f7d2b	0.00875787
178	0x3cabcdc5	0.020972142
179	0xbd4eb717	-0.050467577
180	0xbd2579de	-0.040399425
181	0xbc748a5d	-0.0149255665
182	0xbcf062b0	-0.029343933
183	0x3d61da49	0.055139814
184	0x3cbd4e41	0.023108603
185	0xbc696cd9	-0.014247143
186	0x3a0f483f	0.00054657826
187	0xbd7b8cf3	-0.061413717
188	0xbc83a41a	-0.01606946
189	0x3d0a14fb	0.033711415
190	0x39fd7840	0.00048345514
191	0x3b923c9d	0.004462792
192	0x3b0d1096	0.0021524779
193	0x3c2dcb38	0.010607533
194	0x3c207511	0.009793536
195	0x3c2d1825	0.010564839
196	0x3bd844e7	0.0066000107
197	0x3d7d5bf6	0.06185528
198	0x3c7e5c1a	0.015524888
199	0x3d51450f	0.05109125
200	0xbb793b25	-0.0038029638
201	0x3d2d5141	0.042313818
202	0x3d080979	0.03321216
203	0xbca6048d	-0.020265842
204	0xbca8cb9a	-0.020604897
205	0xbd201351	-0.03908092
206	0x3c741c64	0.014899347
207	0x3d24890a	0.040169753
208	0xbd082a17	-0.033243265
209	0xbd1bdaa7	-0.03805032
210	0xbd02177c	-0.031760678
211	0xbce9f724	-0.028560229
212	0x3d1fa77e	0.038978092
213	0x3d50f2f3	0.051012944
214	0xbcbd0d2e	-0.023077574
215	0xbb852636	-0.004063393
216	0x3c97bbb2	0.018522117
217	0xbc91375a	-0.017726589
218	0x3d6e14b5	0.058125217
219	0xbcf4beff	-0.02987623
220	0xbc8f7f47	-0.017516745
221	0xbd42835c	-0.047488555
222	0xbd319049	-0.04335049
223	0xbb8e6182	-0.00434512
224	0xbd7803d0	-0.06055051
225	0xbd74c339	-0.05975649
226	0x3b9c9d71	0.0047795107
227	0xbd407522	-0.046986707
228	0x3d116b4d	0.03550272
229	0xbd50f264	-0.05101241
230	0x3d7c6e3e	0.061628573
231	0x3a96a4ac	0.0011493168
232	0x3cdbeb77	0.026845677
233	0xbb9df533	-0.00482049
234	0x3c96d257	0.018410845
235	0xba21063e	-0.0006142593
236	0xbd614c51	-0.05500442
237	0x3d7fbdce	0.06243687
238	0xbbb8fc01	-0.0056452756
239	0x3ce7aefc	0.028281681
240	0xbceaa81c	-0.028644614
241	0x3c20b7c9	0.009809443
242	0x3c9456e3	0.018107837
243	0x3d72934c	0.059222504
244	0xbd6d3c1e	-0.05791866
245	0x3d7dbddf	0.061948653
246	0x3b58f3aa	0.003310422
247	0xbc939b86	-0.018018495
248	0x3c03ba0a	0.008039961
249	0x3d6ce74a	0.057837762
250	0x3bec5762	0.0072125653
251	0xbc94b28a	-0.01815154
252	0xbc7bcc7d	-0.015368578
253	0xbd4770d8	-0.0486916
254	0xbd72f206	-0.059312843
255	0x3d795730	0.060874164

layers.2.weight f4 [256, 256]
0	0xbadf1fe7	-0.0017023057
1	0x3b971064	0.004610108
2	0x3ba15795	0.0049237707
3	0x3b83c02a	0.0040207105
4	0xbb6fcc3a	-0.0036590234
5	0xbb9aae78	-0.0047205053
6	0xbb93b690	-0.004507847
7	0x3a47dca8	0.0007624128
8	0x3b326960	0.0027223453
9	0xbb684ad7	-0.0035444999
10	0xbb0095bc	-0.0019620499
11	0xbb9887c2	-0.0046548555
12	0x3a839172	0.0010037853
13	0x3abf6adf	0.0014603994
14	0x3b50920f	0.003182534
15	0x3b0dadef	0.0021618565
16	0xbb5db4ec	-0.0033829762
17	0x396218af	0.00021562235
18	0xbb1d8d2d	-0.0024040446
19	0xbb6cf4d2	-0.0036156666
20	0x3a81f792	0.0009915701
21	0x3ba38581	0.00499028
22	0xbb214dfe	-0.0024613137
23	0xba23d9c3	-0.00062504056
24	0x3ba2c4a5	0.0049672895
25	0x3b027a8d	0.0019909472
26	0x3b97418e	0.004615969
27	0xbb60c83c	-0.0034299036
28	0x3b826786	0.003979626
29	0xbb426bfe	-0.002966642
30	0xbb0e05cf	-0.0021670943
31	0x3a8c7db3	0.0010718614
32	0xbb23e9a7	-0.0025011094
33	0xbb8994bb	-0.0041986383
34	0x3b22c43e	0.0024836208
35	0xbb90a1f4	-0.0044138376
36	0xbb47033b	-0.0030366916
37	0x3a6149f1	0.0008594087
38	0xbac1907a	-0.0014767789
39	0x3b314a9f	0.0027052534
40	0x3bac594f	0.00525967
41	0xbb44564f	-0.002995867
42	0xbb7c2cfc	-0.0038478961
43	0x3b0db632	0.002162349
44	0x3af90d97	0.0019001242
45	0xbaebda7f	-0.0017994194
46	0xba98d689	-0.0011660616
47	0xbb8971a1	-0.004194454
48	0xb953ed80	-0.00020211004
49	0xbb1e0e9a	-0.002411759
50	0xbaa33e06	-0.0012454398
51	0x3b60c07d	0.003429442
52	0xbaf30b94	-0.0018542879
53	0x3b3584bf	0.002769753
54	0x3b81b293	0.0039580553
55	0x3a9d3a7e	0.0011995581
56	0x3b8460af	0.004039846
57	0xbb266d31	-0.0025394673
58	0xbb2ced59	-0.0026386587
59	0xbb2e99ac	-0.0026641889
60	0xb935c847	-0.00017336114
61	0xbb5b121c	-0.0033427542
62	0xbb50eb90	-0.0031878687
63	0x3b8c748b	0.004286354
64	0x3b45ccca	0.0030181878
65	0x3aac5839	0.0013148851
66	0xbb6acdba	-0.003582819
67	0xbbb2a234	-0.005451465
68	0xba759a98	-0.00093690446
69	0xb889c379	-6.569079e-05
70	0xba7dfc1e	-0.00096887525
71	0xbac1e116	-0.0014791812
72	0x3b80b15e	0.003927394
73	0xb8be0c60	-9.062211e-05
74	0xbb40db03	-0.0029427416
75	0xbaaa9848	-0.0013015354
76	0xbb234cc3	-0.002491758
77	0x3996189e	0.0002862857
78	0x3a0dacab	0.00054044527
79	0x3b3a9d99	0.0028475283
80	0xb9f850d5	-0.0004736247
81	0xbb71225a	-0.0036794157
82	0x3b31d419	0.0027134477
83	0xbb243552	-0.0025056195
84	0x3b45e177	0.0030194202
85	0xbb82557b	-0.003977475
86	0x3b49b3d1	0.0030777345
87	0xbb8406bc	-0.004029123
88	0xba789a6a	-0.00094834587
89	0xb8bd917a	-9.0393194e-05
90	0xbb8f1ffe	-0.0043678274
91	0x3b1078fd	0.002204477
92	0xbb8c7340	-0.0042862
93	0xba485923	-0.0007642677
94	0xba40d8d6	-0.000735653
95	0xbad6d532	-0.0016390441
96	0xbaae5dd9	-0.0013303115
97	0xbb486e1b	-0.0030583206
98	0x3a334c4f	0.0006839679
99	0xba9bbc72	-0.0011881723
100	0xb9395a52	-0.00017676622
101	0x3b50b9a2	0.0031848927
102	0xbb7c0867	-0.0038457157
103	0x3b2af1a1	0.0026083963
104	0x3a531bbd	0.00080531446
105	0xbad7dffe	-0.0016469953
106	0x3b3532c9	0.0027648679
107	0x3a2ac1af	0.00065138465
108	0x3b62d9c2	0.0034614657
109	0xbb50a3e9	-0.003183598
110	0x3b6c3296	0.0036040894
111	0xbb99ee9b	-0.0046976334
112	0xbaade6aa	-0.0013267596
113	0xbb835e81	-0.0040090685
114	0xb908c4d5	-0.00013043296
115	0x3b1b8ff1	0.0023736919
116	0x3b75426f	0.003742363
117	0x39479396	0.00019033099
118	0x3b4f2b43	0.003161148
119	0x3aec4d6c	0.0018028445
120	0x3a00f4aa	0.000491927
121	0x3b3d16f4	0.0028852792
122	0xbb6c67c0	-0.0036072582
123	0xbb558c8c	-0.0032584993
124	0xb982531f	-0.00024857462
125	0xbae83b05	-0.0017717785
126	0xbb16d120	-0.0023012832
127	0xba9b8181	-0.0011864157
128	0xbb810919	-0.003937852
129	0x3b94ded7	0.004543166
130	0xba0b5006	-0.00053143536
131	0xbab19f24	-0.0013551456
132	0x396bbea2	0.00022482363
133	0x3b8f3554	0.004370371
134	0x3984ae3c	0.00025306817
135	0xb92dbab5	-0.0001656812
136	0xbb11842d	-0.0022204027
137	0xb926f24d	-0.00015921258
138	0x3a9d0314	0.0011979067
139	0x3b86fcf3	0.0041195094
140	0x39a0c201	0.00030662122
141	0x3b5b7324	0.0033485377
142	0xba9f68d8	-0.0012161983
143	0x3b87ba18	0.004142057
144	0xbb1a10e7	-0.002350861
145	0xbb9c205e	-0.0047646007
146	0x3b8283d4	0.0039830003
147	0x3a297e79	0.0006465684
148	0x3ab39469	0.0013700846
149	0x3b70ec0d	0.003676179
150	0xbb8e0ee8	-0.004335273
151	0xb959666c	-0.00020732888
152	0x3b45fa09	0.0030208847
153	0xbb7c2280	-0.0038472712
154	0x3b1a4cdf	0.0023544354
155	0xbb3eee1a	-0.0029133619
156	0xbad7eb7c	-0.0016473378
157	0x3b608d94	0.0034264075
158	0xbb5981d2	-0.0033188951
159	0x3b9938ce	0.004675961
160	0x3b137b9e	0.0022504102
161	0xbb456c24	-0.0030124271
162	0xb9bd1798	-0.00036066468
163	0x3a826655	0.000994871
164	0xbaf55a6f	-0.0018718968
165	0x3aea8364	0.0017891941
166	0xbb7981c8	-0.003807174
167	0xba934456	-0.0011235576
168	0x36184613	2.2690554e-06
169	0x39c99397	0.0003844767
170	0xbb0aafbe	-0.002116188
171	0xba1b57fb	-0.0005925891
172	0x3aca89e7	0.0015452475
173	0xb9b7e9d0	-0.00035078684
174	0x3b8c890c	0.004288798
175	0x39fe8fad	0.00048553702
176	0xbb5ae896	-0.0033402792
177	0xbb91d8e9	-0.0044509065
178	0x3aad43fa	0.0013219111
179	0x3a19a8d8	0.00058616465
180	0xba390b35	-0.000705886
181	0x3b1cda07	0.0023933665
182	0xbb468142	-0.0030289446
183	0xbb63df53	-0.0034770563
184	0x3a1b85b1	0.00059327023
185	0xbb807445	-0.0039201104
186	0x3b6030d6	0.0034208796
187	0xba35c5e6	-0.0006934091
188	0x3afca75b	0.001927595
189	0xbb7a0c42	-0.003815428
190	0x3a4ace6b	0.0007736447
191	0xbb066094	-0.0020504342
192	0xb99fc5d8	-0.00030474248
193	0xbb37a1cc	-0.0028020022
194	0xbb7bde4b	-0.0038432057
195	0x3a81bf6d	0.0009898968
196	0x3b8da5b8	0.0043227337
197	0xba808f89	-0.0009808402
198	0x387eef33	6.078109e-05
199	0xba359813	-0.0006927263
200	0x3b82f4d2	0.00399647
201	0xbb5e46c4	-0.0033916691
202	0x398aa8b9	0.0002644712
203	0x391ba5b9	0.00014843688
204	0x3b813829	0.0039434624
205	0x3a565af4	0.0008177005
206	0xba815cb5	-0.0009869548
207	0x3adc6481	0.001681462
208	0xbb54b27f	-0.0032455025
209	0x3b5907c7	0.0033116208
210	0xbb2513f9	-0.0025188907
211	0x3ac31593	0.0014883749
212	0x3b8371d6	0.004011373
213	0x3b33dd47	0.0027445124
214	0xb589f82f	-1.0279526e-06
215	0xba044420	-0.0005045552
216	0x3b93c3b9	0.004509416
217	0x3aad27e3	0.001321074
218	0xbb20a625	-0.0024513092
219	0x3b8b0f18	0.0042437427
220	0xbb4f4603	-0.0031627424
221	0xbb498bfd	-0.0030753606
222	0xba7f66f4	-0.0009742819
223	0x3b47aeca	0.0030469173
224	0xbb800d73	-0.0039078533
225	0x3a5268fe	0.00080265093
226	0x3a27b548	0.00063975574
227	0xbb2ee8b3	-0.0026688993
228	0x3b3a0315	0.0028383185
229	0x3b03de4b	0.002012151
230	0xbb52dc42	-0.003217474
231	0x3b8009bf	0.003907412
232	0x3b92668e	0.004467792
233	0x3af7a29c	0.0018893066
234	0x3b7639be	0.0037571038
235	0xb986481a	-0.00025612192
236	0x3b2187b5	0.0024647538
237	0xba015e31	-0.0004934995
238	0x3a9e8100	0.0012092888
239	0x3b8f801d	0.004379286
240	0xbb00bf56	-0.0019645295
241	0xbaf5fda4	-0.0018767607
242	0xbb526a45	-0.0032106799
243	0x387dda39	6.0523136e-05
244	0xbb901f7a	-0.0043982835
245	0xbb3eeae1	-0.0029131698
246	0x3b2a6163	0.0025997988
247	0x3a9e2151	0.0012064372
248	0x3b86418f	0.0040971707
249	0xbb859200	-0.0040762424
250	0xbb85a985	-0.004079046
251	0xba8364e1	-0.0010024571
252	0x3aaf0280	0.0013352185
253	0xbb60bbf2	-0.0034291712
254	0x3a825292	0.0009942821
255	0xba0ffa33	-0.00054922997

layers.2.bias f4 [256]
0	0x3cf779e1	0.030209484
1	0x3d179138	0.037003726
2	0xbcc579e8	-0.024105981
3	0x3d12f67d	0.0358796
4	0x3cc774c5	0.024347672
5	0x3c9f5491	0.019449504
6	0xbd10d80d	-0.035362292
7	0x3ba6cda8	0.005090434
8	0x3c8949d5	0.016758839
9	0xbd3268c0	-0.04355693
10	0xbd6c63ce	-0.05771237
11	0x3c20c4ab	0.009812514
12	0xbce8f1dd	-0.028435642
13	0x3ce40c89	0.027838008
14	0xbcb55a34	-0.022137739
15	0xbd03fd43	-0.03222395
16	0xbc4c5377	-0.012471071
17	0x3cd3a105	0.025833616
18	0x3d76dded	0.06027024
19	0xbd26caa6	-0.040720604
20	0x3d0d2deb	0.03446762
21	0x3d232c5f	0.039837237
22	0x3c29c32e	0.010361476
23	0xbbdba2f4	-0.006702775
24	0x3c57e6bf	0.013177573
25	0x3b9cc2f6	0.0047839833
26	0xbd6e05c1	-0.058110956
27	0xbd030d66	-0.0319952
28	0xb93a67ed	-0.00017777058
29	0xbcc9fcb9	-0.02465664
30	0x3d2716ff	0.040793415
31	0x3ce74352	0.028230343
32	0xbcdaba48	-0.026700154
33	0xbaebf179	-0.0018001042
34	0xbd0557db	-0.03255449
35	0x3b4aa159	0.0030918925
36	0x3c959846	0.018261086
37	0xbd74948f	-0.05971199
38	0x3d6824cf	0.05667573
39	0x3ccb4483	0.024812942
40	0x3d194749	0.0374215
41	0x3c1f9d85	0.009742145
42	0x3c3ad0e6	0.011402344
43	0xbd36bc97	-0.044613447
44	0x3d2e6d5d	0.042584766
45	0x3d3a9bab	0.045558613
46	0xbbaf3ad2	-0.005347588
47	0xbd00cf97	-0.031447973
48	0x3d07de3c	0.033170924
49	0x3d394f7d	0.04524182
50	0x3be7ab9e	0.007070019
51	0x3d60d27a	0.054888226
52	0x3d13ca68	0.0360817
53	0x3ca92a93	0.020650184
54	0xbd7e569e	-0.062094323
55	0xbc1952fc	-0.009358164
56	0x3cdd7cbd	0.027037019
57	0xbd7e2f0e	-0.062056594
58	0x3c65e2c9	0.014031121
59	0x3ca42ba0	0.020040333
60	0x3cd46b4e	0.025930073
61	0x3d53c89e	0.051704995
62	0x3cbcda56	0.02305333
63	0x3c67f12b	0.01415662
64	0xbd576057	-0.05258211
65	0xbd4b0687	-0.04956677
66	0x3d3aa639	0.04556868
67	0x3d0b6207	0.034029033
68	0x3c4a2a67	0.012339211
69	0xbcbd4314	-0.023103274
70	0x3d3765e6	0.044774912
71	0xbcb633b4	-0.02224145
72	0x3cf8ea10	0.030385047
73	0xbbe2fa57	-0.0069268155
74	0x3d060744	0.032721773
75	0x3caffb89	0.021482246
76	0xbc0fbd3f	-0.008773147
77	0x3cb21b91	0.02174166
78	0xbd01869a	-0.031622507
79	0xbd11aff5	-0.035568196
80	0x3cdcb97f	0.02694392
81	0x3cce7caf	0.025205938
82	0xbc259e14	-0.01010849
83	0x3ade199e	0.001694489
84	0xbceea7af	-0.029132692
85	0x3d37b2d4	0.04484828
86	0xbc74e34a	-0.014946768
87	0x3c8dc8f2	0.017307732
88	0xbc537996	-0.012907406
89	0x3d32a6e9	0.04361621
90	0xbd35277d	-0.044227112
91	0x3d269f90	0.040679514
92	0x3d7a1b1b	0.061061006
93	0xbd2759c9	-0.04085711
94	0xbd58ef87	-0.052962806
95	0x3d05065a	0.03247676
96	0x3c7b4d20	0.015338212
97	0x3d1f6560	0.038915038
98	0x3c26b5ad	0.010175151
99	0x3cb216fa	0.021739472
100	0xbced8f07	-0.028998865
101	0x3d502057	0.05081209
102	0x3c906453	0.017625963
103	0x3a80d2e1	0.0009828472
104	0xbb61dc91	-0.0034463743
105	0x3c4fae01	0.012675763
106	0x3c85a45a	0.01631372
107	0x3d29763b	0.04137252
108	0x3c1edc9f	0.009696155
109	0xbcabc52b	-0.02096804
110	0x3ceb788e	0.028744008
111	0x3d7bdaa1	0.061487798
112	0x3cec8d63	0.028876012
113	0x3d3d827b	0.046267014
114	0xbd18e9c0	-0.037332296
115	0x3cc7bfe9	0.024383502
116	0x3d713ae1	0.058894042
117	0xbd2dee3c	-0.042463526
118	0x3bdfee94	0.0068338607
119	0xbc9ffb19	-0.019528912
120	0x3c3bd22d	0.011463684
121	0x3d2f3163	0.04277171
122	0x3c9888d9	0.018619942
123	0xbca9ed86	-0.020743143
124	0x3d6776dc	0.056509838
125	0xbd4bedb5	-0.049787242
126	0x3cccc782	0.024997476
127	0x3ce51deb	0.027968368
128	0x3b69acbc	0.0035655936
129	0xbd31429a	-0.043276407
130	0x3d45d83d	0.048301924
131	0xbb863853	-0.00409607
132	0x3bff541a	0.007792008
133	0xbc9ad147	-0.01889862
134	0x3d3545d8	0.04425606
135	0xbd0077a7	-0.03136411
136	0xbd55d412	-0.0522042
137	0x3c45552f	0.012044235
138	0x3b89bc33	0.0042033433
139	0xbd12a7dc	-0.035804614
140	0xbca1fee9	-0.019774871
141	0x3b734c20	0.0037124231
142	0xbcfa8b1c	-0.03058391
143	0xbcdadc04	-0.02671624
144	0xbcab70bc	-0.02092778
145	0xbb84c737	-0.0040520686
146	0xbd449c42	-0.04800058
147	0x3c46fb47	0.01214487
148	0xbd12c2ef	-0.035830434
149	0x3b9ee16f	0.004848651
150	0x3ccfd9f7	0.025372488
151	0xbc98d9cf	-0.018658547
152	0x3d2cd3f5	0.042194325
153	0xbd627652	-0.05528862
154	0x3d466b14	0.04844196
155	0xba7970e7	-0.000951542
156	0x3c721691	0.014775888
157	0x3d594ee5	0.053053755
158	0xbd7b694f	-0.061379727
159	0x3c1f73e4	0.00973222
160	0xbc1ef746	-0.009702509
161	0xbd0336e0	-0.032034755
162	0x3cde6963	0.027149862
163	0x3d2d5792	0.04231984
164	0xbca3fb40	-0.020017266
165	0xbc5386cb	-0.012910555
166	0x3d075a13	0.033044886
167	0x3c6dd84a	0.014516899
168	0xbc8a237b	-0.016862622
169	0x3c34ed09	0.011042842
170	0xbd3933d2	-0.045215435
171	0x3d6397ae	0.055564575
172	0x3cb5ce6a	0.022193152
173	0x3d302f0e	0.043013625
174	0xbd7aad13	-0.061200213
175	0xbd3a5441	-0.045490507
176	0xbcc8f6e1	-0.024531784
177	0x3d4227aa	0.047401108
178	0x3c4f49bc	0.012651857
179	0x3d683c9c	0.056698427
180	0xbd461440	-0.048359156
181	0xb927fed4	-0.00016021292
182	0x3d17053a	0.03687022
183	0x3d5f7d07	0.054562595
184	0x3d46ea65	0.04856338
185	0xbd2748bc	-0.04084085
186	0x3cdc65fa	0.026904095
187	0x3d166f9b	0.03672753
188	0xbcf333c5	-0.029687772
189	0xbc7d7ebe	-0.015472112
190	0x3cc3f20b	0.023919126
191	0x3cb1ef07	0.021720422
192	0x3d7282f7	0.05920693
193	0xbd4bb9bf	-0.04973769
194	0x3910e5d1	0.00013818523
195	0xbcae2beb	-0.021261176
196	0xbd426eec	-0.047469065
197	0x3d4802c0	0.048830748
198	0x3d0548fc	0.032540306
199	0x3d3bc8ef	0.045845922
200	0x3c717c2f	0.01473908
201	0x3ba53315	0.00504149
202	0xbd21c840	-0.039497614
203	0xbd2a0a39	-0.041513655
204	0x3c2772e3	0.010220262
205	0x3d50e245	0.050997037
206	0xbc50b3e0	-0.012738198
207	0x3ab80a84	0.001404122
208	0x3d08c236	0.03338834
209	0x3ccfbf69	0.025359826
210	0xbcac931f	-0.021066247
211	0x3d0851fc	0.03328131
212	0x3cdcd4fa	0.026957024
213	0x3d24836e	0.040164404
214	0x3d0491a5	0.03236546
215	0xbd20bab0	-0.03924054
216	0x3cfb0db4	0.030646183
217	0x3d4f8ad7	0.050669517
218	0x3c0ec560	0.00871405
219	0x3d1f7a48	0.038934976
220	0x3c66c92e	0.014086051
221	0x3acb34d2	0.0015503413
222	0x3d13dbb2	0.03609819
223	0x3d36c8e3	0.044625174
224	0x3d19dad7	0.037562218
225	0x3c096e36	0.008388093
226	0x3ca9e339	0.020738231
227	0x3c8ab664	0.016932674
228	0xbc588372	-0.013214933
229	0xbd61e78e	-0.05515247
230	0xbd35ff03	-0.04443265
231	0xbd3a2c50	-0.045452416
232	0x3d525c12	0.051357336
233	0xbd7340a1	-0.059387807
234	0xbd70e36d	-0.05881064
235	0xbc2aac3e	-0.010417042
236	0x3bf1befc	0.0073775034
237	0xbd3344c0	-0.043766737
238	0xba932495	-0.0011226112
239	0xbd5c150c	-0.05373101
240	0x3d798c12	0.060924597
241	0xbce791c8	-0.028267756
242	0x3d0f7c24	0.0350305
243	0xbca66ba3	-0.020314997
244	0xbd199a86	-0.03750088
245	0xbcbcf5e7	-0.023066474
246	0x3d37f1fd	0.044908512
247	0x3c1b3f46	0.009475535
248	0xbc6d172e	-0.0144708585
249	0x3d063dee	0.032773905
250	0xbd07b6ba	-0.033133246
251	0xbd1652ba	-0.036699988
252	0xbd257065	-0.04039039
253	0x3d571d3b	0.05251811
254	0xbb2b3949	-0.0026126674
255	0xbd1facef	-0.03898328

layers.3.weight f4 [2, 256]
0	0xbb1ff65a	-0.0024408312
1	0xba561702	-0.00081668806
2	0xba3a4ead	-0.00071070605
3	0x3b61f6f2	0.0034479466
4	0xb906220c	-0.0001279192
5	0x39ef40b7	0.0004563385
6	0xbb302c73	-0.0026881963
7	0xbb4d82e4	-0.0031358534
8	0x3b4036f0	0.002932962
9	0x3a046cbe	0.0005051604
10	0x3a74a9db	0.0009333172
11	0x3b0a9f9c	0.0021152264
12	0xbb0a1045	-0.0021066826
13	0xbb3b5234	-0.0028582932
14	0xba158b53	-0.000570466
15	0xbb62213f	-0.003450468
16	0x3a8317d8	0.0010001613
17	0xbb12043a	-0.0022280351
18	0x3a2cb792	0.00065886334
19	0xbb8fa24f	-0.0043833624
20	0xbb96e564	-0.004604982
21	0xbb7decba	-0.0038745836
22	0xb97a9943	-0.00023898952
23	0xbb324d04	-0.002720655
24	0x3a0f415e	0.00054647576
25	0x3b960ee2	0.004579411
26	0xbb1a83d9	-0.0023577122
27	0x3b86a29c	0.00410874
28	0x3aa68712	0.0012705049
29	0xbac9b69c	-0.0015389505
30	0xb9d48fe6	-0.00040543004
31	0x3a99601e	0.0011701619
32	0xbb6a59c5	-0.0035759073
33	0xb93fc452	-0.00018288314
34	0x3b19ef2e	0.002348851
35	0xbb853b76	-0.004065926
36	0xba1d6448	-0.0006004018
37	0xba9facf6	-0.0012182284
38	0xbb264a21	-0.0025373774
39	0xb9da66e5	-0.00041656863
40	0x3af68d65	0.0018810449
41	0x3b3f9509	0.002923312
42	0xba363431	-0.0006950526
43	0x3a2f0f7b	0.0006678027
44	0xbb8e6ea6	-0.0043466864
45	0xb8003125	-3.0563348e-05
46	0xbaed7053	-0.001811514
47	0x3b576b3c	0.0032870313
48	0x3b6c2f56	0.0036038957
49	0xbb0f6b81	-0.0021884146
50	0xbb0ef0e1	-0.0021811055
51	0x3b7ef71d	0.0038904615
52	0xbb2c2cae	-0.0026271748
53	0x3aeaf913	0.0017927013
54	0xbb1d006f	-0.0023956557
55	0xbb855716	-0.0040692193
56	0x37f7b6f4	2.9529889e-05
57	0xb94be81b	-0.00019446055
58	0xb9cef2f7	-0.00039472405
59	0x3a127963	0.0005587546
60	0x3afdbc37	0.001935846
61	0x3b8282cc	0.0039828774
62	0xbaa9ad49	-0.001294532
63	0xb9366dd4	-0.00017397787
64	0x3b2c84b6	0.002632422
65	0x3abf1c51	0.0014580583
66	0x3af582a6	0.0018730953
67	0x3ae8bda8	0.0017756717
68	0x3a6eafd5	0.00091051805
69	0xbb938bdf	-0.004502758
70	0xbb683b69	-0.0035435802
71	0xbb20ace5	-0.0024517116
72	0x3b86595f	0.0041000093
73	0xba4c19ca	-0.00077858253
74	0x3b528375	0.0032121812
75	0x3b150ba1	0.0022742527
76	0xbae043f2	-0.0017110093
77	0x39b942f0	0.00035335822
78	0x39a9ba82	0.0003237315
79	0x3b9915b0	0.004671775
80	0x3b8841fe	0.0041582575
81	0x3b460dc4	0.0030220607
82	0xbb0416d2	-0.0020155204
83	0x3b742b92	0.0037257415
84	0xbb1bb5d3	-0.0023759499
85	0xbb8ca64f	-0.0042922865
86	0x3b329df6	0.0027254797
87	0xbb0cd04c	-0.002148646
88	0xbb4e3ff0	-0.0031471215
89	0x3b7311ae	0.0037089395
90	0x39bdefb7	0.0003622749
91	0x3a8fd03a	0.001097209
92	0x3a93167c	0.0011221911
93	0xbb0a0b21	-0.0021063762
94	0x3a5f746b	0.00085241225
95	0xbb3dd156	-0.0028963885
96	0x3b9a2859	0.004704517
97	0x3b8ace9e	0.0042360565
98	0x3b0c487f	0.0021405516
99	0xbb7b9a5d	-0.0038391568
100	0x3a015e43	0.00049350056
101	0xba9d9930	-0.0012023803
102	0xbb8b32d3	-0.004248002
103	0x3aa242de	0.0012379547
104	0xbb8df5a3	-0.0043322607
105	0xba98a644	-0.0011646231
106	0xbae1dfd6	-0.0017232846
107	0x3a9bd5da	0.0011889294
108	0xbb196c49	-0.002341049
109	0x3b5490f0	0.0032435022
110	0xbb90e82d	-0.0044222088
111	0xbb50508f	-0.0031786298
112	0xbba12693	-0.0049179285
113	0x3b38c3e8	0.002819294
114	0x3b677f3d	0.0035323643
115	0x3a5b35c7	0.00083622005
116	0xbb317a11	-0.0027080814
117	0xbadfbeb5	-0.0017070385
118	0x3af7eae9	0.0018914613
119	0xba7c5ea3	-0.0009627139
120	0xbb964600	-0.0045859814
121	0x3b1af31f	0.0023643447
122	0xbb852e26	-0.004064339
123	0xbac5f5d4	-0.001510317
124	0x3814844c	3.540916e-05
125	0xba4a0f2e	-0.00077079504
126	0xbb2dc7a0	-0.002651669
127	0x3ab69340	0.0013929382
128	0xbaf44dff	-0.0018638967
129	0x3a36bda6	0.0006971009
130	0x3b7b3618	0.0038331803
131	0x3b2af3b1	0.0026085193
132	0x3b6918c1	0.0035567733
133	0xbb0cc43c	-0.002147927
134	0x3b31a735	0.002710772
135	0x39a65992	0.00031728722
136	0x3b497057	0.0030737126
137	0xb860e5fd	-5.3619955e-05
138	0xbb847258	-0.004041951
139	0xba2143ce	-0.0006151766
140	0xbb12a2ec	-0.002237494
141	0xb9b98a49	-0.0003538898
142	0x3aaf7f8e	0.0013389455
143	0xbbaa32ba	-0.0051940354
144	0x3b4a7b4c	0.0030896245
145	0xba2ad997	-0.0006517409
146	0xb9a93320	-0.00032272283
147	0xb8838e7b	-6.273106e-05
148	0xba717dc6	-0.0009212162
149	0x3a93442d	0.0011235528
150	0xbb1375a0	-0.002250053
151	0xba848f2f	-0.0010113473
152	0xbb60dd5b	-0.0034311626
153	0x3b6bced7	0.003598144
154	0x3b8ecfe3	0.004358278
155	0x3a06b93d	0.0005139297
156	0xb9e06093	-0.00042796563
157	0xbb294f1a	-0.0025834502
158	0xbb8e7461	-0.0043473695
159	0x3b8bad40	0.0042625964
160	0xbae8f4d4	-0.001777316
161	0xbb6cb47c	-0.003611832
162	0xbb3fc3f6	-0.002926109
163	0x3b3d6f99	0.0028905629
164	0xbb4f740b	-0.003165486
165	0xbb3049b0	-0.002689939
166	0x3b05ace1	0.0020397233
167	0xbafe6275	-0.0019408005
168	0xb9b6a78d	-0.0003483858
169	0x3b3da640	0.0028938204
170	0x390a049f	0.00013162427
171	0xbb71f333	-0.003691864
172	0x3b3c7c33	0.0028760552
173	0xbb375712	-0.0027975482
174	0x3b363b22	0.0027806242
175	0xbb813cb5	-0.0039440044
176	0xbaaa25ae	-0.00129812
177	0xbb8e5ec4	-0.004344793
178	0x3a9a0537	0.0011750822
179	0xbb77e32a	-0.003782461
180	0xbb827f96	-0.0039824946
181	0xbb9e3b60	-0.0048288554
182	0xbb6a0956	-0.003571113
183	0xbb890c25	-0.004182356
184	0xbb4c5e56	-0.0031184158
185	0xbbab042b	-0.0052190027
186	0x3b9b2e63	0.0047357543
187	0x3ac2385c	0.0014817822
188	0xb86d6e00	-5.660765e-05
189	0x3b9972cb	0.004682874
190	0xbab3d787	-0.0013720848
191	0x3a838333	0.0010033607
192	0xbb5b0c57	-0.0033424103
193	0x3a7c59c1	0.00096264115
194	0x3b31749c	0.0027077561
195	0xbb5c5347	-0.0033618973
196	0x39fe7822	0.0004853616
197	0xbb9bf81b	-0.004759801
198	0xba01014e	-0.0004921154
199	0x3b68b71d	0.0035509535
200	0xbb6b6f4b	-0.003592449
201	0x3b07f0bc	0.0020742854
202	0x3a5f425e	0.00085166644
203	0xbb85ed7c	-0.0040871482
204	0xbb28b98c	-0.002574536
205	0xbb91d0e0	-0.0044499487
206	0x3b5e46ba	0.0033916668
207	0x3ae4e16d	0.0017462202
208	0xbaa970ab	-0.0012927254
209	0x3b5e47c0	0.0033917278
210	0x3a984266	0.0011616468
211	0x3aa61be8	0.0012673112
212	0xbab61e3d	-0.001389451
213	0x3b27fa74	0.002563146
214	0x3b01133b	0.00196953
215	0x3b79fb7d	0.0038144283
216	0x3b8c0009	0.004272465
217	0xbb40bd75	-0.00294098
218	0xbb7d8970	-0.0038686655
219	0xba470de8	-0.000759332
220	0xba9c0963	-0.0011904653
221	0xbb79416c	-0.003803338
222	0x3b762035	0.0037555818
223	0x3b7b137e	0.0038311179
224	0xbb6a19c1	-0.0035720917
225	0xba14e0f4	-0.00056792726
226	0x3b4306ac	0.0029758615
227	0x3b9ca44c	0.004780328
228	0x3ab2a9db	0.0013630943
229	0xbb07161b	-0.002061254
230	0x3ba51c0a	0.005038743
231	0xbaf46741	-0.0018646495
232	0xb99011de	-0.00027479132
233	0x3b57ac07	0.0032908933
234	0x3ad0a977	0.0015919645
235	0xba42a88d	-0.0007425629
236	0xba449f61	-0.0007500556
237	0xba911797	-0.0011069652
238	0x3b74621f	0.003728993
239	0xb9cac0e2	-0.0003867215
240	0xbb7a1376	-0.0038158572
241	0xbb003cbc	-0.001956745
242	0x3b1c92b0	0.0023891144
243	0x3af6324d	0.0018783301
244	0xb851dfb9	-5.003784e-05
245	0xbab3f7dc	-0.0013730484
246	0xbb93eaec	-0.004514089
247	0x3b7fc8ae	0.0039029527
248	0xbb9c4cc4	-0.0047698934
249	0x3b7f112a	0.0038920143
250	0x3b41dfe1	0.0029582905
251	0xbb86ae41	-0.004110128
252	0xbb8763cb	-0.0041317693
253	0x3b260de4	0.002533787
254	0x3b30fe9f	0.0027007235
255	0xbb619f4f	-0.003442723

layers.3.bias f4 [2]
0	0xbd66da92	-0.05636079
1	0xbd08802d	-0.033325363
