old_figures/up2sept/18-SIREN-ncc-1e-05-2500-10000/epoch-1000.pth (torch, 534820 bytes, 8 tensors)

layers.0.weight f4 [256, 2]
00000000: f81b a8bd b7a8 4d3e 0d80 c4be 1a8c 8c3d
00000010: 31d8 e9be b0d1 9e3e 8590 f83e c6e4 36be
00000020: e17f 973d 7ed4 83be 9b88 a3be 6328 82be
00000030: ba9e 73be c9f3 c13d 84f9 68bd 54c0 0e3d
00000040: 49f9 c3be dfa5 a0be 1aad ddbe fb6f b8be
00000050: 2758 d63e 8323 3e3e 3af9 f3be 243e abbd
00000060: 9d6a 243d a86e 883e 8957 ed3e a22c f63d
00000070: a6fa b33e c98f 35be 340f 82bc c510 9abe
00000080: 73aa ea3d 0dce eb3e d56d a03e 7e77 fe3e
00000090: 08f2 65be c508 80bd 1410 d33d b65f cd3e
000000a0: 6055 ebbe 8660 7bbe cff4 943d 1a9c 93be
000000b0: cf01 3f3e 5a39 0cbd 0d3b 04be ebf3 883e
000000c0: b7b3 b63e 9821 f93e ba46 673e 446b 3fbc
000000d0: 91f5 d03e 01c1 cb3e 9615 80be 6be0 683e
000000e0: d7ad 723d 880a 5dbe ef52 f3bd 1cb8 f1bd
000000f0: 63fd b2be 9334 1cbe 5469 2c3e 5a43 bb3e
00000100: e58f 193d 4df0 f7be fa57 873e cd72 1bbe
00000110: 55a0 e43e f934 f7be 5e09 f1bd fc65 c63e
00000120: 433b 5d3e e62e 7fbe 85dd ddbe f207 a9bb
00000130: c24a 453e 2416 d4be b520 d6be 4f68 b5bb
00000140: e2fc d1bd 5d37 a43e 14f3 f7be 7e1d a2bd
00000150: 3531 c6be dd1d 96bd 1717 83be ae69 203e
00000160: eff6 d5be bb5b c9be c12c 91be 6f20 e0be
00000170: 0d53 a13e 33db 91bd 14f2 8dbe 7698 b33e
00000180: 9d7f e7bd fa25 843e b3c6 1dbe c32b d6be
00000190: 3c9a df3d 565c 9f3e 3b04 fabe 5662 533d
000001a0: d39a c83d db1b 6d3d ef48 38bc ec64 1fbe
000001b0: 84d0 c6be 6b2d a63d 25b7 abbe 2060 d3be
000001c0: d2e1 23be 1601 afbe 251a 1c3e 6a51 b63e
000001d0: 12d5 c63e ecbe 9ebe ae9a 8b3e 50d2 b53e
000001e0: 6e21 9d3b b714 583e d303 913e 5ca3 c33e
000001f0: 7c0f 893e d09e 593e 14a2 41be 82bb 8ebe
00000200: a8e3 71be e18c d23e baf3 f8bd 2835 9a3c
00000210: c6a0 eebe b927 b4bc e520 11be cf3a a5be
00000220: 1f06 c63e 5daa cebe 23e7 91bd 2d72 11bd
00000230: cda4 e7be 80c1 9a3e 69db 22be f279 653e
00000240: 99db 8e3e fabc e13e ea76 fb3d eb0c c03e
00000250: 7d23 ec3e 6fc2 ca3d 7835 d0bd 1733 0cbe
00000260: a7c7 a53d 26d4 373e 4752 f1be 13c2 bf3e
00000270: 0ce4 a13d d6e4 edbe 3471 243e 384e a23e
00000280: 8383 3f3e dbda d03e 1200 2a3c 8a0d d4be
00000290: e2de ccba ddb2 b93e 0b61 76be 49e6 5a3e
000002a0: 3917 eb3d b73f a6bd 285d 5b3b 078a 593e
000002b0: edf4 aebe 4282 a13e 9c39 ad3e 01a9 8f3e
000002c0: 2bcb ff3e 0468 b4bc e0aa b4be 0ff9 b93c
000002d0: ffb5 14be c7af 343e 2350 d83e 7a06 8cbe
000002e0: 931d ad3c 05a9 f83e 5f40 ccbe cb90 afbd
000002f0: fd50 f83e d006 b33e d7a4 143e 6cf6 5cbe
00000300: 7dd3 41bd cd6e e5be 8884 f1be 3c90 efbe
00000310: d4a1 f53e f68a ca3e 95cd 4a3e 9582 ffbd
00000320: f5c1 dc3e a670 07be b0c1 b13e d835 80bc
00000330: b6aa 70be 3415 0ebe 0554 dabd 8537 eabe
00000340: a794 183e 7cd9 1cbe 5ec8 6a3e b9ca a23e
00000350: 05ee a2bd acba 773e 9cdd cb3d 53ad ab3e
00000360: ed6a a5be 7e4b 32bd 1cf3 2abe d1e7 df3e
00000370: ab83 e5be afca 8fbe a22a 673d 2dd0 e23e
00000380: f5f6 ac3e 1b3c efbe 2235 b4be 71b5 f73e
00000390: 6203 953d 816a dbbe 8dd1 21be 4d6a 5f3e
000003a0: 3cd7 d5bd 645e c4be 6aec 9dbe 08b4 84be
000003b0: ce04 a1bc 627f 483e e89c 763e 0d96 78be
000003c0: 89d2 acbd f3be c5be 3575 c13e 8605 ff3e
000003d0: 898d f83e bd08 513e 5bcc dabd 462c 53bc
000003e0: e542 383e efcd ddbe 0f54 023d 3118 d0be
000003f0: 81fb ffbe 81b4 86bc 089b 22be 47dd a1be
-0.082084596 0.20083891 -0.38378945 0.0686266 -0.45672753 0.31019354 0.4854776 -0.17860708
0.07397438 -0.25748056 -0.3194016 -0.25421438 -0.23791018 0.094703265 -0.05687858 0.034851387
-0.38276127 -0.3137655 -0.4329613 -0.36022934 0.4186413 0.18568234 -0.47651082 -0.08361462
0.040140737 0.26646924 0.46355847 0.12020232 0.35152167 -0.17730631 -0.01587639 -0.3009092
0.11458292 0.46055642 0.31333795 0.4970054 -0.22455609 -0.06251673 0.10305801 0.40112084
-0.45963573 -0.2454854 0.07273256 -0.28830034 0.18653034 -0.034234382 -0.12913151 0.26748595
0.35683987 0.48658442 0.22585574 -0.011683289 0.40812352 0.39795688 -0.2501647 0.22741859
0.059247818 -0.21586049 -0.11881053 -0.11802694 -0.34958944 -0.1525443 0.16837054 0.36574823
0.037490744 -0.48425522 0.26434308 -0.15180512 0.44653574 -0.48282602 -0.11769365 0.38749683
0.21604638 -0.24920234 -0.43333068 -0.005158418 0.19266799 -0.41423142 -0.41821828 -0.005536116
-0.10253312 0.3207349 -0.4842764 -0.079157814 -0.38709417 -0.07329915 -0.25603554 0.15665314
-0.41789958 -0.39327797 -0.28354457 -0.43774745 0.31508675 -0.07121887 -0.27723753 0.35077256
-0.11303637 0.25810224 -0.15407829 -0.41830263 0.1091809 0.31125134 -0.48831353 0.051607452
0.097951554 0.057887893 -0.0112478575 -0.15565842 -0.3883096 0.081141315 -0.33538166 -0.41284275
-0.16004112 -0.34180516 0.15244348 0.3560899 0.38834435 -0.31005037 0.2726645 0.35512018
0.004795245 0.21101652 0.2832323 0.3821057 0.26769626 0.21251988 -0.18909484 -0.27877432
-0.23622 0.41123107 -0.12155862 0.018824175 -0.46607035 -0.021991597 -0.14172705 -0.3227143
0.38676545 -0.40364352 -0.07124164 -0.035509277 -0.4524292 0.30225754 -0.15904011 0.224098
0.27901915 0.4408949 0.122785404 0.37509856 0.46120825 0.099003665 -0.10166448 -0.13691364
0.08094721 0.17952022 -0.47133085 0.37452754 0.079048246 -0.4646365 0.16058809 0.317003
0.18702511 0.40791973 0.010375993 -0.4141658 -0.0015630389 0.36269274 -0.24060456 0.2137691
0.11479039 -0.081176214 0.0033472273 0.2124406 -0.3417124 0.3154469 0.33833015 0.28058627
0.49959692 -0.022022255 -0.35286617 0.022701768 -0.14522551 0.17645179 0.4224864 -0.2734869
0.021132266 0.48566452 -0.3989286 -0.08572539 0.4849929 0.34966135 0.14516006 -0.21578377
-0.04732083 -0.44811097 -0.47171426 -0.4678973 0.47975028 0.39559144 0.19804986 -0.124760784
0.43116727 -0.13226566 0.34718084 -0.015650675 -0.23502621 -0.13875276 -0.10660557 -0.45745483
0.14900456 -0.15317339 0.22927997 0.3179529 -0.07955555 0.24192303 0.09954378 0.33530673
-0.3230814 -0.043529026 -0.16694301 0.4373155 -0.44827017 -0.28084323 0.056437142 0.4429945
0.33782163 -0.46725544 -0.35196787 0.48380616 0.07276036 -0.42854694 -0.15802594 0.21817894
-0.10441443 -0.38353264 -0.30844432 -0.25918603 -0.019655611 0.19579843 0.24083292 -0.2427599
-0.08438594 -0.38622245 0.37784734 0.49808902 0.48545483 0.2041349 -0.10683509 -0.012888974
0.17994268 -0.43321177 0.031818446 -0.40643457 -0.4999657 -0.016443493 -0.15879452 -0.31614134

layers.0.bias f4 [256]
00000000: 27b8 07bf 07a2 fd3e 4201 d03e 40c9 31bf
00000010: 4dec 0dbf 76b3 eebe e911 c4be b095 b53d
00000020: 01e2 32bf f51d 06bf 27a2 a53e 9995 6cbe
00000030: a36b 90be b3af 15bf 7c12 933e e9c6 513d
00000040: 2963 8cbe d605 debe e73f 1a3e a7b6 443e
00000050: 90b8 a03e 7f41 583e 97ae dbbd ac2b 0cbf
00000060: 849e e63e 8b32 a1bb 607e f0be df0d 1c3f
00000070: 1562 ca3e 0320 0ebf 1f8f b4be 1ac2 76be
00000080: 03cc d0be 181e a93e 3404 01bf d626 283f
00000090: 4f46 95be 6479 d53e c81a cf3c 1857 9fbe
000000a0: 9baf f13e b002 0abf 00a9 bfbe 96cf ac3d
000000b0: 6aa6 0f3f 4008 9bbe 939f dcbe 060a e7be
000000c0: 3ffb 9fbe c9ee 79be c585 28be 0452 cebe
000000d0: 4d47 613e c983 c63b 7a44 ecbe 0fbc cebe
000000e0: 0d9f 193e 6b0c 2bbc b127 003f 56d2 ddbd
000000f0: 4da7 12bf 9dd1 05bf 6f37 55be 0064 20be
00000100: afa2 a33d a46c 23be 5e83 853e 8fd4 70be
00000110: d101 053f e909 293e 86e8 5dbe 0633 213f
00000120: b71e 383e b249 f6be 404b c9be 5129 e33e
00000130: 3802 a53e cb4a 0d3f 4557 5dbd 26c2 fc3e
00000140: 47d5 b33e 2244 603e 72dc 27be 239b 2e3f
00000150: 871e 123e bf67 3bbe 21cd 35bc 53e6 313f
00000160: a422 f33e e094 56bd 0143 313f 7208 9f3e
00000170: e315 c1be 68ae 24bf 7337 d23e 17bf 293f
00000180: 248c d2be 7dd5 943e 5a95 f33c bfb4 1abe
00000190: 2de3 44be 83a7 483e 24cb 203e 7ca3 f43e
000001a0: 5e60 843e fcb5 a43e bec5 1f3f 850c 613e
000001b0: e49e d73d 5ee4 83be 4de9 043f 2f7d d53d
000001c0: c56e e93e e291 2e3f ef0d 22be 94a1 fe3e
000001d0: ce3c 12be 443f 233f e070 0e3f 8db7 81be
000001e0: 40f0 d43c a50a 9ebe 9a72 92be 7d8f 11be
000001f0: 1cb1 88bb f36f 7bbe 16f4 2abf 7611 dbbe
00000200: e7f1 80bd 6069 66be fb75 063f e649 133f
00000210: b9aa e63e bd38 a03e 2ba1 0fbf b5f9 2a3f
00000220: 0292 1fbf 06f8 6dbe 2330 ffbe cb15 823e
00000230: 2cb0 16bf 6569 b2be f5e9 e5be 4631 dfbe
00000240: 8e87 a8be 2603 323f 8d38 70bd 46a6 5c3e
00000250: eba0 33bf 4b1a 213f 93e0 1dbe e620 26bf
00000260: 6299 f93e 6f1a 43be 1a57 243f d984 f5be
00000270: 84f5 27bf 3827 08bf 91b7 9c3e 2f02 a2bd
00000280: 9abe 27bf 7c64 063e d452 37bd feeb 823e
00000290: 8e3c b8be 47fa 00bf 894d f63e 3313 aebe
000002a0: 5ba2 fe3e abb8 123f df2e fdbe 1bf3 a6be
000002b0: 2a77 ad3d 0da4 2abf 42ec 5e3e f11b 97be
000002c0: 24d6 a0be 7fcc 0bbf 6a3e a93e 20e9 e6be
000002d0: ed9f 10bf 957b 3ebe 670e cabe bc3a 30bf
000002e0: fe69 913e 82ca 89be 66ba fd3e 149b fe3e
000002f0: d874 e6be ec09 d3be 9a23 80be d1df d33e
00000300: dd2d c5bc 15f9 80be 7950 e03e 68bb 2b3f
00000310: bad4 053f 2c63 0abf dbf2 16be 45c4 0abe
00000320: 9bb7 1a3f 12ff babe da32 cfbe cec7 413c
00000330: c9cc 28be ef21 893e 6309 b03d 2c09 d8be
00000340: a85b 033f ae49 e13e 7fb8 1e3e f1cb 23bf
00000350: 6add a93e 38b3 f03e bf9e 493e 5cf6 8bbe
00000360: c60f 423d e01c 8bbe 0b89 2a3f d394 2e3f
00000370: 9a34 a8bd 5ea8 f3be f206 d53e ff17 b93e
00000380: 71d3 bf3e 7d0d 08bf 62e5 753e 2ab0 9abe
00000390: 47fc 1ebf 2a12 fdbe 106e 993e a588 873e
000003a0: 4ea5 1ebf e34b cd3e 2f0e 0b3f 65bc 093f
000003b0: e2ac cc3e 8124 e3bd fe0e f33e 07a4 0d3f
000003c0: 19a5 bc3e 9537 02bf cc97 7cbe 632d 0f3f
000003d0: 5c2b 0a3f 6752 e73e 3e15 97be de01 0fbe
000003e0: 49e7 06bf c16a cebe 1ff2 0a3f cf59 14bf
000003f0: 8295 33be 8f6c 193e 5df6 d8be 7604 293e
-0.5301537 0.4953768 0.4062596 -0.6944771 -0.5543869 -0.46621293 -0.38294914 0.08866441
-0.69876105 -0.5238946 0.32350275 -0.23103942 -0.2820712 -0.5847122 0.2872504 0.051215086
-0.27419403 -0.43363827 0.1506344 0.19210301 0.3139081 0.21118735 -0.1072666 -0.5475414
0.45042813 -0.0049193553 -0.46971416 0.60958666 0.39527956 -0.55517596 -0.35265443 -0.24097481
-0.4078065 0.33030772 -0.5039704 0.6568426 -0.29155204 0.41694176 0.025281325 -0.31121135
0.4720429 -0.5391035 -0.37433624 0.084380314 0.561133 -0.30279732 -0.43090495 -0.45124835
-0.31246373 -0.24407496 -0.16457279 -0.40296948 0.21999855 0.0060581905 -0.46145993 -0.40377852
0.1500208 -0.010439972 0.50060564 -0.10831134 -0.5728653 -0.5227297 -0.20821927 -0.15663147
0.07990014 -0.15959412 0.26076788 -0.23518585 0.51955897 0.16507687 -0.21670732 0.6296848
0.17980467 -0.481031 -0.39315224 0.4436746 0.32228255 0.5519225 -0.054038305 0.49366874
0.35123655 0.2190099 -0.16392687 0.6820547 0.14269458 -0.18301295 -0.01109627 0.6949207
0.47487366 -0.052388072 0.69242865 0.3106113 -0.3771201 -0.6432862 0.4105793 0.66307205
-0.41122544 0.2906913 0.029734302 -0.15108012 -0.19227286 0.1959515 0.15702492 0.4778098
0.25854772 0.32170093 0.62411106 0.21977432 0.10528353 -0.25760168 0.5191849 0.104242675
0.45592323 0.6819135 -0.15825628 0.4973265 -0.14281008 0.6376841 0.55640984 -0.2533535
0.025993466 -0.30867496 -0.2860306 -0.14214893 -0.0041715037 -0.24554424 -0.66778696 -0.4278676
-0.06296139 -0.22501135 0.52523774 0.57534635 0.45052126 0.31293288 -0.561053 0.6678727
-0.62332165 -0.23239145 -0.49841413 0.25407252 -0.58862567 -0.34846035 -0.44905058 -0.4359228
-0.3291592 0.69536054 -0.05864768 0.21547803 -0.70167416 0.62930745 -0.154177 -0.6489395
0.48749834 -0.19053052 0.64195406 -0.47952917 -0.65609 -0.53184843 0.306088 -0.07910573
-0.6552521 0.13124269 -0.044756725 0.25570673 -0.359837 -0.5038189 0.4810603 -0.33999023
0.49733242 0.5731303 -0.49449822 -0.3260735 0.08469994 -0.6665657 0.21769813 -0.29513505
-0.31413376 -0.5460891 0.3305543 -0.45099735 -0.5649403 -0.1860183 -0.39464113 -0.6883962
0.28401178 -0.26912314 0.49556273 0.4972769 -0.4501102 -0.41218507 -0.25027162 0.41381696
-0.02406972 -0.25190035 0.43811396 0.67082834 0.5227772 -0.54057574 -0.1474108 -0.13551433
0.6043641 -0.36522728 -0.40468484 0.011827422 -0.1648437 0.26783702 0.085955404 -0.42194498
0.5131173 0.44001526 0.15500067 -0.63983065 0.33176738 0.47011733 0.19689463 -0.27336395
0.047378324 -0.27170467 0.6661536 0.6819584 -0.08213158 -0.4758939 0.4160686 0.3615112
0.37466004 -0.5314558 0.24013284 -0.30212528 -0.62103695 -0.4942792 0.29966784 0.2647144
-0.61970985 0.4009696 0.5431852 0.5380309 0.3997565 -0.11090947 0.47472376 0.5532841
0.3684471 -0.5086606 -0.24667281 0.5592863 0.5397241 0.45180055 -0.29508394 -0.13965556
-0.52696663 -0.40315822 0.542757 -0.5794954 -0.17537501 0.14982818 -0.4237546 0.16505608

layers.1.weight f4 [256, 256]
00000000: 4bae 953b 97a3 00ba 12a1 6ebb 4243 863b
00000010: 6e41 e5ba 9fef 9fba 03f6 4e3b 950b 08b9
00000020: 3a84 49b9 ab7a 7cbb 7f2e 55bb 924d 2e3b
00000030: afea 853b 03c9 d039 ff4f d8b8 f16a 7a3b
00000040: 9cfb f6b8 e7aa 56bb a595 ebba 813c 773b
00000050: 2c53 273b 447b 383b 2b90 96ba f2e9 d93a
00000060: d59e 263b ed27 c23a 0fa3 823b ae43 7939
00000070: e87c 3039 aaa1 44bb e257 7eba 9a4a 023b
00000080: fb7b 8c3b 2587 3d3b 5f02 9f39 acc2 2ebb
00000090: 5a1f 56bb d2b8 b53a 6511 f5ba 8b48 1b3b
000000a0: c9ca 07bb 5e2f c539 9d0f 833b 53b4 1a3b
000000b0: 1faa 4f3b 5b8f 473b e121 2cbb 7280 0dbb
000000c0: 294d 683a 164e 0d3b b8a2 2d39 0ec9 86ba
000000d0: 7447 263b 72ea 12bb 068b 53bb 3702 9739
000000e0: 4d77 2d3b 3f57 0abb a07c 76ba 5cc4 023b
000000f0: 16aa 25bb 713b e6ba 9476 ea3a e486 2c3b
00000100: af2a 893b 3689 5f3b 8590 063a aaf7 01bb
00000110: b306 663b bd0e 4c3a b382 853b c572 2b3b
00000120: a68b 31bb a05d 63bb a757 5d39 1556 71bb
00000130: de40 15ba 3df7 c73a 3abc 8239 1605 633b
00000140: 5c86 233b 16bb db3a 7bfc 7b3b a091 d0ba
00000150: 8ba4 8abb 4984 7f37 98cf f23a d587 6d3a
00000160: 5de2 95ba 6611 35bb e453 51bb f770 2eba
00000170: 1d35 923b e337 923b d4f6 d03a 876d c7ba
00000180: 4902 4fbb 3641 63bb 09a5 853b 526f 40ba
00000190: 200a 29bb 159e 45bb bac2 613b 8986 7f3b
000001a0: 2bf4 b8ba b7a3 aeba aec8 0cbb 464e 3abb
000001b0: c057 a5ba bb68 2e3b 31e4 203a c075 b33a
000001c0: 7b76 09bb 580f 363a 3dbf 2f3a c134 6abb
000001d0: 3d9a 303b 862a 7abb 3bad 77ba 3da8 5f3b
000001e0: 604e 023b c8f8 50ba e903 b539 b498 67bb
000001f0: 127e 493b 1a4e 8e3b 4cb5 58ba 71c2 9bbb
00000200: 1ea5 6b3b abc8 1fbb 92fa 50ba 55d2 0138
00000210: 7438 99ba de55 84bb 977e 0b3b f75a e839
00000220: b794 663b 478f 91bb 7276 863b 4796 aeba
00000230: 0992 ef3a 445d 3dbb 0711 3cba aa43 40bb
00000240: af4b 793b d14d abba 38d9 983a 5606 36ba
00000250: 2dab 7dbb 4f68 28bb 3df3 94ba 9b44 13bb
00000260: 7234 37bb 83e1 c83a 2174 6c3b d5b2 ee3a
00000270: fb5f 65bb e020 653b 00ef 2e3a 7abe ab3b
00000280: 71c7 19bb 0f76 ecb8 582e e4b9 3a88 5fba
00000290: cbaa 8f3b 9019 a63a 1b00 e03a 6f55 273b
000002a0: c94e 21bb c147 423b a594 07bb 3b07 0cbb
000002b0: f40b 3abb e817 7fbb b7ef 37bb 9a06 6e3a
000002c0: 62fd 623a 40c2 333b ac1d 333a 49ef 043b
000002d0: c401 5d3b 741a a23a c186 9dbb b029 363a
000002e0: ff80 cdba 2a58 8abb 76a6 adba 74db 80ba
000002f0: 1574 71bb 254d 61bb cffc ceba 1619 ff3a
00000300: 42d0 883b 379f 5c3a 56ae 4b3b eff6 813b
00000310: 0c4c 07bb 3e71 c03a e785 5b3a 3cae 493b
00000320: 9c7b a7ba a51b 843b bd5a 723a c871 75bb
00000330: 907e 79ba 2605 393b 6936 6ebb d872 b33a
00000340: a889 803b 37e6 11bb b6b2 e1ba fad5 39b9
00000350: 7bf9 2cba 4a0e 883b 9ad0 363b b43e 9eba
00000360: 75b8 bcba 1aa4 10bb 0662 293b 2ea2 0d3b
00000370: 40d3 18bb 569d e039 af2f b9ba f943 56bb
00000380: 2bea 2d3b a139 bcb9 9049 993b a375 563b
00000390: 90a1 63ba bd42 5fba 4b1d 5f39 140a 753b
000003a0: 3287 85bb 8f03 563b 49d5 37ba ab7e 573b
000003b0: 2163 88bb b49d 5b3b 7632 21ba b16f 223b
000003c0: 4c7a 4dbb c4a5 063a 3b7e ceba 8397 8dba
000003d0: 21c5 28bb 4b44 77bb 387f b4ba 5ac7 5cbb
000003e0: a1db 863b f580 eeba de84 503b 6e9a 943a
000003f0: 72b1 13bb d196 a73a 6153 9f3b bd99 b439
0.0045678965 -0.0004907189 -0.0036411923 0.004097373 -0.0017490813 -0.001220215 0.003157974 -0.00012974285
-0.00019218112 -0.0038525264 -0.0032528935 0.0026596528 0.0040868144 0.00039822617 -0.00010314583 0.0038210715
-0.0001177706 -0.0032755674 -0.0017973675 0.0037725272 0.0025531752 0.0028149644 -0.0011487057 0.0016625507
0.002542426 0.0014812924 0.0039867233 0.00023771703 0.00016831199 -0.0030003586 -0.00097024266 0.0019880892
0.0042872406 0.0028919664 0.0003032861 -0.0026666326 -0.0032672496 0.0013864285 -0.00186972 0.0023694362
-0.0020720235 0.0003761006 0.003999664 0.0023606017 0.0031687093 0.0030450437 -0.002626531 -0.0021591452
0.00088615954 0.0021561435 0.00016559183 -0.0010283308 0.002537218 -0.0022417572 -0.003227891 0.00028802615
0.0026468814 -0.0021109132 -0.0009402726 0.0019953465 -0.002527838 -0.0017565322 0.0017888122 0.0026325518
0.0041859965 0.0034108884 0.00051332294 -0.0019831457 0.0035099208 0.00077841786 0.0040744185 0.0026160937
-0.0027091294 -0.0034693256 0.00021108855 -0.003682499 -0.0005693565 0.0015256178 0.00024935772 0.0034640483
0.002495191 0.001676413 0.003845005 -0.001591254 -0.004231041 1.52299845e-05 0.0018525003 0.0009061073
-0.0011435259 -0.0027628778 -0.0031940872 -0.00066544063 0.004461898 0.0044622286 0.0015942701 -0.0015215137
-0.0031587055 -0.003467632 0.0040785116 -0.0007340807 -0.0025793388 -0.0030154039 0.0034448341 0.0038990101
-0.0014110854 -0.0013323937 -0.002148192 -0.0028428002 -0.0012614653 0.0026612717 0.0006137519 0.0013691708
-0.002097516 0.00069450354 0.0006704217 -0.003573701 0.0026947402 -0.0038172319 -0.00094481156 0.0034127377
0.001988314 -0.00079716416 0.00034525924 -0.003533882 0.003074531 0.0043428065 -0.00082667614 -0.004753404
0.0035956572 -0.0024381082 -0.0007971908 3.0951884e-05 -0.0011689798 -0.0040385565 0.002128517 0.00044318262
0.0035183856 -0.004442129 0.0041034753 -0.0013319933 0.0018277775 -0.0028894702 -0.0007174168 -0.0029337206
0.0038039496 -0.0013069456 0.0011661416 -0.0006943693 -0.0038706765 -0.0025696938 -0.0011363995 -0.0022471312
-0.0027954844 0.0015325997 0.003607996 0.0018211255 -0.0034999836 0.0034962222 0.0006673187 0.0052412124
-0.0023464824 -0.00011275347 -0.00043522078 -0.0008527074 0.004384374 0.0012672413 0.0017089875 0.00255331
-0.002461361 0.002964482 -0.0020687964 -0.0021366614 -0.0028388472 -0.0038924161 -0.0028066465 0.0009079963
0.0008658973 0.0027429014 0.00068327296 0.0020284227 0.0033722976 0.0012367503 -0.0048073237 0.0006948961
-0.0015678703 -0.0042219358 -0.0013248462 -0.0009831027 -0.0036842872 -0.0034378257 -0.0015791896 0.0019462432
0.004175217 0.0008416059 0.0031079254 0.0039662044 -0.0020644693 0.0014682186 0.000837414 0.0030774018
-0.0012777927 0.004031616 0.00092450884 -0.0037451852 -0.00095174555 0.0028231828 -0.003634835 0.0013690842
0.00392266 -0.0022262463 -0.0017219398 -0.00017722687 -0.0006598455 0.004152094 0.0027895332 -0.001207313
-0.0014398234 -0.0022070468 0.002584578 0.002161156 -0.0023319274 0.00042841834 -0.0014128591 -0.0032694323
0.002653728 -0.0003590109 0.004677959 0.0032723926 -0.00086834375 -0.00085167197 0.0002127785 0.003739004
-0.0040749544 0.003265593 -0.0007012678 0.0032881896 -0.0041622077 0.0033510746 -0.0006149182 0.0024785812
-0.0031353412 0.00051363953 -0.0015754172 -0.00108026 -0.0025752264 -0.0037729915 -0.0013770824 -0.0033688159
0.0041155373 -0.0018196391 0.0031817476 0.0011337528 -0.0022536186 0.0012786036 0.0048622345 0.0003444682

layers.1.bias f4 [256]
00000000: 2384 523d 030a 17bd c05c 743b d93e 713d
00000010: cf79 353d b528 08bc 9929 23bd db9a 70bd
00000020: 7010 a9bc 512c 5d3d 63b1 163c aaeb 12bd
00000030: 7d93 9cba ca4f f53b 9ee0 d23c f6d1 363d
00000040: a661 743d afbf 60bc 9aae 523c 8306 193d
00000050: c34d 34bc cdf5 793c 4f45 50bd 14cc ca3a
00000060: c0e1 38bb 735e e93c ce60 b33c 2268 523d
00000070: 95d3 613d 3e75 5b3d ba8f 143d 1f31 0abd
00000080: 1444 3c3d 16d1 bd3c 6357 7bbd 1dce 183d
00000090: 7fd1 babb edf3 34bc 4d41 1bbc ce15 2ebd
000000a0: 2950 323c 2f5b b23b 507b fdbc b7b3 d93c
000000b0: 41c9 453d b6ce cabc 753f 203b e193 3abc
000000c0: fad7 133d dfa7 153d f7f7 77bd ee88 5ebd
000000d0: f127 eb3a 170f 9cbc 2445 08bd c899 fcbc
000000e0: ce31 b33c 2e3a 533d 97c2 54bd 6d4d 9fbc
000000f0: a33f 99bc ec5a f9bc 5e00 50bc 05ad 063c
00000100: 67c0 80bc c572 45bc 586b ad3c 466f 2e3b
00000110: 45de c73c 4dc4 333d 3c66 f0bc 2698 23bd
00000120: ea0e c3bc 9e46 3cbd 9cfc 28bd f946 4abc
00000130: 47ec 44ba 23ec 26bd f29e b13c fea3 4f3d
00000140: 1e1b 7bbd 8c1d 3d3c 3c6f d1bc aec9 27bd
00000150: d291 b63c bd37 71bd 2c97 65bd 884f 103c
00000160: 815a 80bc 4ada 6fbc a3a5 723d 3981 aebc
00000170: 53f0 f93c 525f a93c 467a 3f3d d792 2a3d
00000180: 7586 a9bc 4d4a 9f3c a82c 4c3d 3d67 583c
00000190: b3d4 863c 2440 31bc 3224 34bd 8087 1dbc
000001a0: 2972 4ebd b25d 723d bf68 653d 609f 8a39
000001b0: 3d92 94bc 578c 0dbd 2958 9ebc 8b99 1cbc
000001c0: ec41 6bbc 34fa 733d a232 10bd 5b73 2c3d
000001d0: 42cf 8abc 5d5f 3bbd 4a7a 7b3c 863e 163c
000001e0: 3bc9 603d d1df 6ebd 46f9 bc3b 8cd3 4bbd
000001f0: 09a0 0ebc 2c18 8ebb 9fe5 76bd 73bf c6bc
00000200: 5a13 c1bc a822 763d 8d9c a5bc c85c a9bc
00000210: 1edc 273d 5bf1 3e3d 7fec 393d ebb3 3ebc
00000220: 1204 06bd 4085 45bd d863 47bd 8cc6 f5bb
00000230: ad2f 7d3d dd32 9cba e16b 23bc 616a 6a3c
00000240: 4ad6 f43c b754 70bc d75e 443d 03dc f63c
00000250: 7835 4d3a 2132 fa3c 7064 21bd 273a e4bb
00000260: 07e1 d23c 4ef4 b33c a7ae 78ba c531 9bbc
00000270: caec 0c3c 89f7 8cba 4d58 7bbd 6ea4 513d
00000280: 6745 08bd c12d 363d a929 163d 2fd8 ccbc
00000290: a1f1 a13b 1ed5 cabc 6045 d83c d33e 833a
000002a0: ca7f 4c3d 2cca 14bd 8093 623d 53a9 e53c
000002b0: a610 7c3d 85cc 7e3c 8705 413c 7dca 333d
000002c0: 0d9e 76bd 11fd 103c 70e3 ac3c 462b 4ebd
000002d0: b806 26bd 04db 76bc 3308 f3bc 1fb2 613d
000002e0: 5fb0 bd3c 8c14 6abc 3ee0 1d3a eedd 7bbd
000002f0: 3e5d 84bc fe3d 0a3d 3183 8439 8eea 953b
00000300: 9f0e 103b 84e2 303c d4ae 213c 7e1d 2d3c
00000310: c103 d33b e793 7c3d 85a5 7d3c c569 503d
00000320: 68a5 78bb 5ec5 2c3d 69a2 083d f83c a6bc
00000330: b10a a9bc 03ac 1fbd 4265 743c b311 233d
00000340: 4281 07bd 0964 1bbd e418 02bd 1940 ebbc
00000350: 7657 1f3d 1c44 503d 2221 bebc 3615 83bb
00000360: bcab 973c 5dec 91bc 1310 6e3d 2104 f5bc
00000370: b203 8fbc ecc1 41bd 6ceb 32bd 88a4 94bb
00000380: c413 78bd 0de7 73bd a5d0 9b3b 9412 40bd
00000390: 3900 113d c671 4fbd 8b5b 7b3d a512 963a
000003a0: b7e4 db3c 2e84 9abb 5aef 973c d10a 1fba
000003b0: 11c9 61bd 5ef2 7e3d dfd7 b8bb 1ac1 e83c
000003c0: ee49 e9bc b227 203c 6327 953c 9777 723d
000003d0: e730 6dbd 71a5 7d3d b409 543b 267a 93bc
000003e0: 37a1 033c 74d7 6b3d 32e2 eb3b 334d 96bc
000003f0: 0e7e 7dbc 392b 47bd 6442 73bd f0bd 793d
0.051395547 -0.036874782 0.0037286729 0.058897827 0.04430562 -0.008310487 -0.039834592 -0.05874143
-0.02063772 0.05399734 0.009197566 -0.035869278 -0.001194581 0.0074863182 0.025741871 0.044633828
0.059663437 -0.013717576 0.012859011 0.037359726 -0.011004868 0.015256357 -0.050847348 0.0015472197
-0.002821073 0.02848742 0.021896746 0.05136884 0.05513342 0.053578608 0.03626988 -0.03373825
0.04596336 0.023170989 -0.061362635 0.03730594 -0.0057012434 -0.011044485 -0.009476018 -0.042501263
0.0108833695 0.005442999 -0.030942589 0.026574953 0.048287634 -0.02475677 0.0024451886 -0.011387796
0.036094643 0.036537047 -0.060539212 -0.054329805 0.0017940981 -0.019050164 -0.033269063 -0.030835047
0.021874335 0.051569156 -0.051943388 -0.0194461 -0.018707102 -0.030438863 -0.0126954 0.008219962
-0.015716745 -0.012051289 0.02116935 0.0026616617 0.024397979 0.04388838 -0.029345624 -0.039940022
-0.023810823 -0.045965783 -0.041256532 -0.012346023 -0.00075120147 -0.04075254 0.021682236 0.050693505
-0.061305158 0.011542689 -0.025565736 -0.04096382 0.02228633 -0.058891047 -0.05605237 0.008808024
-0.015668156 -0.0146394465 0.059239995 -0.021301853 0.030510103 0.020675335 0.04674747 0.041643944
-0.020693997 0.019444609 0.049847275 0.013208208 0.016458845 -0.010818515 -0.04397983 -0.009614825
-0.05040184 0.059171386 0.056008097 0.00026440155 -0.018136138 -0.034557667 -0.019329147 -0.009558092
-0.014358979 0.059564784 -0.035204537 0.0421022 -0.016944531 -0.045745242 0.01534898 0.00917018
0.05487941 -0.058318917 0.0057670204 -0.049762294 -0.008705148 -0.0043363776 -0.060277577 -0.024261212
-0.023568798 0.060091645 -0.02021625 -0.020674124 0.040981404 0.046616893 0.045391556 -0.0116395755
-0.032718726 -0.04822278 -0.048679203 -0.0075004753 0.061813045 -0.0011917014 -0.009974451 0.014307589
0.029887337 -0.014668635 0.04794201 0.030134207 0.0007828097 0.030541481 -0.039402425 -0.00696494
0.025742067 0.02196708 -0.00094864744 -0.01894463 0.008601377 -0.0010754924 -0.061363507 0.051182203
-0.033269312 0.044477228 0.036660824 -0.025005428 0.0049421345 -0.024759825 0.026400268 0.001001323
0.049926557 -0.03632562 0.05531645 0.028034842 0.061539315 0.015551691 0.011781103 0.04389428
-0.060209323 0.008849398 0.021104544 -0.050334238 -0.04053375 -0.015066866 -0.029666996 0.05510151
0.02315539 -0.014287125 0.00060224894 -0.061490946 -0.016157743 0.033750527 0.00025274747 0.0045750802
0.002198137 0.010796193 0.009868342 0.0105661135 0.0064396565 0.06166449 0.015481357 0.05088212
-0.0037940387 0.04218041 0.03335801 -0.020292744 -0.02063498 -0.038982403 0.01491672 0.0398118
-0.033082254 -0.037937198 -0.03176202 -0.028717088 0.03890177 0.050846204 -0.023209158 -0.0040003313
0.018514507 -0.017812902 0.0581208 -0.029909195 -0.017457817 -0.04730408 -0.043681547 -0.004536215
-0.060565725 -0.05954652 0.004755097 -0.046892717 0.035400603 -0.050645612 0.0613666 0.0011449648
0.026842458 -0.004715464 0.018546749 -0.00060669804 -0.055123392 0.062242858 -0.005640968 0.02841239
-0.028477635 0.009775089 0.018207258 0.05919608 -0.057907965 0.061925355 0.0032354416 -0.01800258
0.008034042 0.05757852 0.0071985954 -0.018347358 -0.015471948 -0.048625205 -0.059389487 0.060972154

layers.2.weight f4 [256, 256]
00000000: 74b2 dbba 1be3 953b 6ac8 993b 2da9 823b
00000010: 870f 77bb 99d9 9dbb d0f8 8fbb a145 2f3a
00000020: e122 2f3b 1b85 68bb fd71 fdba 90c3 97bb
00000030: 34b8 973a 2f5f c03a b247 553b afdf 103b
00000040: d0f5 5ebb 1f62 f039 ae1a 17bb 18bd 71bb
00000050: 2cb8 823a 16d0 9d3b efa6 22bb c39e 2dba
00000060: 6c9b 9e3b 1c13 0b3b 4468 973b a1ad 62bb
00000070: c263 743b 0824 3cbb 2b4c 0ebb e74e 8a3a
00000080: b016 23bb a00f 87bb 9e42 2c3b 4632 90bb
00000090: 7f33 55bb f5c7 5d3a fee1 b2ba 037a 323b
000000a0: 2e53 aa3b aec7 41bb 2a1c 83bb 48c3 0f3b
000000b0: 153c 013b 29f6 f3ba c380 90ba 7e2d 89bb
000000c0: a7e2 40b9 7fe1 13bb 2a23 a3ba 7383 693b
000000d0: 9259 00bb 1987 303b 9d5d 833b 86da 983a
000000e0: f15d 843b fde0 22bb 6936 2bbb efe5 35bb
000000f0: f7c6 28b9 dd00 5fbb 311d 50bb e1ac 8d3b
00000100: 5312 413b 5bfe ab3a fd61 69bb 7b0d b3bb
00000110: 6e75 56ba 7055 9cb8 be03 81ba 6866 d1ba
00000120: 65a8 793b 0065 c638 a68e 41bb 57d8 b7ba
00000130: f946 26bb a815 8639 b960 3c3a e976 363b
00000140: f6b0 eeb9 aa41 70bb 98dc 313b 8f63 25bb
00000150: 6464 493b 6991 86bb 055c 493b e367 85bb
00000160: 6b7e 6bba d376 2ab9 e332 8bbb b203 053b
00000170: 08f1 90bb 5e04 6eba 1dac 37ba d0d4 d0ba
00000180: fbc6 b0ba 221e 4cbb 04f1 153a 0f10 a4ba
00000190: f3cd bcb8 38e3 4e3b 2223 80bb e1ec 2c3b
000001a0: d0f4 5b3a 04b8 d2ba 880e 373b 2e9b 2e3a
000001b0: 17ce 5f3b 9641 56bb 3e8b 653b 2f8a 99bb
000001c0: 6e78 adba 80f3 85bb 51c0 85b8 a654 213b
000001d0: 80e7 693b e4c0 0c39 40d8 533b c6a5 ff3a
000001e0: 0802 053a 60bf 383b 54f8 6dbb c3ec 52bb
000001f0: a640 6fb9 559d e5ba 8703 17bb 3fce 96ba
00000200: c86d 85bb 55b8 953b 3903 3cba 68b2 b2ba
00000210: 1dfb fa38 41c1 8d3b 2a7e 8b39 ff57 58b9
00000220: 7f2d 14bb 9381 88b9 fde5 9f3a 1fb8 853b
00000230: 73c1 d239 dda5 503b ae4e aeba f8a8 873b
00000240: c850 14bb c7ca 95bb 48f4 803b 0cfb 203a
00000250: 106d bd3a a19a 6d3b d48e 91bb 1909 a5b9
00000260: 4439 4f3b 1cb4 7ebb d1cc 1d3b 5efe 46bb
00000270: 3614 d6ba 0cf9 5d3b 4af2 5fbb 0533 993b
00000280: 8846 183b 7c65 47bb 2f13 b8b9 a5df 993a
00000290: e52c e3ba e3a6 f13a 5308 78bb 8b51 98ba
000002a0: d0b1 b7b8 5381 c539 db41 10bb 8817 00ba
000002b0: 8309 ca3a 9a30 16ba 621d 883b 2304 e639
000002c0: 8649 5dbb 91ff 95bb 4b96 9e3a 5d59 203a
000002d0: 2a3f 40ba c536 1b3b d1b6 51bb 5284 5fbb
000002e0: a1d1 353a b10a 78bb 2339 633b 53e0 20ba
000002f0: f1ec f13a 036d 73bb 19a3 533a e74a 01bb
00000300: be5a 9cb9 8c02 3bbb 490d 80bb dfd1 943a
00000310: c889 8e3b 6f35 77ba d84d 8cb7 0ea8 35ba
00000320: e37b 873b 5ed4 61bb 523f a939 abb8 dc38
00000330: 5ed8 833b 520b 453a ef96 81ba 09b6 ce3a
00000340: 1e25 54bb e590 553b 1e1a 2abb b54a b33a
00000350: bbf8 803b 9d84 2e3b 5f51 39b9 e3d8 4fba
00000360: dc4f 923b 7fc3 a03a 22db 26bb 69aa 883b
00000370: 93b3 49bb 028d 40bb f5e8 87ba 032a 4d3b
00000380: b892 81bb ebde 4f3a ea88 283a 5756 2ebb
00000390: 96d9 393b d3e9 083b 2e3a 5abb 13d9 803b
000003a0: 4423 923b 6fdd 023b 6aa7 6d3b 5c7c 91b9
000003b0: 5d31 203b cb0b ceb9 20e6 913a 4c57 933b
000003c0: d09a 00bb 2d13 fcba 7429 4fbb e5b0 80b7
000003d0: 01c3 90bb f454 38bb 9893 253b d644 8e3a
000003e0: 6847 8f3b b2ea 84bb ba5a 88bb 72db 8bba
000003f0: 34b3 af3a 4c44 62bb 1cd3 753a 5ec8 ffb9
-0.0016761557 0.004574192 0.0046930807 0.0039874525 -0.0037698464 -0.0048171994 -0.0043936744 0.0006686096
0.002672367 -0.0035479728 -0.0019336339 -0.004631467 0.0011575283 0.0014676804 0.0032543954 0.0022105982
-0.0034021027 0.00045849473 -0.0023056674 -0.003688639 0.00099731 0.0048160655 -0.0024818738 -0.00066230836
0.004840305 0.0021221107 0.0046205837 -0.0034588354 0.0037290906 -0.0028708 -0.002171288 0.0010552079
-0.002488535 -0.0041217357 0.0026284824 -0.0044005243 -0.0032531915 0.0008460277 -0.0013647673 0.002723337
0.005197904 -0.0029568481 -0.00400116 0.0021936465 0.001971965 -0.001861279 -0.0011024702 -0.0041863313
-0.00018394981 -0.0022564826 -0.0012446393 0.0035631328 -0.0019584638 0.0026935993 0.0040089623 0.0011661805
0.004039519 -0.0024853342 -0.002612496 -0.002775546 -0.00016095849 -0.0034027614 -0.003175568 0.0043235873
0.0029460385 0.0013122068 -0.0035611384 -0.0054642535 -0.00081809505 -7.454574e-05 -0.0009843034 -0.0015975954
0.0038094756 9.4601884e-05 -0.0029534488 -0.0014026266 -0.0025371893 0.00025574607 0.00071860437 0.0027841872
-0.00045526744 -0.0036660233 0.002713954 -0.0025236343 0.0030730003 -0.0041066897 0.0030725014 -0.004071222
-0.00089833763 -0.00016256729 -0.0042480095 0.0020296392 -0.0044232644 -0.000907963 -0.0007006543 -0.0015932564
-0.0013487035 -0.003114589 0.0005719813 -0.0012516993 -9.0028996e-05 0.0031568538 -0.003910438 0.0026386308
0.0008390667 -0.001607657 0.0027932245 0.0006660697 0.0034149939 -0.00326929 0.0035025622 -0.004685662
-0.0013234743 -0.0040878654 -6.377756e-05 0.0024617105 0.0035690963 0.00013423298 0.003232494 0.001950436
0.000507385 0.002819024 -0.0036311345 -0.0032184578 -0.000228169 -0.0017518202 -0.0023042874 -0.0011505558
-0.004071925 0.004569093 -0.0007172111 -0.0013633491 0.000119677024 0.004326016 0.00026606146 -0.00020632146
-0.0022610126 -0.00026036482 0.0012199279 0.004080787 0.00040198452 0.0031837143 -0.0013298595 0.0041400157
-0.0022631157 -0.004571292 0.0039353706 0.00061409245 0.0014452059 0.0036255496 -0.0044420753 -0.0003147803
0.0031619826 -0.0038864678 0.002407838 -0.0030364017 -0.0016332928 0.0033870367 -0.0034171515 0.0046752715
0.00232354 -0.003042548 -0.00035109508 0.0011739625 -0.0017332105 0.0018436577 -0.0037846758 -0.0011620981
-8.75924e-05 0.00037671122 -0.002201191 -0.0004886319 0.0015414212 -0.0005729288 0.0041538933 0.000438721
-0.0033765747 -0.004577585 0.0012099234 0.0006116832 -0.0007333631 0.0023683768 -0.0031999836 -0.0034105969
0.0006935839 -0.003784817 0.0034671507 -0.00061369425 0.0018457455 -0.0037143833 0.00080733147 -0.0019728483
-0.00029822247 -0.0028535454 -0.0039078337 0.001135405 0.004349921 -0.00094302645 -1.672555e-05 -0.0006929644
0.0041346415 -0.0034458856 0.0003228137 0.000105248146 0.0040235957 0.00075166405 -0.0009886901 0.0015770803
-0.0032370756 0.0032587585 -0.0025955508 0.0013678881 0.003935901 0.0026629337 -0.00017673288 -0.0007928742
0.0044650864 0.0012265294 -0.0025460203 0.004170705 -0.00307772 -0.0029380922 -0.0010369109 0.0031305559
-0.003954258 0.00079296407 0.0006429093 -0.0026601756 0.002835845 0.0020891323 -0.0033298838 0.0039321273
0.0044597704 0.001996841 0.0036263117 -0.0002774921 0.0024443485 -0.00039300168 0.0011131205 0.0044964906
-0.0019623525 -0.0019231789 -0.0031610401 -1.5341162e-05 -0.0044177775 -0.0028126808 0.0025264975 0.0010854255
0.004372526 -0.004056298 -0.004161206 -0.0010670258 0.0013404847 -0.0034525571 0.0009377466 -0.00048786675

layers.2.bias f4 [256]
00000000: 5f6e f73c 6268 173d c057 c4bc ff90 133d
00000010: afe0 c73c 5260 9f3c bc69 11bd 3b07 a83b
00000020: 3a37 893c 4f37 32bd f848 6cbd 66e0 203c
00000030: 0f57 e9bc f192 e33c df9d b4bc 2ce7 03bd
00000040: 896c 4ebc 8937 d33c ce9d 763d 6eba 26bd
00000050: 591b 0d3d 98be 223d 03b7 2a3c 78f8 ddbb
00000060: 9aff 563c 8d96 993b 39fb 6dbd 94fc 02bd
00000070: 11aa 06b9 f1c7 c8bc 2503 273d 7a1a e73c
00000080: 87e0 dabc e0b2 e0ba 4d46 05bd ec95 493b
00000090: 3d02 963c d415 75bd 6d26 683d b9a4 ca3c
000000a0: a551 193d b3d2 203c 571c 3d3c aa7b 36bd
000000b0: 2dfa 2d3d 4e6d 3a3d 3512 b1bb 84cb 00bd
000000c0: 840b 083d c2fb 383d 6611 ea3b 1408 613d
000000d0: bec0 133d 25ca a83c 7fb6 7dbd fe8f 19bc
000000e0: 6bb1 de3c a1c2 7dbd 0185 663c a853 a53c
000000f0: bcf8 d23c 9f87 533d 158d bc3c 7d8a 673c
00000100: dddf 57bd 8f3a 4bbd d854 3a3d d9d0 0b3d
00000110: 41af 4b3c 360f bebc d68d 373d fd0b b6bc
00000120: 661f f93c 5849 e2bb 7be3 053d 0ec4 af3c
00000130: 598b 0fbc 8288 b23c dc4b 01bd 75d3 11bd
00000140: 85bc dc3c 5fbc ce3c db44 24bc fdfd d93a
00000150: cfff eebc 537e 373d c763 74bc 1952 8e3c
00000160: 9625 53bc cf77 323d 8777 34bd a10a 273d
00000170: 05d6 793d b37e 27bd 15b4 58bd b0fc 043d
00000180: 1846 7b3c 190f 1f3d 10b5 253c f9e6 b23c
00000190: 4fd9 ecbc 63be 4f3d 8ab6 903c 1167 863a
000001a0: b372 5ebb dfdf 4f3c 2164 853c 2b88 293d
000001b0: ad3f 1e3c 3f3b acbc 2502 eb3c 687d 7b3d
000001c0: 34e4 ec3c b8d4 3d3d 5ffb 18bd b398 c73c
000001d0: 5b9d 703d d15b 2ebd 27d5 dd3b 5538 a0bc
000001e0: 0446 3c3c aeca 2e3d 10db 983c 9184 a9bc
000001f0: 13e4 673d 906c 4bbd 4856 cd3c 4aef e53c
00000200: 2ad7 613b 2fa2 31bd 26bc 453d 67f0 85bb
00000210: fbca fe3b cd93 9abc 8289 353d 2884 00bd
00000220: 0f8d 55bd 7bbf 433c aacd 893b 008f 12bd
00000230: 4b9f a2bc 4a33 743b 24b5 fabc 5a11 dbbc
00000240: 709f abbc 168f 83bb 48b1 44bd 1004 493c
00000250: cc8c 12bd 5566 9c3b 353d d03c ed0d 98bc
00000260: 8019 2d3d d159 62bd 9524 463d 76d3 72ba
00000270: b428 733c d410 593d 4265 7bbd 9251 1d3c
00000280: b975 1fbc 2b5b 03bd 8a12 de3c ef32 2d3d
00000290: 2a87 a4bc 148f 51bc 5848 073d 482f 6e3c
000002a0: 655a 89bc 460c 363c 5d5a 39bd 74ba 633d
000002b0: 83a6 b53c 2ecf 2f3d cef2 7abd bf6c 3abd
000002c0: 1f3e c9bc 1336 423d 8549 513c e347 683d
000002d0: 6444 46bd f63e f6b8 95af 163d c296 5f3d
000002e0: 8910 473d 2c65 27bd e7da db3c ff9c 163d
000002f0: dd5d f3bc 5858 7ebc c27c c53c ea29 b13c
00000300: 343f 723d a3d8 4bbd ce00 3538 7666 aebc
00000310: c24d 42bd 3772 483d 6d35 053d 4ccf 3b3d
00000320: 891a 723c c52e a43b 7b20 22bd 3cd2 29bd
00000330: 9c5b 283c 51d7 503d 3d23 50bc 543e bd3a
00000340: 7f8a 083d 3633 cf3c e2ef acbc a351 073d
00000350: c545 dd3c 667f 243d 57b4 043d f701 21bd
00000360: 1c1b fb3c e76b 4f3d 4860 0d3c ac1e 1f3d
00000370: 8af2 663c 9920 d23a 2087 133d 271a 373d
00000380: 1721 1a3d b0f0 0a3c 61dc a93c fb7f 8a3c
00000390: f35f 57bc 44a1 61bd 082a 36bd 376b 3abd
000003a0: 95c4 523d eab4 73bd 6637 71bd 46b5 2abc
000003b0: ad6f ee3b 1ad3 33bd f1f8 98ba b04d 5cbd
000003c0: 3180 793d e018 e7bc a3a6 0f3d ff8a a6bc
000003d0: d703 19bd daaf bdbc c6e5 373d 25e5 1b3c
000003e0: 8fc3 6bbc 4ef5 053d 097b 07bd 7f43 16bd
000003f0: 1f6e 25bd e536 573d 7ee1 25bb 926f 1fbd
0.030203996 0.03696478 -0.023967624 0.03602695 0.02439913 0.019455109 -0.035501227 0.005127815
0.016749967 -0.043509778 -0.057686776 0.009819126 -0.028483896 0.027780028 -0.022047935 -0.032202885
-0.012599119 0.025783317 0.060209088 -0.040705137 0.03444991 0.039732546 0.01041961 -0.0067740045
0.013122464 0.0046871365 -0.058100913 -0.03197916 -0.0001284259 -0.024509402 0.040774483 0.028210867
-0.026718391 -0.0017143153 -0.032537747 0.0030759526 0.018311614 -0.05983527 0.05667727 0.024736749
0.037431378 0.00981586 0.011542401 -0.04455153 0.042474914 0.045514397 -0.005403782 -0.031444088
0.033214107 0.04516197 0.0071431873 0.054939345 0.036072485 0.020604203 -0.06194162 -0.009372709
0.027184209 -0.06195319 0.014069797 0.020181492 0.025753371 0.05164301 0.023016492 0.014132139
-0.052703727 -0.049616393 0.04549107 0.03413472 0.0124319205 -0.023200613 0.044813 -0.022222513
0.03041048 -0.006905716 0.032687645 0.02145579 -0.00876125 0.021793608 -0.031566486 -0.03560205
0.026945362 0.025236307 -0.010026182 0.001663148 -0.029174713 0.044798207 -0.014916367 0.017373132
-0.012887379 0.04357129 -0.044059303 0.04078162 0.06099512 -0.040892314 -0.052906115 0.032467544
0.015336536 0.038832758 0.010113969 0.021838652 -0.028912215 0.050718676 0.017665166 0.0010254105
-0.0033942878 0.012687652 0.016283097 0.041389626 0.009658736 -0.021024344 0.028687546 0.061398894
0.02891741 0.046345443 -0.0373491 0.024364805 0.058743816 -0.04256803 0.0067697945 -0.019558111
0.011491302 0.04267376 0.018659145 -0.020693095 0.056613993 -0.04966408 0.025065556 0.028068203
0.0034460523 -0.04336756 0.048275135 -0.004087496 0.007775662 -0.018869305 0.04432059 -0.031376034
-0.052136477 0.011947508 0.0042054253 -0.035780907 -0.019851347 0.0037262016 -0.030603953 -0.026741672
-0.02095005 -0.00401486 -0.04802063 0.012269035 -0.035778806 0.004772941 0.02541981 -0.018561328
0.042260647 -0.055261437 0.04837473 -0.00092630775 0.014841247 0.052994564 -0.061375864 0.009601967
-0.009732657 -0.032069366 0.02710845 0.042284902 -0.020083982 -0.01279046 0.033027977 0.01453764
-0.016766736 0.011111325 -0.045252193 0.055597737 0.022174126 0.04292219 -0.061266713 -0.045513865
-0.024565754 0.04741485 0.012773876 0.05670918 -0.048405066 -0.000117419215 0.03678854 0.054587133
0.048599754 -0.04086797 0.02683778 0.036770817 -0.029707843 -0.0155239925 0.02410734 0.021626431
0.059142306 -0.049767148 4.3154512e-05 -0.021289092 -0.047437437 0.04893705 0.032521654 0.04585199
0.014776834 0.005010458 -0.039581757 -0.04146026 0.010275748 0.05098659 -0.012703714 0.0014438131
0.033335205 0.025292974 -0.021110479 0.03303684 0.027010808 0.04016056 0.032398548 -0.039308514
0.030652575 0.050640013 0.008628912 0.03884761 0.014095912 0.0016031443 0.036017537 0.044702675
0.037629213 0.008480236 0.020734968 0.016906729 -0.013145435 -0.055085436 -0.044473678 -0.045512404
0.051457006 -0.059498705 -0.058890723 -0.0104191955 0.0072764964 -0.043902494 -0.001167087 -0.053785026
0.06091327 -0.028210104 0.035071027 -0.02032995 -0.037357178 -0.023155142 0.044896863 0.0095150815
-0.0143898865 0.032704644 -0.03307632 -0.036685463 -0.040388223 0.052542586 -0.0025311406 -0.03892476

layers.3.weight f4 [2, 256]
00000000: 57d0 23bb 74e8 6dba 5712 31ba 5e2c 623b
00000010: 2272 4db9 b315 c439 8084 2dbb 99f9 52bb
00000020: 2557 3e3b d907 9d39 b71a 813a 7611 153b
00000030: 4215 04bb 3747 37bb b988 16ba 710f 5fbb
00000040: 701f 913a be0a 0abb 3545 423a e23f 92bb
00000050: 51cc 99bb a68e 7abb 3b90 57b9 63b6 3abb
00000060: c7b3 fe39 8ecf 933b d489 11bb 20e5 863b
00000070: e36b ae3a 3708 ceba 1ffa b0b9 4425 9c3a
00000080: 4ae4 6bbb 401c 23b9 fd32 233b e7d7 83bb
00000090: a07c 33ba acc1 a4ba f030 24bb d6c6 a9b9
000000a0: e321 083b e1bb 3b3b 9f7c 5dba 1086 503a
000000b0: 6559 8abb 90c5 8cb8 8cc1 f1ba b22a 5d3b
000000c0: 3866 753b ccef 0ebb d0d9 16bb 3aab 7a3b
000000d0: 73a1 27bb c135 f13a 3437 1abb 9694 83bb
000000e0: ff35 11b9 ef4c 07b9 801c ebb9 fb7b e439
000000f0: 86b7 f33a 7862 803b acac 9cba aabf 41b9
00000100: b01f 2c3b c146 b23a 941b f73a 7efe f43a
00000110: abdd 5e3a b2bc 8dbb 0911 64bb d8da 25bb
00000120: 5b2b 873b 4e13 71ba 2600 5b3b b5d2 193b
00000130: b4ec f3ba 9582 8039 41f6 2639 b7ef 9a3b
00000140: 834c 873b 092c 473b 3424 f5ba 5249 6c3b
00000150: 1863 2ebb d916 90bb fdd9 353b 6e28 0ebb
00000160: 8321 4fbb 3d5a 773b 9397 0139 3de3 883a
00000170: 439d 8b3a 930d 19bb a4bb 6f3a 307a 3bbb
00000180: d602 9b3b 9163 8a3b 0136 123b c754 81bb
00000190: 0014 ea39 9a01 a2ba 802a 8bbb 3263 9a3a
000001a0: f5c0 91bb 4503 99ba 122a e2ba ca8a 983a
000001b0: ca38 26bb e031 5a3b 93f3 93bb e924 56bb
000001c0: 2c15 a7bb aad3 433b 8fb5 623b 83d4 653a
000001d0: 10c0 36bb c698 00bb eb47 ea3a b53c 6dba
000001e0: 2a24 9cbb b02c 1d3b 2e03 85bb 69d6 c6ba
000001f0: 7a8b 1339 d8c8 40ba 802a 3abb aa0a c63a
00000200: 42bd 00bb a529 663a dd8a 833b d45f 253b
00000210: dcb4 683b 5530 0abb 7889 343b 0c41 bf39
00000220: 7201 4a3b fb86 b3b8 1b16 83bb 1e20 19ba
00000230: dcef 1dbb e6f8 aeb9 2c30 b13a aabb a8bb
00000240: ded8 513b ebbb 3aba 5e14 97b9 6526 3fb9
00000250: 0d32 64ba 5c26 9c3a c3d3 1abb 61c0 82ba
00000260: f170 62bb 4c3c 743b 4874 8f3b bbe3 f439
00000270: f986 04ba 73ff 31bb 870a 8bbb f7ec 8d3b
00000280: 4346 deba 11b0 70bb 0a39 47bb 012d 3b3b
00000290: 4141 56bb 6d3d 32bb ca00 133b 4b00 06bb
000002a0: a16f c7b9 2152 3b3b a772 a438 b9ca 76bb
000002b0: bac0 373b 7295 3bbb ea41 3b3b 2c93 80bb
000002c0: 2193 98ba 02e0 90bb 39d4 9c3a 1b93 78bb
000002d0: 0af7 80bb 235e a1bb d044 6bbb 98b3 8abb
000002e0: e2d3 4dbb a89d a8bb e93f 9a3b 3811 c43a
000002f0: 128a 23b9 b189 9c3b aec3 b5ba 9e78 7c3a
00000300: bb1e 5fbb ff89 913a 5e62 363b 9bcf 65bb
00000310: f803 103a 5d29 9ebb be2f 14ba b5fb 663b
00000320: 4df6 6cbb a703 0e3b 585b 343a 397c 88bb
00000330: 3fec 2fbb 451b 91bb 58c5 593b 618f e23a
00000340: c7fe 9fba 5daa 693b 0307 a13a c26c c13a
00000350: 8c58 bdba f665 283b 5976 063b 99d3 7c3b
00000360: 13e6 8e3b aff5 44bb 447b 74bb c712 11ba
00000370: d1a5 a5ba 23de 82bb a0d1 7b3b 1445 7e3b
00000380: f5cb 6ebb 4834 ebb9 5c63 483b ac9b 9a3b
00000390: a049 b73a 3ea8 11bb cba0 a43b 90d0 0bbb
000003a0: d201 bab9 1875 5e3b 2e0e d23a fa39 6fba
000003b0: 23f0 29ba c459 8aba 5d92 733b e285 aeb9
000003c0: ea92 7ebb 2100 04bb 6f44 153b 4dc6 053b
000003d0: 3cf2 35b9 1f3e b0ba bd50 96bb d54a 7f3b
000003e0: 2f90 9fbb 9cff 803b 9053 4a3b 0786 88bb
000003f0: 5133 88bb a97f 363b a1f4 353b 3ff8 69bb
-0.0024996006 -0.0009075471 -0.0006754747 0.0034511308 -0.00019592841 0.000374002 -0.0026476681 -0.0032192229
0.0029043641 0.0002995122 0.0009849881 0.0022746003 -0.0020154272 -0.0027966031 -0.0005742419 -0.0034036303
0.0011071991 -0.0021063532 0.00074108253 -0.004463182 -0.004693546 -0.0038231998 -0.00020557728 -0.0028490059
0.000485806 0.0045108264 -0.0022207396 0.0041166693 0.0013307299 -0.0015719001 -0.0003375569 0.0011912961
-0.0035994225 -0.00015555415 0.0024902218 -0.0040235403 -0.00068468787 -0.0012569926 -0.0025053583 -0.00032382336
0.0020772151 0.002864592 -0.0008449051 0.0007954547 -0.0042220824 -6.712519e-05 -0.0018444522 0.0033747372
0.003744496 -0.002181041 -0.002301801 0.0038249032 -0.002557841 0.0018402861 -0.0023531439 -0.0040155156
-0.00013848393 -0.00012903263 -0.00044843927 0.00043579921 0.0018594123 0.0039179884 -0.0011953316 -0.00018477315
0.0026264004 0.0013601409 0.0018852823 0.0018691567 0.0008501659 -0.0043254727 -0.0034800193 -0.0025307443
0.0041250414 -0.0009196297 0.0033416837 0.0023471538 -0.0018609972 0.00024511354 0.0001592273 0.0047282833
0.004128994 0.0030391237 -0.0018702806 0.0036054444 -0.0026609357 -0.004397255 0.002774834 -0.0021691578
-0.0031605668 0.0037742995 0.00012358864 0.0010443699 0.0010651726 -0.0023354038 0.0009145087 -0.0028606765
0.0047305627 0.004223295 0.002231002 -0.003946874 0.0004464686 -0.0012360096 -0.0042470098 0.001177883
-0.004448051 -0.0011673948 -0.001725497 0.0011638042 -0.0025363439 0.0033293888 -0.0045151203 -0.0032675809
-0.0050989594 0.00298808 0.003459308 0.00087673235 -0.0027885474 -0.001962231 0.0017874216 -0.00090498786
-0.0047650533 0.0023982935 -0.004059217 -0.00151701 0.00014070972 -0.0007354147 -0.002840668 0.0015109379
-0.0019644056 0.0008780009 0.0040143565 0.002523412 0.0035508191 -0.0021085937 0.0027547758 0.00036478823
0.0030823615 -8.560527e-05 -0.004000438 -0.00058412727 -0.0024099266 -0.0003337331 0.0013518385 -0.0051493244
0.0032020132 -0.0007123339 -0.0002881614 -0.00018229483 -0.0008704968 0.0011913287 -0.0023624755 -0.0009975546
-0.0034552182 0.0037267385 0.0043778755 0.0004670898 -0.0005055513 -0.0027160316 -0.0042431983 0.004331227
-0.0016958195 -0.0036726038 -0.0030398988 0.002856076 -0.0032692703 -0.0027197257 0.002243089 -0.0020446952
-0.00038039408 0.0028582888 7.841485e-05 -0.0037657453 0.0028038458 -0.0028623012 0.0028573223 -0.0039237943
-0.0011640528 -0.004421235 0.0011965103 -0.0037929479 -0.0039356994 -0.004924552 -0.003589917 -0.004232835
-0.003140681 -0.005145747 0.0047073257 0.0014958745 -0.00015596327 0.0047771563 -0.0013867521 0.00096310105
-0.0034045416 0.0011103748 0.0027829628 -0.003506637 0.00054937555 -0.004826708 -0.0005652866 0.0035245244
-0.003615755 0.0021669657 0.00068800664 -0.004165199 -0.0026843695 -0.0044282996 0.0033229198 0.0017285162
-0.0012206667 0.0035654523 0.0012285415 0.0014757144 -0.0014445945 0.002569554 0.0020517318 0.003857827
0.004360923 -0.0030053665 -0.0037304917 -0.0005534109 -0.0012637918 -0.003993766 0.0038424507 0.0038798498
-0.0036437486 -0.00044861645 0.00305768 0.0047182646 0.0013983734 -0.0022225524 0.005024051 -0.002133403
-0.0003547804 0.0033944305 0.0016025954 -0.00091257656 -0.00064826215 -0.0010555317 0.0037166097 -0.00033287617
-0.0038844892 -0.0020141678 0.0022776385 0.0020412386 -0.00017351744 -0.0013446248 -0.0045872615 0.0038954515
-0.004869483 0.003936721 0.003087256 -0.004166368 -0.004156508 0.0027847087 0.0027764218 -0.0035700945

layers.3.bias f4 [2]
00000000: faf3 66bd 4dbc 07bd
-0.056385018 -0.033138562
