old_figures/up2sept/18-SIREN-ncc-1e-05-2500-10000/epoch-2000.pth (torch, 534820 bytes, 8 tensors)

layers.0.weight f4 [256, 2]
0	0xbda8b6f1	-0.08238018
1	0x3e4d655b	0.20058195
2	0xbec44f70	-0.38341856
3	0x3d8bcad5	0.068257965
4	0xbee9ba7a	-0.45650083
5	0x3e9ec764	0.31011498
6	0x3ef85b82	0.48507315
7	0xbe36b95d	-0.17844148
8	0x3d96e198	0.07367247
9	0xbe838d2b	-0.2569364
10	0xbea34cf2	-0.31894642
11	0xbe821c59	-0.25412253
12	0xbe737737	-0.23775946
13	0x3dc196a8	0.094525635
14	0xbd691083	-0.056900512
15	0x3d0f4280	0.03497553
16	0xbec3be1f	-0.38230988
17	0xbea07bd0	-0.3134446
18	0xbedda961	-0.43293288
19	0xbeb869fc	-0.3601836
20	0x3ed63e78	0.41844535
21	0x3e3db1bf	0.18524836
22	0xbef3d3e0	-0.47622585
23	0xbdab54fd	-0.083658196
24	0x3d23ac33	0.039959144
25	0x3e8823ae	0.2658972
26	0x3eed42c9	0.46340016
27	0x3df5c54c	0.12000522
28	0x3eb39960	0.35077953
29	0xbe34adf1	-0.17644478
30	0xbc81f1ae	-0.015862312
31	0xbe998f51	-0.29992154
32	0x3deb30aa	0.11483891
33	0x3eeb9f91	0.46020177
34	0x3ea05394	0.31313765
35	0x3efe5552	0.4967447
36	0xbe65d455	-0.2244428
37	0xbd7e6ec9	-0.06211737
38	0x3dd2a94e	0.102861986
39	0x3ecd3938	0.40082717
40	0xbeeb3480	-0.45938492
41	0xbe7bcae0	-0.2458911
42	0x3d9502b5	0.07275907
43	0xbe93129e	-0.2872514
44	0x3e3e1651	0.185632
45	0xbd0ff2bf	-0.03514361
46	0xbe041218	-0.12897527
47	0x3e88a9d7	0.26692078
48	0x3eb6af1d	0.35680476
49	0x3ef92177	0.48658344
50	0x3e675a61	0.2259307
51	0xbc34f108	-0.011043794
52	0x3ed0d1cd	0.40785065
53	0x3ecb7d08	0.3974383
54	0xbe800d81	-0.25010303
55	0x3e68ea8b	0.22745721
56	0x3d734002	0.059387214
57	0xbe5c9a94	-0.21543342
58	0xbdf2fe0f	-0.11864864
59	0xbdf27520	-0.11838746
60	0xbeb2d221	-0.3492594
61	0xbe1c25ff	-0.1524887
62	0x3e2c6fab	0.16839473
63	0x3ebb1bf7	0.36544773
64	0x3d18ebef	0.03733438
65	0xbef7efd4	-0.48425162
66	0x3e8775d0	0.2645707
67	0xbe1bbbaa	-0.15208307
68	0x3ee49121	0.44641975
69	0xbef6f363	-0.48232564
70	0xbdf188c1	-0.11793662
71	0x3ec5feca	0.3867095
72	0x3e5d63b9	0.21620072
73	0xbe7edaac	-0.24888104
74	0xbeddc42b	-0.43313727
75	0xbba1ce29	-0.0049379063
76	0x3e454e7e	0.19268224
77	0xbed3cf0e	-0.41368908
78	0xbed611ba	-0.418104
79	0xbbb1204f	-0.005405463
80	0xbdd1c7bd	-0.10243175
81	0x3ea3f31a	0.3202141
82	0xbef7a9e9	-0.4837182
83	0xbda29a19	-0.07939548
84	0xbec5ed84	-0.38657773
85	0xbd95ac1c	-0.07308218
86	0xbe831ea6	-0.2560932
87	0x3e206b5f	0.15665959
88	0xbed5e72f	-0.41777942
89	0xbec94413	-0.3930975
90	0xbe911239	-0.28334215
91	0xbedffdde	-0.43748373
92	0x3ea10259	0.31447104
93	0xbd91d1a2	-0.071200624
94	0xbe8dd0c7	-0.27698347
95	0x3eb369d3	0.35041675
96	0xbde6b062	-0.11264111
97	0x3e8402a2	0.2578326
98	0xbe1dadb5	-0.15398295
99	0xbed60569	-0.41801003
100	0x3ddf0d3f	0.10891198
101	0x3e9f2ff5	0.31091276
102	0xbefa0651	-0.48832944
103	0x3d523a26	0.051324986
104	0x3dc7a649	0.09748513
105	0x3d6f3645	0.058401365
106	0xbc31d657	-0.010854325
107	0xbe1f39d6	-0.15549406
108	0xbec6c5b9	-0.38822725
109	0x3da59782	0.080855384
110	0xbeab9f6a	-0.3352006
111	0xbed33f26	-0.41259116
112	0xbe23d429	-0.15998901
113	0xbeaef9a0	-0.34174824
114	0x3e1bd38f	0.15217422
115	0x3eb6494a	0.3560279
116	0x3ec6aecb	0.3880523
117	0xbe9ebcb9	-0.3100336
118	0x3e8b8344	0.27248585
119	0x3eb59d5d	0.3547162
120	0x3b9ff653	0.004881659
121	0x3e581909	0.211033
122	0x3e90face	0.2831635
123	0x3ec39ad6	0.38204068
124	0x3e88f9bd	0.26753035
125	0x3e59368b	0.21212213
126	0xbe4162f1	-0.188854
127	0xbe8e9cf8	-0.27854133
128	0xbe719478	-0.23591793
129	0x3ed21cd0	0.41037607
130	0xbdf9c238	-0.121952474
131	0x3c98f5ad	0.018671835
132	0xbeee8afa	-0.46590406
133	0xbcb3b376	-0.02193616
134	0xbe114b90	-0.14188981
135	0xbea51d79	-0.32249048
136	0x3ec5f68c	0.38664663
137	0xbece6e41	-0.40318492
138	0xbd91a132	-0.07110824
139	0xbd11a9bb	-0.03556226
140	0xbee75465	-0.45181575
141	0x3e9a9b76	0.30196732
142	0xbe229370	-0.15876555
143	0x3e64bce5	0.22337683
144	0x3e8ec72d	0.27886334
145	0x3ee1c9cc	0.4409927
146	0x3dfaab8b	0.122397505
147	0x3ebfc6f6	0.37456483
148	0x3eebf82d	0.4608778
149	0x3dca1ebb	0.098691426
150	0xbdcf736d	-0.101294376
151	0xbe0be5e3	-0.13661914
152	0x3da55f4a	0.080748156
153	0x3e374cfb	0.1790046
154	0xbef148c2	-0.47125822
155	0x3ebf7374	0.3739277
156	0x3da2bff3	0.07946768
157	0xbeeda2d5	-0.46413293
158	0x3e24542a	0.16047731
159	0x3ea1f58b	0.31632647
160	0x3e3f4ca4	0.1868158
161	0x3ed07e86	0.4072153
162	0x3c2cfd7a	0.01055848
163	0xbed3d6db	-0.4137486
164	0xbae2bd74	-0.0017298893
165	0x3eb97b08	0.36226678
166	0xbe76574d	-0.2405674
167	0x3e5b1d69	0.21397938
168	0x3deb18b1	0.11479319
169	0xbda67cdc	-0.08129284
170	0x3b67e262	0.0035382737
171	0x3e59959c	0.21248478
172	0xbeaf1160	-0.34192944
173	0x3ea18b00	0.3155136
174	0x3ead17df	0.33807275
175	0x3e8fa6a9	0.2805684
176	0x3effbe07	0.49949667
177	0xbcb6b037	-0.022300823
178	0xbeb4946b	-0.35269484
179	0x3cbaf84a	0.022823472
180	0xbe14b33b	-0.14521496
181	0x3e341ccd	0.17589112
182	0x3ed8472b	0.42241797
183	0xbe8be03a	-0.2731951
184	0x3cacd2bb	0.021096578
185	0x3ef863dd	0.4851369
186	0xbecc3d26	-0.39890403
187	0xbdaf876e	-0.08570753
188	0x3ef81293	0.4845167
189	0x3eb30663	0.3496581
190	0x3e145487	0.1448537
191	0xbe5c625d	-0.21521898
192	0xbd4194be	-0.047260992
193	0xbee513b0	-0.44741583
194	0xbef1439f	-0.47121903
195	0xbeef6517	-0.46756813
196	0x3ef589ef	0.47956797
197	0x3eca6505	0.39530197
198	0x3e4a9fa8	0.19787467
199	0xbdffc564	-0.12488821
200	0x3edcada8	0.4310124
201	0xbe074e4e	-0.13213465
202	0x3eb1be19	0.34715346
203	0xbc803a60	-0.015652835
204	0xbe70c06e	-0.23510906
205	0xbe0e00da	-0.13867512
206	0xbdda1c90	-0.10649979
207	0xbeea15aa	-0.45719653
208	0x3e18f9f8	0.14939106
209	0xbe1d8d16	-0.15385851
210	0x3e6aacc0	0.22917461
211	0x3ea2a313	0.3176504
212	0xbda2a4cc	-0.07941589
213	0x3e7781c0	0.2417059
214	0x3dcbc730	0.099501014
215	0x3eab8520	0.33500004
216	0xbea581d0	-0.32325602
217	0xbd31b7f8	-0.043388337
218	0xbe2ac02c	-0.1667487
219	0x3edf7d26	0.43650168
220	0xbee5481e	-0.44781584
221	0xbe8faa68	-0.28059697
222	0x3d67c262	0.056581862
223	0x3ee28075	0.4423863
224	0x3eacee46	0.33775538
225	0xbeeef46f	-0.46670863
226	0xbeb400f0	-0.35156965
227	0x3ef76292	0.4831739
228	0x3d951c33	0.07280769
229	0xbedb498d	-0.42829552
230	0xbe21d142	-0.15802482
231	0x3e5f2da7	0.21794759
232	0xbdd5ba82	-0.10435964
233	0xbec42c9b	-0.3831528
234	0xbe9dcaa6	-0.3081867
235	0xbe848993	-0.2588621
236	0xbca371a7	-0.019951655
237	0x3e47b8a2	0.19504026
238	0x3e767c1a	0.24070778
239	0xbe788354	-0.24268848
240	0xbdac2431	-0.084053405
241	0xbec570c9	-0.3856261
242	0x3ec15964	0.37763512
243	0x3efeb87f	0.49750134
244	0x3ef86e3f	0.4852161
245	0x3e509f27	0.20373212
246	0xbddb17bb	-0.106978856
247	0xbc54a9b7	-0.012979916
248	0x3e37fc2b	0.17967288
249	0xbedda5bf	-0.43290517
250	0x3d022c7e	0.031780712
251	0xbecfd847	-0.40594694
252	0xbeffcfb9	-0.49963167
253	0xbc859187	-0.016304744
254	0xbe22761c	-0.15865368
255	0xbea19ac5	-0.31563392

layers.0.bias f4 [256]
0	0xbf07bd6e	-0.5302342
1	0x3efd9131	0.49524835
2	0x3ecff2b3	0.40614852
3	0xbf31b81a	-0.6942154
4	0xbf0dd9f8	-0.5541072
5	0xbeeed0a2	-0.4664355
6	0xbec416f7	-0.3829877
7	0x3db5af62	0.08871342
8	0xbf32ca5d	-0.6984003
9	0xbf061c77	-0.52387184
10	0x3ea597bc	0.32342327
11	0xbe6c8edd	-0.23101373
12	0xbe909569	-0.2823899
13	0xbf15aafd	-0.5846403
14	0x3e935d49	0.28782108
15	0x3d5312b3	0.051531505
16	0xbe8c7b9a	-0.2743805
17	0xbede1b0c	-0.4338001
18	0x3e1a6bcd	0.15080185
19	0x3e4489e2	0.19193223
20	0x3ea08646	0.31352443
21	0x3e5884b7	0.21144377
22	0xbddc0378	-0.10742849
23	0xbf0c39b7	-0.54775566
24	0x3ee6946c	0.45035112
25	0xbb8abad3	-0.004233697
26	0xbef0a2f9	-0.46999338
27	0x3f1c110e	0.60963523
28	0x3eca82d6	0.39552945
29	0xbf0e3287	-0.5554585
30	0xbeb49a2f	-0.35273883
31	0xbe76ca5f	-0.24100636
32	0xbed0cb61	-0.40780166
33	0x3ea905b3	0.3301216
34	0xbf00ecf8	-0.50361586
35	0x3f27fd31	0.65620714
36	0xbe951f79	-0.29125574
37	0x3ed596d2	0.4171663
38	0x3cd27cce	0.025694277
39	0xbe9f47e5	-0.3110954
40	0x3ef17109	0.4715655
41	0xbf0a1377	-0.5393595
42	0xbebf893a	-0.37409383
43	0x3dacbb90	0.08434212
44	0x3f0fb62a	0.56137335
45	0xbe9ae93c	-0.3025607
46	0xbedca2c6	-0.43092936
47	0xbee70bac	-0.45126092
48	0xbea02b0d	-0.31282845
49	0xbe79a11d	-0.24377866
50	0xbe28d029	-0.16485657
51	0xbece5c84	-0.4030496
52	0x3e6105a4	0.21974808
53	0x3bcdfd9f	0.0062863375
54	0xbeec6502	-0.46170813
55	0xbecebdb6	-0.40379113
56	0x3e1994f0	0.14998221
57	0xbc29593c	-0.010336217
58	0x3f002b22	0.50065815
59	0xbdde30cf	-0.10849153
60	0xbf12a836	-0.5728792
61	0xbf05cd93	-0.52266806
62	0xbe556874	-0.20840627
63	0xbe2063d5	-0.15663083
64	0x3da2cddc	0.07949421
65	0xbe23bdcc	-0.1599037
66	0x3e8584c8	0.26077867
67	0xbe70dcb9	-0.23521699
68	0x3f0505ee	0.51962173
69	0x3e299b80	0.16563225
70	0xbe5ddff6	-0.21667466
71	0x3f21103b	0.6291539
72	0x3e385407	0.18000804
73	0xbef66e00	-0.48130798
74	0xbec96552	-0.39335114
75	0x3ee363b6	0.4441201
76	0x3ea4de4b	0.32200846
77	0x3f0d3a8e	0.5516747
78	0xbd5afa8a	-0.05346159
79	0x3efcb7b7	0.49358913
80	0x3eb39f99	0.350827
81	0x3e607850	0.21920896
82	0xbe283a17	-0.1642841
83	0x3f2e95bf	0.68197244
84	0x3e119d75	0.14220221
85	0xbe3b70f1	-0.18304802
86	0xbc381a84	-0.011236791
87	0x3f31dce4	0.6947768
88	0x3ef2e6a1	0.4744158
89	0xbd560459	-0.05225024
90	0x3f313e4e	0.69235694
91	0x3e9f0d4a	0.31064826
92	0xbec14104	-0.37744915
93	0xbf24b6d7	-0.6434149
94	0x3ed24d17	0.4107444
95	0x3f29cf5e	0.6633204
96	0xbed24600	-0.4106903
97	0x3e94d9d3	0.29072437
98	0x3cf38d0a	0.029730339
99	0xbe1ae71a	-0.15127221
100	0xbe44b307	-0.19208919
101	0x3e48a213	0.19593076
102	0x3e20c7cf	0.15701221
103	0x3ef4a18b	0.47779498
104	0x3e842be5	0.2581474
105	0x3ea4afbe	0.3216533
106	0x3f1fba15	0.62393314
107	0x3e60e17f	0.2196102
108	0x3dd7e038	0.10540813
109	0xbe840a29	-0.25789002
110	0x3f04fae2	0.51945317
111	0x3dd4989a	0.10380669
112	0x3ee98ddc	0.45616043
113	0x3f2e7702	0.6815034
114	0xbe221c6c	-0.15831155
115	0x3efe9527	0.4972317
116	0xbe1217bf	-0.14266871
117	0x3f23519d	0.63796407
118	0x3f0e7103	0.5564119
119	0xbe81a876	-0.25323838
120	0x3cd6122a	0.026131708
121	0xbe9e098e	-0.30866665
122	0xbe92901b	-0.2862557
123	0xbe11642b	-0.14198367
124	0xbb8c01d1	-0.0042726775
125	0xbe7b1e2a	-0.24523225
126	0xbf2af96e	-0.6678685
127	0xbedb0266	-0.42775267
128	0xbd81ddbf	-0.06341123
129	0xbe65c70f	-0.22439216
130	0x3f06767c	0.5252454
131	0x3f136f69	0.57591873
132	0x3ee6bc5c	0.45065582
133	0x3ea03353	0.31289157
134	0xbf0fbb64	-0.5614531
135	0x3f2b0932	0.66810906
136	0xbf1f96e8	-0.6233964
137	0xbe6e1f62	-0.23254159
138	0xbeff4ea7	-0.49864694
139	0x3e824247	0.2544119
140	0xbf16b459	-0.5886894
141	0xbeb24d8a	-0.34824783
142	0xbee5df3c	-0.44896877
143	0xbedf7e6a	-0.43651134
144	0xbea8868f	-0.3291516
145	0x3f31f7ca	0.6951872
146	0xbd70ebe2	-0.058818705
147	0x3e5c526b	0.21515815
148	0xbf339f8f	-0.7016534
149	0x3f211f8f	0.6293878
150	0xbe1dd683	-0.15413861
151	0xbf26242e	-0.64898956
152	0x3ef9c5a3	0.48783597
153	0xbe430314	-0.19044143
154	0x3f2438a0	0.641489
155	0xbef5727a	-0.479389
156	0xbf27e873	-0.65589064
157	0xbf082f9e	-0.5319766
158	0x3e9cd15a	0.30628473
159	0xbda1fa63	-0.079090856
160	0xbf27bc1a	-0.65521395
161	0x3e06bc4e	0.1315777
162	0xbd372911	-0.0447169
163	0x3e82d1c9	0.25550678
164	0xbeb848d8	-0.35993075
165	0xbf00e6b7	-0.5035204
166	0x3ef65d45	0.48118034
167	0xbeae07a8	-0.33990216
168	0x3efe8b87	0.49715826
169	0x3f12c4ba	0.5733143
170	0xbefd4d63	-0.49473104
171	0xbea71103	-0.32630166
172	0x3dadb641	0.08482028
173	0xbf2aa1f8	-0.66653395
174	0x3e5ecac8	0.21757042
175	0xbe97216f	-0.29517695
176	0xbea0e53d	-0.31424895
177	0xbf0bd02d	-0.54614526
178	0x3ea91244	0.33021748
179	0xbee716d2	-0.45134598
180	0xbf10a06a	-0.5649477
181	0xbe3ebb9b	-0.18626253
182	0xbeca17a9	-0.39471176
183	0xbf304449	-0.68854195
184	0x3e914c81	0.2837868
185	0xbe89c6d9	-0.2690952
186	0x3efdaf16	0.49547642
187	0x3efe9e65	0.4973022
188	0xbee6797f	-0.4501457
189	0xbed2dc3e	-0.41183656
190	0xbe800579	-0.25004175
191	0x3ed3b6ee	0.41350502
192	0xbcc71b00	-0.024304867
193	0xbe80ca43	-0.25154313
194	0x3ee09799	0.4386566
195	0x3f2bc6a0	0.6709995
196	0x3f05ca5e	0.5226191
197	0xbf0a6136	-0.5405458
198	0xbe1764e1	-0.14784576
199	0xbe0af9ec	-0.135719
200	0x3f1ac3b0	0.60454845
201	0xbebaea59	-0.36506918
202	0xbecf096d	-0.4043688
203	0x3c3fb047	0.011699743
204	0xbe28eab7	-0.16495787
205	0x3e893474	0.2679783
206	0x3db0173f	0.08598184
207	0xbed7eec1	-0.42174342
208	0x3f033e09	0.51266533
209	0x3ee13fb9	0.4399393
210	0x3e1e8516	0.15480456
211	0xbf23ae86	-0.63938177
212	0x3eaa2178	0.3322866
213	0x3ef07c50	0.46969843
214	0x3e49d377	0.19709574
215	0xbe8bcddf	-0.27305505
216	0x3d41396f	0.047173914
217	0xbe8b2d35	-0.27182928
218	0x3f2a9992	0.6664058
219	0x3f2e9521	0.681963
220	0xbda83c35	-0.082146086
221	0xbef3d1c0	-0.47620964
222	0x3ed4ee0e	0.4158787
223	0x3eb91ca4	0.36154664
224	0x3ebffb1c	0.3749627
225	0xbf080550	-0.53133106
226	0x3e764f20	0.24053621
227	0xbe9ac754	-0.302302
228	0xbf1eee5a	-0.62082446
229	0xbefcfbc5	-0.49410835
230	0x3e996941	0.29963115
231	0x3e879bd2	0.2648607
232	0xbf1e9d8c	-0.6195915
233	0x3ecd5842	0.40106398
234	0x3f0b21b5	0.5434831
235	0x3f09d7c1	0.5384484
236	0x3ecc9ecb	0.399649
237	0xbde28f70	-0.11062515
238	0x3ef2ff11	0.47460225
239	0x3f0db366	0.55351865
240	0x3ebc8597	0.3682067
241	0xbf023820	-0.5086689
242	0xbe7c599e	-0.24643561
243	0x3f0f2e7f	0.5593032
244	0x3f0a3822	0.539919
245	0x3ee76133	0.45191345
246	0xbe973638	-0.29533553
247	0xbe0edc3a	-0.13951197
248	0xbf06ea43	-0.52701205
249	0xbece6479	-0.4031103
250	0x3f0aea9d	0.5426424
251	0xbf14481e	-0.5792254
252	0xbe336b8a	-0.17521492
253	0x3e1970af	0.14984392
254	0xbed8d9e0	-0.42353725
255	0x3e295e3a	0.16539851

layers.1.weight f4 [256, 256]
0	0x3b954093	0.004554817
1	0xba3755a1	-0.00069936557
2	0xbb701cbd	-0.0036638223
3	0x3b8ab8dd	0.004233463
4	0xbadeb3cf	-0.0016990843
5	0xbab7a605	-0.001401127
6	0x3b45b534	0.003016782
7	0x38f9f393	0.000119186145
8	0x36c2f1cb	5.809799e-06
9	0xbb77310c	-0.0037718443
10	0xbb52f272	-0.0032187966
11	0x3b30fd98	0.0027006622
12	0x3b80f0eb	0.0039349697
13	0x39c9d27a	0.00038494525
14	0xb69c3cc1	-4.656235e-06
15	0x3b80b3d9	0.0039276895
16	0x389649c8	7.1663e-05
17	0xbb4ded14	-0.0031421827
18	0xbad5741f	-0.0016285217
19	0x3b6972b4	0.0035621347
20	0x3b2a1ff0	0.0025958978
21	0x3b41f06d	0.0029592768
22	0xbab5acae	-0.0013860667
23	0x3ac9d750	0.0015399251
24	0x3b246778	0.0025086086
25	0x3ae9fcf6	0.0017851877
26	0x3b85bf28	0.0040816255
27	0x39ec1ab6	0.0004503333
28	0x3919e2e8	0.00014675746
29	0xbb46b411	-0.003031973
30	0xba8e5248	-0.0010858262
31	0x3b151973	0.0022750765
32	0x3b8ac9dc	0.0042354893
33	0x3b27d9a6	0.0025611906
34	0x399b52da	0.00029625633
35	0xbb31190a	-0.002702298
36	0xbb4cfc48	-0.00312783
37	0x3aca025b	0.0015412079
38	0xbae62ce0	-0.0017560981
39	0x3b22373b	0.0024752158
40	0xbafd786b	-0.0019338256
41	0x39b8a1b4	0.00035215693
42	0x3b8291f6	0.003984685
43	0x3b207b6c	0.0024487628
44	0x3b53b2af	0.0032302549
45	0x3b2b9f64	0.0026187534
46	0xbb2ad859	-0.0026068895
47	0xbb053cf2	-0.0020330516
48	0x3a780e39	0.00094625686
49	0x3b14506b	0.002263094
50	0x398e1be5	0.00027105134
51	0xba984eb9	-0.0011620141
52	0x3b14c36d	0.002269949
53	0xbb088dd1	-0.0020836482
54	0xbb5a23ed	-0.0033285574
55	0x3a0d9000	0.0005400181
56	0x3b3a2ea6	0.0028409152
57	0xbaee8097	-0.0018196282
58	0xba8b8bdb	-0.0010646539
59	0x3ade40a6	0.0016956523
60	0xbb23034e	-0.0024873796
61	0xbb0e5439	-0.002171768
62	0x3acbd2b7	0.0015550469
63	0x3b28165f	0.00256481
64	0x3b8e39ba	0.0043403776
65	0x3b4b5da8	0.0031031165
66	0x3a39fc56	0.0007094791
67	0xbb01f010	-0.0019826926
68	0x3b61d319	0.00344581
69	0x3a9a7fa8	0.0011787312
70	0x3b8546fd	0.0040673004
71	0x3b2c6c6c	0.0026309742
72	0xbb36c67b	-0.00278893
73	0xbb61d102	-0.0034456854
74	0x394c11d1	0.00019461593
75	0xbb7579eb	-0.0037456702
76	0xb9f991f8	-0.00047601736
77	0x3acd1735	0.0015647175
78	0x3933d794	0.0001715108
79	0x3b4ab47b	0.0030930329
80	0x3b2df6aa	0.0026544728
81	0x3b010b8c	0.001969072
82	0x3b79edfc	0.0038136235
83	0xbaef31e8	-0.0018249126
84	0xbb8feb14	-0.004392037
85	0x38679c59	5.5220302e-05
86	0x3aed1682	0.0018088373
87	0x3a59c1ba	0.00083067606
88	0xba85ddc0	-0.0010213181
89	0xbb35576b	-0.0027670513
90	0xbb602a3f	-0.0034204868
91	0xba34523a	-0.0006878708
92	0x3b8fd879	0.004389819
93	0x3b941568	0.0045191534
94	0x3adf65cc	0.0017043888
95	0xbac06d77	-0.001468106
96	0xbb3d4403	-0.002887965
97	0xbb6a0ec9	-0.003571438
98	0x3b85c497	0.004082273
99	0xb9779bd8	-0.00023613812
100	0xbb3bfd42	-0.002868489
101	0xbb43f9ef	-0.002990361
102	0x3b6cf216	0.0036155037
103	0x3b6cb8c8	0.003612088
104	0xba8ff26b	-0.001098228
105	0xbab8c5f3	-0.0014097079
106	0xbb0e7167	-0.0021735074
107	0xbb33c665	-0.0027431485
108	0xba92fde4	-0.0011214581
109	0x3b39a60c	0.0028327731
110	0x3a0caf10	0.00053666625
111	0x3ae83322	0.0017715434
112	0xbb02a9a5	-0.0019937542
113	0x3a1d6e96	0.00060055533
114	0x3a3562cc	0.0006919324
115	0xbb70d35c	-0.0036747074
116	0x3b2303e5	0.0024874147
117	0xbb73b84c	-0.0037188707
118	0xba830aff	-0.0009997784
119	0x3b6736a8	0.003528038
120	0x3b013ecb	0.0019721265
121	0xba175a5e	-0.00057736586
122	0x3955e62d	0.0002039901
123	0xbb7f2923	-0.0038934432
124	0x3b5dada5	0.0033825424
125	0x3b8d8b89	0.0043196124
126	0xba6a48da	-0.00089372473
127	0xbb9e77b7	-0.0048360485
128	0x3b838885	0.004014077
129	0xbb1e7a34	-0.0024181725
130	0xba8b8c0b	-0.0010646594
131	0x39912221	0.00027681983
132	0xbaa22447	-0.0012370431
133	0xbb9009a5	-0.004395681
134	0x3b0fff22	0.002197214
135	0x39eb5b29	0.00044890612
136	0x3b63f4b3	0.0034783303
137	0xbb93b733	-0.004507923
138	0x3b826de6	0.003980386
139	0xbac60f5e	-0.0015110781
140	0x3ae32629	0.0017330098
141	0xbb373e19	-0.0027960597
142	0xba6cf5b2	-0.0009039297
143	0xbb2fc2a1	-0.0026818889
144	0x3b6aaa50	0.003580708
145	0xba971d60	-0.001152914
146	0x3a97b039	0.0011572904
147	0xba057baa	-0.0005091975
148	0xbb7c4362	-0.0038492312
149	0xbb27dda4	-0.0025614286
150	0xba622f69	-0.00086282805
151	0xbb0d09da	-0.0021520765
152	0xbb3288b0	-0.0027242117
153	0x3acf73b0	0.0015827324
154	0x3b7a2f66	0.0038175224
155	0x3b084b37	0.0020796785
156	0xbb621672	-0.0034498242
157	0x3b6d1b9e	0.0036179791
158	0x3a37d6d5	0.00070129085
159	0x3ba90b39	0.0051588085
160	0xbb191ff0	-0.0023364983
161	0x390209ac	0.00012401369
162	0xb9c343fc	-0.0003724395
163	0xba2a479a	-0.0006495655
164	0x3b90839d	0.004410221
165	0x3aaabaed	0.0013025679
166	0x3af9d446	0.0019060455
167	0x3b2e78f1	0.002662238
168	0xbb1b1e86	-0.0023669316
169	0x3b460cd8	0.0030220058
170	0xbb0e884f	-0.0021748727
171	0xbb116310	-0.002218429
172	0xbb3e0633	-0.0028995394
173	0xbb81d4cc	-0.003962135
174	0xbb301e3f	-0.0026873497
175	0x3a90081d	0.0010988746
176	0x3a4e5df3	0.0007872276
177	0x3b2a8cea	0.0026023933
178	0x3a4809cc	0.00076308544
179	0x3aecc9e2	0.0018065537
180	0x3b57bcc6	0.0032918914
181	0x3a70a6f5	0.0009180152
182	0xbba573f8	-0.005049225
183	0x3a5cb764	0.00084196613
184	0xbad5e163	-0.0016317781
185	0xbb826ff9	-0.0039806333
186	0xba8e1285	-0.001083926
187	0xba92f4e2	-0.0011211897
188	0xbb7f6c26	-0.0038974374
189	0xbb548cf6	-0.0032432652
190	0xbad467ab	-0.0016205212
191	0x3b0d8ca2	0.0021598716
192	0x3b860e57	0.004091065
193	0x3a483b3e	0.00076382223
194	0x3b37b9cc	0.0028034328
195	0x3b7b2c0a	0.003832581
196	0xbaf7f030	-0.0018916186
197	0x3abd3a75	0.0014436977
198	0x3a854677	0.0010168095
199	0x3b30757a	0.002692549
200	0xba964e6c	-0.0011467463
201	0x3b862330	0.00409355
202	0x3a3423e7	0.0006871805
203	0xbb76ed55	-0.0037678082
204	0xba935fc5	-0.0011243752
205	0x3b42488a	0.0029645287
206	0xbb6743e8	-0.0035288278
207	0x3aa911d8	0.0012898995
208	0x3b7b233c	0.0038320562
209	0xbb1140e9	-0.0022163934
210	0xbace33cb	-0.0015731988
211	0xb9cc7638	-0.00038997992
212	0xba346c13	-0.00068825594
213	0x3b8dff29	0.004333396
214	0x3b2aa731	0.0026039595
215	0xbaa56f66	-0.00126217
216	0xbaa8025e	-0.0012818088
217	0xbb01b67c	-0.0019792607
218	0x3b26de6b	0.0025462161
219	0x3b1e28c5	0.0024133187
220	0xbb1b4871	-0.0023694301
221	0x3a2e50f2	0.0006649635
222	0xba9eb526	-0.001210843
223	0xbb543f36	-0.003238631
224	0x3b30a2c9	0.0026952496
225	0xba028bbd	-0.0004979929
226	0x3b964fba	0.004587141
227	0x3b5f992a	0.0034118393
228	0xba56d326	-0.0008194916
229	0xba7a6c71	-0.0009552902
230	0x39d70481	0.0004101135
231	0x3b6e716f	0.003638353
232	0xbb821a15	-0.0039703944
233	0x3b3fe73f	0.002928212
234	0xba228903	-0.0006200226
235	0x3b5569eb	0.0032564353
236	0xbb836f89	-0.0040110988
237	0x3b491199	0.0030680655
238	0xb9f3c257	-0.00046493366
239	0x3b30a847	0.002695577
240	0xbb5cb35c	-0.0033676242
241	0x39ed4316	0.00045254146
242	0xbad2e85e	-0.0016090979
243	0xba4005e0	-0.0007325094
244	0xbb13c281	-0.0022546353
245	0xbb7f6308	-0.003896894
246	0xbac6cb4d	-0.001516679
247	0xbb5d0022	-0.0033722003
248	0x3b925746	0.00446597
249	0xbaf9ae49	-0.0019049133
250	0x3b506a83	0.0031801767
251	0x3a6faa00	0.00091424584
252	0xbb0dbf5c	-0.0021628952
253	0x3aa43a71	0.0012529624
254	0x3baa3138	0.0051938556
255	0x39f27001	0.00046241286

layers.1.bias f4 [256]
0	0x3d50c50c	0.05096917
1	0xbd1742d8	-0.03692898
2	0x3b7960ce	0.0038052085
3	0x3d7212fb	0.059100132
4	0x3d361b2a	0.0444595
5	0xbc06e80f	-0.008234038
6	0xbd23a664	-0.039953604
7	0xbd709a98	-0.058741182
8	0xbca95e4c	-0.020674847
9	0x3d5baaf2	0.053629823
10	0x3c1637b1	0.009168551
11	0xbd12713c	-0.03575252
12	0xba8bbd9e	-0.0010661369
13	0x3bee0906	0.0072642593
14	0x3cd40016	0.025878947
15	0x3d36ca43	0.044626486
16	0x3d755c53	0.0599025
17	0xbc607d32	-0.013701724
18	0x3c514c3b	0.012774522
19	0x3d17fdb6	0.037107192
20	0xbc32b0aa	-0.010906378
21	0x3c7b555f	0.015340178
22	0xbd50f98d	-0.05101924
23	0x3ad5eaf7	0.0016320635
24	0xbb3c8f21	-0.0028771835
25	0x3ce87638	0.028376684
26	0x3cb25753	0.021770155
27	0x3d520ce8	0.05128184
28	0x3d63b28b	0.055590194
29	0x3d5a1afd	0.053248394
30	0x3d14b078	0.036301106
31	0xbd0a33e3	-0.03374089
32	0x3d3c53bc	0.045978293
33	0x3cbbeb89	0.02293946
34	0xbd7bf68e	-0.06151443
35	0x3d190e23	0.037366997
36	0xbbb83ef8	-0.005622741
37	0xbc33b172	-0.010967599
38	0xbc1956af	-0.009359046
39	0xbd2e0f37	-0.04249498
40	0x3c332b34	0.010935593
41	0x3bb2d074	0.0054569785
42	0xbcfbfe55	-0.030760923
43	0x3cd7ded1	0.026351364
44	0x3d45b918	0.048272222
45	0xbccb4e97	-0.024817748
46	0x3b24f439	0.0025169982
47	0xbc3c7605	-0.011502747
48	0x3d12b73f	0.03581929
49	0x3d158ceb	0.036511343
50	0xbd79b4ab	-0.060963314
51	0xbd5cacdc	-0.05387579
52	0x3af0a1b8	0.0018358743
53	0xbc9aa03c	-0.018875234
54	0xbd08827e	-0.033327572
55	0xbcfa84ee	-0.030580964
56	0x3cb1b3bf	0.021692155
57	0x3d52054e	0.05127459
58	0xbd5443c4	-0.05182244
59	0xbc9d3cf6	-0.019194108
60	0xbc99954d	-0.01874795
61	0xbcf92157	-0.030411405
62	0xbc4d484e	-0.012529446
63	0x3c080a4d	0.008303237
64	0xbc7e9188	-0.015537627
65	0xbc47932a	-0.012181083
66	0x3cad8769	0.021182733
67	0x3b368d0a	0.0027855062
68	0x3cc7886e	0.024357047
69	0x3d34c029	0.04412857
70	0xbcf1b4b7	-0.029505117
71	0xbd245b32	-0.040126033
72	0xbcbdbf73	-0.02316258
73	0xbd3d05c6	-0.046148084
74	0xbd29bc7a	-0.04143951
75	0xbc4af7bd	-0.012388167
76	0xba5c7d6b	-0.0008411023
77	0xbd2816f4	-0.041037515
78	0x3cade558	0.021227524
79	0x3d5070ad	0.050888706
80	0xbd7c0ef2	-0.06153769
81	0x3c3fa8e6	0.011697983
82	0xbcd0ac0c	-0.025472663
83	0xbd282bf5	-0.041057546
84	0x3cb562a1	0.022141756
85	0xbd706bc2	-0.058696516
86	0xbd65e7d4	-0.05612929
87	0x3c11750b	0.008878003
88	0xbc7fa245	-0.015602653
89	0xbc71b46b	-0.014752488
90	0x3d7412f5	0.05958839
91	0xbcaf4073	-0.021393036
92	0x3cf64666	0.030062865
93	0x3caa8608	0.020815864
94	0x3d413822	0.047172673
95	0x3d29df69	0.041472826
96	0xbca82823	-0.020526951
97	0x3ca11483	0.019663101
98	0x3d4d018c	0.050050303
99	0x3c588a33	0.013216543
100	0x3c85ce0d	0.016333604
101	0xbc3030e0	-0.01075384
102	0xbd33f24b	-0.04393224
103	0xbc1a9fce	-0.0094375145
104	0xbd4de754	-0.05026944
105	0x3d72a1b0	0.05923623
106	0x3d64b914	0.055840567
107	0x39afaf98	0.0003350943
108	0xbc9384a5	-0.018007586
109	0xbd0c4843	-0.0342486
110	0xbca00d47	-0.019537581
111	0xbc1d79bd	-0.009611544
112	0xbc6db3d2	-0.014508205
113	0x3d73880b	0.059455913
114	0xbd1054db	-0.035237174
115	0x3d2c5c80	0.042080402
116	0xbc89998d	-0.016796852
117	0xbd3b7d20	-0.045773625
118	0x3c781b0f	0.01514317
119	0x3c15895d	0.009126988
120	0x3d615108	0.055008918
121	0xbd6f8fd2	-0.058486767
122	0x3bc5d8c1	0.006037802
123	0xbd4bb935	-0.049737174
124	0xbc0ea6be	-0.008706747
125	0xbb8e5e2c	-0.0043447223
126	0xbd77403c	-0.060363993
127	0xbcc505f6	-0.024050694
128	0xbcbe3f12	-0.023223434
129	0x3d757518	0.059926122
130	0xbca17046	-0.019706856
131	0xbcaaaa4b	-0.020833155
132	0x3d27f4a4	0.04100479
133	0x3d3ed9d8	0.04659447
134	0x3d39b29f	0.045336362
135	0xbc3e748d	-0.011624468
136	0xbd05704a	-0.03257779
137	0xbd45aa31	-0.04825801
138	0xbd473bff	-0.0486412
139	0xbbf03560	-0.0073305815
140	0x3d7d037c	0.0617709
141	0xba8535d6	-0.0010163139
142	0xbc2031cc	-0.0097774975
143	0x3c6b2c6c	0.014353853
144	0x3cf657af	0.030071108
145	0xbc70677b	-0.014673109
146	0x3d44635f	0.04794633
147	0x3cf55264	0.029946513
148	0x3a623c78	0.00086302264
149	0x3cf9e147	0.030502928
150	0xbd20d1e2	-0.03926266
151	0xbbdd8b69	-0.0067610038
152	0x3ccfa7bc	0.025348537
153	0x3cb26248	0.02177538
154	0xbab2561b	-0.0013605984
155	0xbc986d8c	-0.018606924
156	0x3c0927f2	0.00837134
157	0xba8c1feb	-0.0010690665
158	0xbd7d639d	-0.061862577
159	0x3d519fc6	0.051177762
160	0xbd07ed1e	-0.033185117
161	0x3d3570fd	0.044297207
162	0x3d156b3e	0.036479227
163	0xbccc2317	-0.024919076
164	0x3ba30c2b	0.004975816
165	0xbcc98c84	-0.024603136
166	0x3cd625af	0.026141016
167	0x3a5936f6	0.0008286083
168	0x3d4db1d7	0.05021843
169	0xbd14acf7	-0.036297765
170	0x3d628cc5	0.05531003
171	0x3ce2b8f4	0.027676083
172	0x3d7c99eb	0.061670225
173	0x3c7cabbf	0.015421807
174	0x3c4238d4	0.011854369
175	0x3d32d576	0.043660603
176	0xbd772356	-0.060336433
177	0x3c0f877c	0.008760329
178	0x3cabd708	0.020976558
179	0xbd4e82d2	-0.05041773
180	0xbd24d203	-0.040239345
181	0xbc754111	-0.014969126
182	0xbcf05b6c	-0.029340468
183	0x3d61b35c	0.05510269
184	0x3cbc7a03	0.023007398
185	0xbc6901d9	-0.014221632
186	0x3a01e19f	0.00049545796
187	0xbd7b7b30	-0.061396778
188	0xbc8399f3	-0.01606462
189	0x3d09d644	0.033651605
190	0x39ce233e	0.0003931764
191	0x3b94f056	0.004545252
192	0x3b07697c	0.0020662239
193	0x3c2beb71	0.010493145
194	0x3c2084d8	0.009797297
195	0x3c2df021	0.010616333
196	0x3bd6da4b	0.0065567843
197	0x3d7db9ba	0.0619447
198	0x3c7eb91c	0.015547063
199	0x3d51ade6	0.051191233
200	0xbb775c0a	-0.0037744069
201	0x3d2e1392	0.042499132
202	0x3d07d040	0.033157587
203	0xbca5be3a	-0.020232309
204	0xbca91631	-0.020640464
205	0xbd209da5	-0.03921284
206	0x3c74a2f2	0.014931427
207	0x3d250548	0.04028824
208	0xbd07f052	-0.03318817
209	0xbd1b5347	-0.037921216
210	0xbd024c3a	-0.031810977
211	0xbce9e163	-0.028549856
212	0x3d1ff465	0.039051432
213	0x3d50f4c9	0.051014695
214	0xbcbd2bce	-0.023092177
215	0xbb84b4dd	-0.004049881
216	0x3c97a47a	0.018511046
217	0xbc90415e	-0.017609295
218	0x3d6e392e	0.05816
219	0xbcf3f840	-0.02978146
220	0xbc8f581d	-0.01749807
221	0xbd42c287	-0.047548797
222	0xbd314373	-0.043277215
223	0xbb8d5535	-0.004313136
224	0xbd78541e	-0.060627095
225	0xbd7483a2	-0.059695847
226	0x3b9c23da	0.004765016
227	0xbd3fff79	-0.046874497
228	0x3d10ddeb	0.035367887
229	0xbd51657f	-0.051122185
230	0x3d7bd6fa	0.061484315
231	0x3a93681c	0.0011246237
232	0x3cdbeab2	0.02684531
233	0xbba264b9	-0.0049558547
234	0x3c971bdb	0.0184459
235	0xba3cabcb	-0.000719723
236	0xbd60eac5	-0.054911394
237	0x3d7ff0cc	0.0624855
238	0xbbbbc82c	-0.0057306495
239	0x3ce802bb	0.028321614
240	0xbceb7755	-0.028743425
241	0x3c2019ea	0.009771803
242	0x3c92ba32	0.01791105
243	0x3d720fb4	0.059097007
244	0xbd6d1b31	-0.05788726
245	0x3d7d1c1f	0.061794396
246	0x3b53c584	0.0032313773
247	0xbc938143	-0.018005973
248	0x3c055fe9	0.008140543
249	0x3d6d45d4	0.05792792
250	0x3be9eebf	0.0071390565
251	0xbc942abc	-0.018086784
252	0xbc7a9389	-0.015293964
253	0xbd475cff	-0.048672672
254	0xbd735d9d	-0.05941545
255	0x3d7962f1	0.060885374

layers.2.weight f4 [256, 256]
0	0xbadb374e	-0.0016724856
1	0x3b954767	0.004555631
2	0x3b9fcd0c	0.0048767384
3	0x3b839456	0.0040154858
4	0xbb748b68	-0.0037314538
5	0xbb9eb446	-0.0048432676
6	0xbb96cf03	-0.0046023144
7	0x3a2cb6db	0.0006588527
8	0x3b285ce2	0.0025690128
9	0xbb68ed75	-0.0035541926
10	0xbafd144f	-0.0019308421
11	0xbb98b958	-0.0046607666
12	0x3a7b2e46	0.00095817854
13	0x3ac73397	0.001519787
14	0x3b502b20	0.0031763986
15	0x3b124299	0.0022317527
16	0xbb5839b9	-0.003299339
17	0x398af84c	0.00026506407
18	0xbb0e9ca0	-0.0021760836
19	0xbb687d12	-0.0035474938
20	0x3a801683	0.0009772334
21	0x3ba68963	0.0050822957
22	0xbb2a74d3	-0.0026009574
23	0xba3c4776	-0.00071822794
24	0x3ba26d11	0.0049568494
25	0x3b03eef0	0.0020131432
26	0x3b988ced	0.0046554715
27	0xbb593d5f	-0.0033148152
28	0x3b7a745d	0.003821633
29	0xbb380a9a	-0.002808249
30	0xbb099603	-0.0020993955
31	0x3a6f7b89	0.00091355346
32	0xbb1c9b82	-0.00238964
33	0xbb87d157	-0.0041448283
34	0x3b1baa44	0.002375261
35	0xbb8de350	-0.0043300763
36	0xbb3e3a0d	-0.00290263
37	0x3a4bd592	0.000777566
38	0xbaba2682	-0.001420215
39	0x3b2c3852	0.0026278687
40	0x3baf5615	0.005350838
41	0xbb3fcce5	-0.0029266414
42	0xbb840e41	-0.0040300195
43	0x3b10c0cf	0.002208758
44	0x3afa358e	0.0019089447
45	0xbaf84b52	-0.0018943346
46	0xba9ca81e	-0.0011951958
47	0xbb8cfb7c	-0.00430244
48	0xb948d509	-0.00019152848
49	0xbb16e30c	-0.0023023514
50	0xbab33e2e	-0.0013675147
51	0x3b5bc42b	0.0033533673
52	0xbafb53fd	-0.0019174811
53	0x3b3846e7	0.0028118433
54	0x3b8299d9	0.003985625
55	0x3a9cb8e0	0.0011956953
56	0x3b872e5c	0.0041253995
57	0xbb20da19	-0.0024544059
58	0xbb33f0d9	-0.0027456789
59	0xbb383b5a	-0.0028111548
60	0xb8d94139	-0.00010359515
61	0xbb58e5e5	-0.0033096012
62	0xbb50a5dc	-0.003183714
63	0x3b8773e9	0.0041336906
64	0x3b40e9bf	0.0029436199
65	0x3aa22245	0.0012369832
66	0xbb6d1e9a	-0.003618157
67	0xbbaf08e3	-0.0053416356
68	0xba4024d7	-0.00073297083
69	0xb8052cbb	-3.175133e-05
70	0xba95e36c	-0.0011435575
71	0xbabc08e5	-0.0014345912
72	0x3b7a92df	0.0038234515
73	0xb90d3730	-0.00013467367
74	0xbb440d65	-0.002991521
75	0xbaac5e32	-0.0013150631
76	0xbb27d35c	-0.0025608158
77	0x396707ca	0.00022032778
78	0x3a4e74df	0.00078756915
79	0x3b44e29c	0.0030042296
80	0xba10885e	-0.00055134844
81	0xbb6a5951	-0.0035758803
82	0x3b2d5da3	0.0026453517
83	0xbb19114f	-0.0023356264
84	0x3b4a7309	0.003089132
85	0xbb86b10a	-0.00411046
86	0x3b44def9	0.0030040129
87	0xbb8c1e48	-0.0042760707
88	0xba7b5ff3	-0.00095891877
89	0xb9317b4b	-0.00016925966
90	0xbb8bab30	-0.0042623505
91	0x3b07b712	0.0020708484
92	0xbb920ec2	-0.0044573257
93	0xba52db0b	-0.0008043504
94	0xba29cf60	-0.00064777397
95	0xbac8198c	-0.0015266403
96	0xbab1857f	-0.0013543813
97	0xbb541b62	-0.0032364954
98	0x3a4a2fdf	0.0007712822
99	0xba8946c3	-0.0010473359
100	0xb934d497	-0.00017245334
101	0x3b5c0ff2	0.003357884
102	0xbb7c3cb0	-0.003848832
103	0x3b30ea2b	0.0026995044
104	0x3a5d7fbd	0.00084495154
105	0xbadddcab	-0.0016926726
106	0x3b3b67fb	0.0028595913
107	0x3a18ad23	0.0005824139
108	0x3b5dfb86	0.0033871843
109	0xbb558e77	-0.0032586136
110	0x3b64e617	0.0034927183
111	0xbb9ce944	-0.0047885496
112	0xbac28c1f	-0.0014842785
113	0xbb8392b0	-0.0040152892
114	0xb8e88e93	-0.000110891786
115	0x3b207100	0.0024481416
116	0x3b6e7b9b	0.0036389593
117	0x38e1a9c0	0.000107604545
118	0x3b41f5c1	0.0029595944
119	0x3af300f1	0.0018539709
120	0x3a163995	0.0005730626
121	0x3b3f8064	0.0029220814
122	0xbb721534	-0.0036938908
123	0xbb57ab19	-0.0032908379
124	0xb9c69b88	-0.00037881383
125	0xbb0345d0	-0.0020030625
126	0xbb1d9ac8	-0.0024048556
127	0xbaa5b269	-0.0012641671
128	0xbb81579f	-0.003947213
129	0x3b9645e6	0.0045859693
130	0xba47e66f	-0.0007625585
131	0xbaa13f6a	-0.0012302224
132	0x3918e41c	0.00014580827
133	0x3b913603	0.0044314875
134	0x396eab9c	0.00022761378
135	0xb850d24f	-4.978693e-05
136	0xbb1741a1	-0.002307989
137	0xb9467b36	-0.00018928651
138	0x3aa1d6ba	0.0012347319
139	0x3b88cd21	0.004174844
140	0x39cb91f5	0.00038827924
141	0x3b57d763	0.0032934777
142	0xbaaa6ed1	-0.0013002997
143	0x3b85f82a	0.0040884214
144	0xbb11a260	-0.0022222027
145	0xbb969c23	-0.0045962497
146	0x3b8434fc	0.0040346365
147	0x3a2ef0b5	0.00066734414
148	0x3ab593bb	0.0013853231
149	0x3b6d4f41	0.003621057
150	0xbb9136c6	-0.0044315783
151	0xb98d3de1	-0.0002693972
152	0x3b423c83	0.0029638119
153	0xbb818462	-0.003952549
154	0x3b1f02ef	0.0024263223
155	0xbb4a8268	-0.0030900482
156	0xbacf5da2	-0.0015820751
157	0x3b62d197	0.0034609789
158	0xbb59b100	-0.0033217072
159	0x3b9a11b5	0.004701818
160	0x3b12797e	0.0022350247
161	0xbb406705	-0.002935828
162	0xb96c438c	-0.00022531877
163	0x3a86f8eb	0.0010297572
164	0xbaefcd55	-0.0018295447
165	0x3ae960c0	0.0017805323
166	0xbb7b6f84	-0.003836603
167	0xba8ed4ae	-0.0010897124
168	0x370c21e7	8.352544e-06
169	0x39f2d92e	0.00046319648
170	0xbb07ae4d	-0.0020703257
171	0xb9fcf2a1	-0.00048245958
172	0x3abf1fb2	0.001458159
173	0xb9d9a7ef	-0.00041514586
174	0x3b846990	0.0040409043
175	0x3a1f2910	0.00060714874
176	0xbb608573	-0.003425923
177	0xbb9735ab	-0.004614552
178	0x3ab44ff4	0.0013756738
179	0x3a1cc97f	0.0005980953
180	0xba384c7d	-0.00070304406
181	0x3b19e806	0.0023484244
182	0xbb522e71	-0.0032071138
183	0xbb646efd	-0.0034856193
184	0x3a277bd3	0.00063889957
185	0xbb81f288	-0.0039656796
186	0x3b556c7f	0.003256589
187	0xba2ee836	-0.00066721754
188	0x3af9b903	0.001905233
189	0xbb78287a	-0.0037865923
190	0x3a49784b	0.00076854666
191	0xbb04aa8c	-0.0020243255
192	0xb95b2ad1	-0.00020901418
193	0xbb373c7f	-0.0027959642
194	0xbb7890a1	-0.0037928002
195	0x3a8da141	0.0010805504
196	0x3b8f93de	0.004381641
197	0xba7166b7	-0.0009208726
198	0x361118cf	2.1621124e-06
199	0xba1e7aa9	-0.00060454995
200	0x3b883369	0.004156519
201	0xbb5f6d7d	-0.003409236
202	0x39a5ec21	0.00031647182
203	0x3920e6cc	0.00015344768
204	0x3b866c4a	0.0041022645
205	0x3a4b0fa4	0.0007746166
206	0xba751708	-0.000934944
207	0x3ae5e6d8	0.001754011
208	0xbb58cf95	-0.0033082713
209	0x3b4f968f	0.0031675433
210	0xbb23eddf	-0.0025013608
211	0x3aac8a08	0.0013163695
212	0x3b82119b	0.003969384
213	0x3b2f0510	0.0026705898
214	0xb8318cb7	-4.233114e-05
215	0xba0ae02c	-0.00052976864
216	0x3b917c0d	0.004439837
217	0x3a9f1ec9	0.0012139912
218	0xbb2a487f	-0.0025983152
219	0x3b8a644f	0.0042233835
220	0xbb4c8967	-0.0031209828
221	0xbb4f8a52	-0.0031668139
222	0xba97d262	-0.0011583085
223	0x3b53870c	0.003227654
224	0xbb8396db	-0.004015786
225	0x3a268d59	0.000635346
226	0x3a1a965f	0.0005897041
227	0xbb39445e	-0.002826951
228	0x3b43d7c2	0.002988324
229	0x3afca681	0.0019275696
230	0xbb50e885	-0.0031876874
231	0x3b7a6caa	0.0038211741
232	0x3b8f64b5	0.004376019
233	0x3afe3245	0.0019393644
234	0x3b732033	0.003709805
235	0xb956b893	-0.0002047739
236	0x3b1ce75a	0.0023941607
237	0xb9924ab8	-0.0002790296
238	0x3a93e40f	0.0011283177
239	0x3b9033dd	0.004400714
240	0xbb082d69	-0.002077902
241	0xbaee431b	-0.0018177958
242	0xbb446dc5	-0.0029972654
243	0x3916a713	0.00014367355
244	0xbb9261e7	-0.0044672373
245	0xbb407545	-0.0029366773
246	0x3b2f1db3	0.0026720583
247	0x3ab0f152	0.0013499653
248	0x3b857b22	0.0040735165
249	0xbb80e186	-0.0039331345
250	0xbb881d09	-0.004153852
251	0xba6e6ba8	-0.00090950215
252	0x3a9d881c	0.0012018713
253	0xbb616490	-0.0034392215
254	0x3a750edf	0.0009348224
255	0xb9e75f26	-0.00044130645

layers.2.bias f4 [256]
0	0x3cf7d25e	0.030251678
1	0x3d1764af	0.036961254
2	0xbcc5882f	-0.024112789
3	0x3d130479	0.035892937
4	0x3cc730b9	0.024315225
5	0x3c9f15bb	0.019419542
6	0xbd10fec6	-0.03539922
7	0x3ba88ed6	0.0051439805
8	0x3c8933f6	0.01674841
9	0xbd32a18f	-0.043611106
10	0xbd6ca23b	-0.057771903
11	0x3c212549	0.00983555
12	0xbce8f387	-0.028436435
13	0x3ce437e7	0.027858688
14	0xbcb4891d	-0.022038037
15	0xbd041e56	-0.032255493
16	0xbc4cd53f	-0.012502014
17	0x3cd3b1a7	0.025841547
18	0x3d772808	0.06034091
19	0xbd26f21b	-0.040758234
20	0x3d0d884b	0.034553807
21	0x3d233d92	0.03985364
22	0x3c29cf47	0.01036436
23	0xbbdb621a	-0.006695044
24	0x3c56f994	0.0131210275
25	0x3b9c88ff	0.0047770734
26	0xbd6dd217	-0.058061685
27	0xbd02e0e1	-0.031952742
28	0xb90b9eca	-0.00013315227
29	0xbcc9b551	-0.024622591
30	0x3d26eeeb	0.040755194
31	0x3ce794b2	0.028269146
32	0xbcda9444	-0.026682027
33	0xbaecece7	-0.0018075973
34	0xbd056789	-0.032569442
35	0x3b48754c	0.0030587493
36	0x3c9595b4	0.01825986
37	0xbd74b69c	-0.059744462
38	0x3d680d68	0.05665341
39	0x3ccb8d23	0.024847573
40	0x3d19630d	0.037447978
41	0x3c1edac6	0.009695714
42	0x3c3c21e4	0.0114826895
43	0xbd368267	-0.044557955
44	0x3d2e8de5	0.04261579
45	0x3d3a9262	0.045549758
46	0xbbace433	-0.005276227
47	0xbd00b0c2	-0.03141857
48	0x3d078c6d	0.033092905
49	0x3d3961dc	0.04525934
50	0x3be6c270	0.0070422217
51	0x3d611b2f	0.054957565
52	0x3d1412ab	0.036150616
53	0x3ca914c9	0.020639794
54	0xbd7e3bb9	-0.062068675
55	0xbc1a67fc	-0.009424206
56	0x3cdded65	0.027090738
57	0xbd7e09b0	-0.062020957
58	0x3c66331f	0.014050274
59	0x3ca43820	0.020046294
60	0x3cd4605a	0.02592485
61	0x3d54160a	0.05177883
62	0x3cbd2348	0.023088112
63	0x3c6765b5	0.01412337
64	0xbd57ddd7	-0.052701797
65	0xbd4b1170	-0.049577177
66	0x3d3af429	0.045643006
67	0x3d0b6457	0.03403124
68	0x3c48dea5	0.012260114
69	0xbcbd7acd	-0.023129845
70	0x3d375c97	0.044766035
71	0xbcb625ec	-0.02223488
72	0x3cf91c14	0.030408897
73	0xbbe2c6b7	-0.0069206613
74	0x3d063bc3	0.032771837
75	0x3cb0d48a	0.021585722
76	0xbc103311	-0.008801238
77	0x3cb20888	0.021732584
78	0xbd0183c5	-0.031619806
79	0xbd11ccde	-0.035595767
80	0x3cdcc79e	0.026950654
81	0x3cce51c0	0.025185466
82	0xbc24a187	-0.010048277
83	0x3adb82e7	0.0016747386
84	0xbceee381	-0.029161217
85	0x3d378cb7	0.04481193
86	0xbc75db44	-0.01500589
87	0x3c8e1949	0.017346041
88	0xbc52d981	-0.01286924
89	0x3d3277e7	0.04357138
90	0xbd35810f	-0.044312533
91	0x3d26e26d	0.04074328
92	0x3d7a3335	0.06108399
93	0xbd278928	-0.040902287
94	0xbd592b44	-0.053019777
95	0x3d04a4f9	0.032383893
96	0x3c7b5001	0.015338899
97	0x3d1fa3d0	0.038974583
98	0x3c26da73	0.010183918
99	0x3cb1df47	0.021712912
100	0xbced817a	-0.028992403
101	0x3d4fe50b	0.05075554
102	0x3c90636b	0.017625531
103	0x3a76823f	0.00094035635
104	0xbb63f312	-0.0034782332
105	0x3c4fa394	0.012673277
106	0x3c855206	0.016274463
107	0x3d297419	0.041370485
108	0x3c1fd15b	0.009754504
109	0xbcab4ae9	-0.020909743
110	0x3ceb6e24	0.028739043
111	0x3d7ba43f	0.061435934
112	0x3cecb86c	0.028896533
113	0x3d3db085	0.04631092
114	0xbd18b476	-0.037281476
115	0x3cc7f1d8	0.024407312
116	0x3d711585	0.058858413
117	0xbd2dfe6c	-0.042478964
118	0x3bdbb3b0	0.00670477
119	0xbc9ef062	-0.019401733
120	0x3c3c1df6	0.011481753
121	0x3d2f3632	0.042776294
122	0x3c98e883	0.018665558
123	0xbcaa0f2a	-0.020759184
124	0x3d6740d1	0.056458298
125	0xbd4be6dc	-0.04978071
126	0x3ccc7f3f	0.02496302
127	0x3ce4af7d	0.02791571
128	0x3b6a7bb8	0.0035779309
129	0xbd30f5fb	-0.043203335
130	0x3d45a062	0.048248656
131	0xbb870acf	-0.0041211615
132	0x3bff101e	0.0077839037
133	0xbc9ae4e1	-0.018907966
134	0x3d35251d	0.044224847
135	0xbd0095f0	-0.03139299
136	0xbd55d555	-0.052205402
137	0x3c462892	0.012094634
138	0x3b87b3b3	0.004141295
139	0xbd12afa0	-0.03581202
140	0xbca2852a	-0.019838888
141	0x3b7b5493	0.003834997
142	0xbcfa75a9	-0.030573683
143	0xbcdb2f06	-0.026755821
144	0xbcac29b8	-0.021015987
145	0xbb85939d	-0.0040764348
146	0xbd451454	-0.04811509
147	0x3c465f6f	0.012107714
148	0xbd127e6c	-0.035765097
149	0x3b9c7443	0.0047746017
150	0x3ccfbff2	0.025360081
151	0xbc991c99	-0.018690394
152	0x3d2cca96	0.04218539
153	0xbd6250e7	-0.055252936
154	0x3d464658	0.04840693
155	0xba706545	-0.0009170364
156	0x3c728d35	0.014804174
157	0x3d595659	0.053060863
158	0xbd7b946f	-0.061420854
159	0x3c1fb0ca	0.00974674
160	0xbc1fe4da	-0.009759152
161	0xbd034b36	-0.03205415
162	0x3cde697e	0.027149912
163	0x3d2d3aef	0.04229253
164	0xbca467ca	-0.020069022
165	0xbc53ec34	-0.012934733
166	0x3d07765c	0.03307186
167	0x3c70a8fa	0.014688725
168	0xbc8ae077	-0.016952736
169	0x3c347b8d	0.011015785
170	0xbd396009	-0.045257602
171	0x3d63aca5	0.05558457
172	0x3cb5468d	0.022128368
173	0x3d303f1d	0.04302894
174	0xbd7a954a	-0.06117753
175	0xbd3a7579	-0.045522187
176	0xbcc89e75	-0.02448962
177	0x3d422f17	0.04740819
178	0x3c4f9288	0.012669213
179	0x3d685527	0.056721833
180	0xbd4616d5	-0.048361618
181	0xb8ffa4e7	-0.00012190063
182	0x3d175cf2	0.036953874
183	0x3d5fe2e3	0.054659735
184	0x3d47067c	0.04859017
185	0xbd272612	-0.04080779
186	0x3cdc2a20	0.026875556
187	0x3d162713	0.036658358
188	0xbcf37c07	-0.029722227
189	0xbc7dd4eb	-0.015492658
190	0x3cc422a9	0.023942309
191	0x3cb23d77	0.021757824
192	0x3d72c366	0.059268378
193	0xbd4be9cc	-0.049783513
194	0x38cd6061	9.793114e-05
195	0xbcad530d	-0.021157766
196	0xbd425faf	-0.047454532
197	0x3d4822cc	0.04886131
198	0x3d04f2f5	0.032458264
199	0x3d3bd7da	0.04586015
200	0x3c71fb44	0.014769379
201	0x3ba674f4	0.00507986
202	0xbd21c68f	-0.039496
203	0xbd2a2c31	-0.04154605
204	0x3c2750b3	0.010212111
205	0x3d50da08	0.05098918
206	0xbc511e63	-0.012763592
207	0x3aba24d1	0.0014201646
208	0x3d085843	0.033287298
209	0x3ccf0364	0.025270171
210	0xbcac8189	-0.02105786
211	0x3d088220	0.033327222
212	0x3cdc9b64	0.026929565
213	0x3d245db0	0.04012841
214	0x3d04da7e	0.032434933
215	0xbd20a784	-0.039222255
216	0x3cfb9ba1	0.030713858
217	0x3d4f9055	0.050674755
218	0x3c0e42c1	0.008682908
219	0x3d1f5f16	0.03890904
220	0x3c667efa	0.0140683595
221	0x3abf6ae0	0.0014603995
222	0x3d13c727	0.0360786
223	0x3d36f6c2	0.04466892
224	0x3d19f835	0.037590224
225	0x3c0976de	0.008390157
226	0x3ca9e073	0.020736909
227	0x3c8b0b3b	0.016973129
228	0xbc58c333	-0.013230133
229	0xbd6208bb	-0.055184107
230	0xbd3611b7	-0.044450488
231	0xbd3a191a	-0.045434095
232	0x3d526d8c	0.051374003
233	0xbd73a371	-0.05948204
234	0xbd710225	-0.058839936
235	0xbc2ad0b5	-0.010425736
236	0x3bf512f2	0.007479065
237	0xbd335d5c	-0.043790206
238	0xbaa1ce63	-0.0012344833
239	0xbd5c6930	-0.053811252
240	0x3d79dc41	0.061001066
241	0xbce739d2	-0.028225813
242	0x3d0fa67a	0.035070874
243	0xbca5e154	-0.020249046
244	0xbd198c20	-0.03748715
245	0xbcbd5700	-0.023112774
246	0x3d380961	0.04493082
247	0x3c1acfce	0.009448959
248	0xbc6db4f7	-0.014508477
249	0x3d063a12	0.032770224
250	0xbd07aff1	-0.033126775
251	0xbd160798	-0.036628336
252	0xbd257abb	-0.040400248
253	0x3d56f8f4	0.052483514
254	0xbb27bf14	-0.002559607
255	0xbd1f776b	-0.038932245

layers.3.weight f4 [2, 256]
0	0xbb1c5e20	-0.0023859814
1	0xba341efa	-0.0006871071
2	0xba4bd01c	-0.0007774846
3	0x3b6604c3	0.0035098053
4	0xb8510269	-4.9831728e-05
5	0x3a0ea260	0.0005441066
6	0xbb3360f1	-0.0027371014
7	0xbb576c2b	-0.003287087
8	0x3b3f1de5	0.0029162106
9	0x3a1044f8	0.0005503441
10	0x3a5968c7	0.0008293506
11	0x3affaa21	0.0019505658
12	0xbb083b16	-0.002078717
13	0xbb3d0006	-0.0028839125
14	0xba1135ad	-0.00055393093
15	0xbb61245e	-0.0034353952
16	0x3a646d9f	0.00087138446
17	0xbb14b448	-0.0022690464
18	0x3a27bc02	0.000639856
19	0xbb90cf1c	-0.0044192206
20	0xbb93be1f	-0.004508748
21	0xbb805309	-0.0039161486
22	0xb9abde68	-0.00032781367
23	0xbb2dbc42	-0.0026509915
24	0x3a25734c	0.0006311431
25	0x3b94b5b3	0.004538262
26	0xbb1cbf5f	-0.0023917777
27	0x3b817de3	0.0039517744
28	0x3a9dcf63	0.0012039955
29	0xbacda9b7	-0.0015690838
30	0xb9f997e5	-0.0004760615
31	0x3a946093	0.0011320285
32	0xbb69e641	-0.003569022
33	0xb99b7f48	-0.00029658736
34	0x3b111b96	0.0022141687
35	0xbb80d162	-0.0039312104
36	0xb9fa5275	-0.0004774515
37	0xbaa82750	-0.0012829099
38	0xbb333c62	-0.0027349223
39	0xba305b45	-0.00067274674
40	0x3ad67607	0.0016362079
41	0x3b42b1e2	0.0029708077
42	0xba27a149	-0.0006394578
43	0x3a18ee91	0.0005833889
44	0xbb8fbfa1	-0.0043868576
45	0x379e68cb	1.8883866e-05
46	0xbaec88f6	-0.0018046189
47	0x3b525f5c	0.0032100296
48	0x3b6aad7a	0.0035808966
49	0xbb0677ae	-0.0020518112
50	0xbb045869	-0.0020194298
51	0x3b8089ba	0.0039226683
52	0xbb2fe75e	-0.0026840786
53	0x3aefb9c3	0.0018289614
54	0xbb1b6ad3	-0.0023714795
55	0xbb81fbd7	-0.003966789
56	0x38a6db5d	7.9563564e-05
57	0xb991e9d7	-0.0002783078
58	0xb9b1d922	-0.00033921847
59	0x3a1e5c6d	0.0006040994
60	0x3aff5773	0.0019481018
61	0x3b849112	0.004045614
62	0xbababece	-0.0014247538
63	0xb980e6e2	-0.00024586084
64	0x3b329c48	0.0027253795
65	0x3ac9019b	0.0015335561
66	0x3af6fae0	0.0018843077
67	0x3acb493f	0.00155095
68	0x3a867b57	0.0010260147
69	0xbb8e5819	-0.004343998
70	0xbb6ae9db	-0.0035844955
71	0xbb21304f	-0.0024595445
72	0x3b878169	0.0041353
73	0xba2aa352	-0.0006509322
74	0x3b46dc7d	0.0030343824
75	0x3b0b7e27	0.002128491
76	0xbad139ee	-0.0015962699
77	0x39f68d3c	0.00047026004
78	0x39acb682	0.00032942375
79	0x3b92c19d	0.004478647
80	0x3b88cc63	0.0041747554
81	0x3b3c0b32	0.0028693196
82	0xbb05d714	-0.0020422386
83	0x3b7648fc	0.0037580123
84	0xbb0b784e	-0.0021281424
85	0xbb8aa30f	-0.004230864
86	0x3b2c8930	0.0026326887
87	0xbb04f3fb	-0.0020287025
88	0xbb4d4196	-0.003131961
89	0x3b76d3dd	0.0037662901
90	0x3a09e256	0.0005259862
91	0x3a9d75fa	0.0012013309
92	0x3a9a2317	0.0011759725
93	0xbb0a05e7	-0.0021060647
94	0x3a450e38	0.00075170724
95	0xbb34fe58	-0.002761742
96	0x3b9849a4	0.0046474505
97	0x3b89839c	0.0041965973
98	0x3b029ef3	0.0019931167
99	0xbb730eb7	-0.0037087628
100	0x3a1092f1	0.000551506
101	0xba99b70b	-0.0011727525
102	0xbb89cd0b	-0.004205351
103	0x3aa56c5b	0.0012620793
104	0xbb88be46	-0.004173073
105	0xba9b1e23	-0.0011834543
106	0xbac8bc3c	-0.0015314887
107	0x3aa15f23	0.0012311678
108	0xbb130d75	-0.002243844
109	0x3b4cff95	0.0031280268
110	0xbb8c02d1	-0.0042727967
111	0xbb47786c	-0.0030436767
112	0xbb9eec0e	-0.0048499173
113	0x3b2c46d1	0.0026287327
114	0x3b6ab9f1	0.0035816396
115	0x3a59b8ef	0.00083054503
116	0xbb2e7a94	-0.0026623355
117	0xbacb76f9	-0.0015523128
118	0x3afc0c96	0.0019229825
119	0xba940abe	-0.0011294705
120	0xbb93b677	-0.0045078355
121	0x3b1b12d2	0.002366234
122	0xbb8586a5	-0.004074889
123	0xbac720c1	-0.0015192257
124	0xb8f319fe	-0.000115919844
125	0xba33e86e	-0.0006862943
126	0xbb23e420	-0.00250078
127	0x3a9ccf99	0.0011963724
128	0xbae4fca7	-0.0017470316
129	0x3a3f7420	0.0007303376
130	0x3b7447b5	0.0037274186
131	0x3b25fa27	0.0025326104
132	0x3b67d319	0.0035373627
133	0xbb0b40b9	-0.0021248295
134	0x3b3653db	0.0027820978
135	0x397ce429	0.00024117589
136	0x3b49a998	0.0030771252
137	0xb9483f16	-0.00019096988
138	0xbb7faa9e	-0.0039011608
139	0xba3186c3	-0.0006772095
140	0xbb10c351	-0.0022089074
141	0xb9cba9b7	-0.00038845625
142	0x3aa739b6	0.0012758288
143	0xbba81796	-0.005129765
144	0x3b3d7d8b	0.002891394
145	0xb9f53bf2	-0.00046774704
146	0xb99f9284	-0.00030436006
147	0xb7b30214	-2.133943e-05
148	0xba831bb3	-0.0010002762
149	0x3a8214b1	0.0009924379
150	0xbb19c547	-0.0023463534
151	0xba6fcb71	-0.00091474416
152	0xbb57e9b1	-0.0032945687
153	0x3b639bc0	0.0034730285
154	0x3b8ec3a1	0.004356817
155	0x3a1613f3	0.00057250186
156	0xb9aa96d3	-0.000325373
157	0xbb2935ab	-0.0025819342
158	0xbb8b4945	-0.004250678
159	0x3b8a5479	0.0042214957
160	0xbaf40146	-0.0018616102
161	0xbb6f8390	-0.0036546923
162	0xbb378a25	-0.0028005925
163	0x3b3f1ab1	0.0029160196
164	0xbb419d02	-0.0029543047
165	0xbb316aa7	-0.0027071626
166	0x3af78a94	0.0018885904
167	0xbaf0a634	-0.0018360079
168	0xb97f4f4a	-0.00024348233
169	0x3b3ff55e	0.0029290537
170	0x39438bec	0.00018648774
171	0xbb69c728	-0.0035671685
172	0x3b3e85c7	0.0029071437
173	0xbb2c314c	-0.00262745
174	0x3b299996	0.0025878898
175	0xbb82c699	-0.00399096
176	0xbaa2cdc8	-0.0012420947
177	0xbb9086fa	-0.0044106217
178	0x3a9ca46e	0.0011950859
179	0xbb78758c	-0.003791186
180	0xbb8234ed	-0.0039735944
181	0xbb9a5c77	-0.0047107297
182	0xbb667c69	-0.003516937
183	0xbb853878	-0.0040655695
184	0xbb4c642d	-0.003118764
185	0xbba778cd	-0.005110836
186	0x3b9d1094	0.004793236
187	0x3aca25b0	0.0015422609
188	0xb562babe	-8.4463306e-07
189	0x3b92874f	0.0044716964
190	0xba9f22ae	-0.0012141073
191	0x3a8adfa5	0.0010595216
192	0xbb518d91	-0.003197525
193	0x3a58d03c	0.00082707754
194	0x3b33ef41	0.002745584
195	0xbb5e1ecd	-0.003389287
196	0x39d3fe46	0.00040434505
197	0xbb9e8ef5	-0.004838819
198	0xb9d246e0	-0.00040107127
199	0x3b68a01d	0.0035495826
200	0xbb68fa03	-0.003554941
201	0x3af9e538	0.0019065505
202	0x3a71e3ba	0.00092273543
203	0xbb81a09b	-0.0039559132
204	0xbb27c6db	-0.0025600705
205	0xbb922c23	-0.004460828
206	0x3b6785a6	0.0035327463
207	0x3af23b90	0.0018480886
208	0xba99a292	-0.0011721423
209	0x3b52d4c1	0.0032170268
210	0x3a86aedb	0.00102755
211	0x3a90a672	0.0011035933
212	0xbab24738	-0.0013601547
213	0x3b2fe5b1	0.0026839788
214	0x3b02218c	0.0019856421
215	0x3b6f455e	0.0036509852
216	0x3b8a9406	0.0042290716
217	0xbb370f6c	-0.0027932776
218	0xbb805a3e	-0.0039170077
219	0xba6174c9	-0.0008600471
220	0xba91d99a	-0.0011127472
221	0xbb6ebd3f	-0.0036428717
222	0x3b6b33d5	0.0035889049
223	0x3b797e96	0.0038069836
224	0xbb5c2d91	-0.0033596496
225	0xba221d5e	-0.00061841856
226	0x3b43fb12	0.0029904288
227	0x3b99dd2f	0.0046955566
228	0x3aae6c57	0.0013307434
229	0xbaf9a40d	-0.0019046083
230	0x3ba25080	0.004953444
231	0xbad1682e	-0.0015976483
232	0xb948ad06	-0.00019137943
233	0x3b533bc7	0.0032231675
234	0x3acbae99	0.0015539705
235	0xba30a3d3	-0.0006738279
236	0xba61a79f	-0.00086080463
237	0xba9552d8	-0.0011392487
238	0x3b7124c5	0.0036795598
239	0xb9fbb64b	-0.0004801027
240	0xbb6fd7a9	-0.003659705
241	0xbb076a42	-0.00206627
242	0x3b1b8cc6	0.002373503
243	0x3aece90a	0.0018074822
244	0xb77b5961	-1.4981576e-05
245	0xbaa7b9cf	-0.0012796464
246	0xbb907e8f	-0.004409618
247	0x3b817fad	0.0039519877
248	0xbb9fab13	-0.0048726886
249	0x3b7a8f71	0.003823247
250	0x3b38d3d5	0.0028202434
251	0xbb859ae8	-0.004077304
252	0xbb85a05c	-0.004077954
253	0x3b1a8abb	0.0023581225
254	0x3b2b9eca	0.0026187175
255	0xbb541d89	-0.0032366237

layers.3.bias f4 [2]
0	0xbd66a5ec	-0.05631058
1	0xbd08b463	-0.033375155
