old_figures/up2sept/558-SIREN-ncc-1e-05-2500-10000/epoch-1500.pth (torch, 534820 bytes, 8 tensors)

layers.0.weight f4 [256, 2]
-0.07948927 0.1986092 -0.38271442 0.06846654 -0.4555602 0.30945638 0.48512167 -0.17889746
0.07420956 -0.25749472 -0.319367 -0.25264066 -0.23821609 0.09404451 -0.058593836 0.035168316
-0.3817629 -0.31332293 -0.43158248 -0.3593961 0.4182807 0.18583481 -0.47549498 -0.082362324
0.04030496 0.2658146 0.46223617 0.12131825 0.3519075 -0.17822634 -0.015499903 -0.30053338
0.114926115 0.45901197 0.31296465 0.49721146 -0.22539985 -0.062300067 0.10348959 0.401499
-0.45845503 -0.24650927 0.07185412 -0.28768793 0.1858088 -0.033382896 -0.12956344 0.26705322
0.35684863 0.48504815 0.22541896 -0.013331764 0.40817773 0.3972011 -0.25019082 0.22697695
0.058858864 -0.21356976 -0.11783394 -0.11748436 -0.34933403 -0.15294568 0.16773814 0.36499408
0.037660163 -0.4824143 0.26434013 -0.15154451 0.44574478 -0.48158804 -0.11647276 0.38661808
0.21589632 -0.24746399 -0.43264598 -0.0060016215 0.19264616 -0.41317764 -0.4178322 -0.007482946
-0.101964265 0.31994343 -0.48373508 -0.080152534 -0.3872969 -0.07245268 -0.25462556 0.15711069
-0.4179681 -0.3933663 -0.28228495 -0.43590745 0.31453654 -0.07218601 -0.2775222 0.3493177
-0.11342607 0.25703627 -0.15564269 -0.41673934 0.109577544 0.3107036 -0.48708847 0.05122638
0.096136145 0.05586353 -0.012396601 -0.15077876 -0.38761494 0.08127622 -0.3347918 -0.41217652
-0.16010964 -0.34197742 0.15216649 0.3544647 0.3875912 -0.30956435 0.2719581 0.3550851
0.006653189 0.20851468 0.28293678 0.38259542 0.26752385 0.21330704 -0.18941844 -0.27697238
-0.236843 0.4098864 -0.12071856 0.017357636 -0.46588317 -0.022428485 -0.13991757 -0.32177243
0.38613907 -0.40321457 -0.07047273 -0.036426503 -0.4520027 0.3016744 -0.15869866 0.22427063
0.27925575 0.44119686 0.123275094 0.3733117 0.46123385 0.098693736 -0.102735765 -0.13683604
0.08056629 0.17871618 -0.47091296 0.3731965 0.07934813 -0.46449968 0.15969531 0.31606248
0.1864232 0.40675023 0.010297201 -0.41308147 -0.0010344376 0.36240682 -0.2398647 0.21301198
0.1147926 -0.08180008 0.0041358066 0.2105049 -0.34176502 0.31352162 0.33833578 0.2797603
0.49908754 -0.02191281 -0.35235205 0.023509914 -0.14525354 0.17587842 0.42275473 -0.27197057
0.021003272 0.48356342 -0.3975156 -0.085026026 0.48357812 0.34973416 0.14432634 -0.21539141
-0.04684608 -0.4476188 -0.4704549 -0.46761328 0.47988442 0.39395505 0.19860458 -0.12515752
0.42955214 -0.13193665 0.34656498 -0.015578956 -0.23427486 -0.13992451 -0.10714763 -0.45578596
0.14939965 -0.15196012 0.2297642 0.31951547 -0.07858751 0.241617 0.098535225 0.33432278
-0.32189932 -0.04443903 -0.16668856 0.43699926 -0.4479228 -0.2802172 0.056194164 0.4430676
0.33766383 -0.4673949 -0.3503197 0.48300752 0.07254488 -0.42683545 -0.1575639 0.21833755
-0.10451724 -0.38254106 -0.3081794 -0.2584416 -0.019704133 0.19402349 0.23917226 -0.24207184
-0.08473896 -0.38374332 0.377793 0.49748495 0.4851921 0.20435582 -0.10560511 -0.012557719
0.17958939 -0.4328715 0.03040723 -0.40474543 -0.4984459 -0.015370281 -0.15852518 -0.3171555
00000000: 45cb a2bd 3660 4b3e 25f3 c3be 2f38 8c3d
00000010: 303f e9be 1171 9e3e de61 f83e e530 37be
00000020: 2ffb 973d 59d6 83be 1284 a3be 1e5a 81be
00000030: ebee 73be 689a c03d 1700 70bd a70c 103d
00000040: 6d76 c3be dd6b a0be 61f8 dcbe c402 b8be
00000050: e328 d63e 7b4b 3e3e 1474 f3be 94ad a8bd
00000060: d016 253d da18 883e 38aa ec3e b475 f83d
00000070: 382d b43e f780 36be 4ef3 7dbc 83df 99be
00000080: 625e eb3d 9e03 eb3e e73c a03e 8092 fe3e
00000090: 38cf 66be 5b2e 7fbd 5af2 d33d 4791 cd3e
000000a0: 9eba eabe ed6c 7cbe 4128 933d d54b 93be
000000b0: a944 3e3e 81bc 08bd 47ac 04be 33bb 883e
000000c0: ddb4 b63e 3b58 f83e 3ad4 663e 796d 5abc
000000d0: acfc d03e f15d cb3e 0319 80be a56c 683e
000000e0: fe15 713d 08b2 5abe ec52 f1bd a49b f0bd
000000f0: e9db b2be cb9d 1cbe 8cc3 2b3e 81e0 ba3e
00000100: 8b41 1a3d 02ff f6be 9757 873e 7c2e 1bbe
00000110: a938 e43e b592 f6be 4589 eebd cef2 c53e
00000120: ed13 5d3e 3367 7dbe c683 ddbe 40a9 c4bb
00000130: 0945 453e 058c d3be 1aee d5be 8033 f5bb
00000140: a4d2 d0bd a0cf a33e 20ac f7be 0327 a4bd
00000150: c74b c6be 1262 94bd 485e 82be a0e1 203e
00000160: eaff d5be 4f67 c9be a787 90be 432f dfbe
00000170: ef0a a13e 42d6 93bd 6417 8ebe c5d9 b23e
00000180: ed4b e8bd 429a 833e cc60 1fbe dc5e d5be
00000190: 316a e03d 8b14 9f3e a963 f9be c1d2 513d
000001a0: 07e3 c43d 28d1 643d 1d1b 4bbc bf65 1abe
000001b0: 7775 c6be 2674 a63d d569 abbe cd08 d3be
000001c0: c8f3 23be aa17 afbe 88d1 1b3e 667c b53e
000001d0: 5b72 c63e 387f 9ebe 183e 8b3e b7cd b53e
000001e0: ff02 da3b df84 553e 17dd 903e 8ce3 c33e
000001f0: e3f8 883e 296d 5a3e e8f6 41be 53cf 8dbe
00000200: f986 72be a1dc d13e 4b3b f7bd 9a31 8e3c
00000210: 3d88 eebe f1bb b7bc 8d46 0fbe 5bbf a4be
00000220: 05b4 c53e 2472 cebe 0254 90bd f533 15bd
00000230: e66c e7be 1175 9a3e e781 22be 33a7 653e
00000240: 9cfa 8e3e 8ee4 e13e a777 fc3d b622 bf3e
00000250: d826 ec3e f11f ca3d 2167 d2bd bf1e 0cbe
00000260: f0ff a43d 6001 373e 811b f1be 9d13 bf3e
00000270: 4681 a23d e7d2 edbe 2b87 233e f1d2 a13e
00000280: b9e5 3e3e 9141 d03e 97b5 283c 6a7f d3be
00000290: f795 87ba 638d b93e 189f 75be d01f 5a3e
000002a0: 6218 eb3d cd86 a7bd a985 873b 998e 573e
000002b0: d3fb aebe e885 a03e 593a ad3e be3c 8f3e
000002c0: 6788 ff3e 7e82 b3bc 7d67 b4be dd97 c03c
000002d0: 58bd 14be 7919 343e 4f73 d83e ba3f 8bbe
000002e0: 0e0f ac3c a095 f73e 2a87 cbbe 2022 aebd
000002f0: 8d97 f73e 5b10 b33e 49ca 133e 918f 5cbe
00000300: ade1 3fbd 4b2e e5be 77df f0be 026b efbe
00000310: 69b3 f53e 7ab4 c93e 005f 4b3e 4b29 00be
00000320: 42ee db3e 671a 07be f770 b13e e13e 7fbc
00000330: c0e5 6fbe 5f48 0fbe 3770 dbbd c75c e9be
00000340: 39fc 183e 6f9b 1bbe 4e47 6b3e 8897 a33e
00000350: 7df2 a0bd 726a 773e d6cc c93d 5b2c ab3e
00000360: fdcf a4be b305 36bd 68b0 2abe 5ebe df3e
00000370: 2356 e5be a178 8fbe da2b 663d c2d9 e23e
00000380: 46e2 ac3e 624e efbe 1b5d b3be c34c f73e
00000390: 6992 943d 2d8a dabe 6e58 21be e193 5f3e
000003a0: 220d d6bd 6cdc c3be b1c9 9dbe 7552 84be
000003b0: 906a a1bc 18ae 463e 93e9 743e aee1 77be
000003c0: 9f8b adbd 017a c4be 166e c13e 59b6 fe3e
000003d0: 196b f83e a742 513e 7e47 d8bd e4be 4dbc
000003e0: 48e6 373e 55a1 ddbe 9518 f93c cb3a cfbe
000003f0: 4d34 ffbe a2d3 7bbc 6d54 22be 3562 a2be

layers.0.bias f4 [256]
-0.5282717 0.49540433 0.4073543 -0.6948637 -0.555537 -0.46591902 -0.3830467 0.08911746
-0.69904315 -0.524098 0.32300603 -0.23077613 -0.28164318 -0.5850585 0.28687546 0.04979912
-0.27403116 -0.4329391 0.15041019 0.19260728 0.31462377 0.20961854 -0.10809866 -0.5464827
0.45034495 -0.0062946514 -0.469731 0.609803 0.39301735 -0.5545702 -0.35289946 -0.24078192
-0.40801758 0.33062017 -0.50410545 0.6570084 -0.29218698 0.41728032 0.024251176 -0.31075656
0.4727555 -0.5387629 -0.373904 0.08492518 0.56102246 -0.3029387 -0.43000165 -0.4500432
-0.31076282 -0.24388207 -0.16456872 -0.40179455 0.21886295 0.0044288873 -0.4612507 -0.40380904
0.14965224 -0.0100759035 0.50001043 -0.10719718 -0.57272166 -0.5240669 -0.2078297 -0.15635194
0.08054794 -0.16001618 0.2606224 -0.23582296 0.51848024 0.16526404 -0.21676333 0.6303216
0.18122153 -0.48089063 -0.39356074 0.44309247 0.32248244 0.5527389 -0.055414665 0.49491775
0.3523523 0.21927251 -0.16365208 0.6811372 0.14339995 -0.18249714 -0.010086646 0.6946336
0.47475013 -0.05216476 0.6932075 0.31102064 -0.37573838 -0.64317393 0.41107756 0.6633741
-0.41183963 0.28990072 0.029524168 -0.15023084 -0.1921383 0.19672343 0.15629075 0.47682124
0.25912902 0.32189912 0.6242735 0.22049674 0.1053277 -0.25753838 0.5189532 0.10514175
0.4553974 0.6827357 -0.15853404 0.49766377 -0.14356461 0.63707125 0.55681354 -0.25341645
0.025144152 -0.30848318 -0.2858953 -0.1409459 -0.0036341178 -0.24677251 -0.667679 -0.42767912
-0.063421376 -0.22625624 0.525612 0.5760856 0.4511287 0.3127537 -0.56031835 0.6683653
-0.62299854 -0.23207656 -0.49736765 0.25468314 -0.5884801 -0.34877867 -0.44854307 -0.43551773
-0.3307507 0.6948496 -0.057547405 0.2153833 -0.7014111 0.62728673 -0.1541465 -0.6483974
0.48738798 -0.19100337 0.64202505 -0.47955388 -0.6566917 -0.53124213 0.30655578 -0.0789829
-0.65433437 0.13111413 -0.045016363 0.25587374 -0.35955232 -0.5031246 0.48187393 -0.33985734
0.49829322 0.57368535 -0.49447042 -0.32574362 0.08636102 -0.666439 0.21675944 -0.2946512
-0.31420803 -0.5465393 0.3303817 -0.45070636 -0.56473273 -0.18554696 -0.39413878 -0.6876761
0.28515452 -0.2689315 0.4960842 0.49765697 -0.45223895 -0.41243517 -0.25103304 0.41407043
-0.024852764 -0.25325906 0.43785867 0.6706749 0.5232753 -0.54066163 -0.14703646 -0.13515471
0.60356945 -0.36564314 -0.4052568 0.010454851 -0.16500026 0.26795283 0.08688405 -0.42117074
0.51418644 0.44053298 0.15545167 -0.6393348 0.33207318 0.46937534 0.19659176 -0.27345228
0.047253765 -0.27202007 0.66469926 0.6822839 -0.08296455 -0.4766634 0.41671824 0.36132196
0.37466264 -0.53135735 0.23960502 -0.30156338 -0.6219264 -0.4934061 0.30053723 0.26443598
-0.6207501 0.40108874 0.54182667 0.5365904 0.39879885 -0.110975474 0.47469413 0.55465204
0.36838466 -0.5082698 -0.24740984 0.55988014 0.5402295 0.45100844 -0.29593647 -0.1406543
-0.5274565 -0.40298787 0.5433576 -0.58056295 -0.1750932 0.14994875 -0.42406788 0.16450003
00000000: d03c 07bf a3a5 fd3e be90 d03e 96e2 31bf
00000010: ac37 0ebf f08c eebe b21e c4be 3783 b63d
00000020: 7ef4 32bf 492b 06bf 0c61 a53e 9450 6cbe
00000030: 8933 90be 65c6 15bf 57e1 923e 29fa 4b3d
00000040: d04d 8cbe 32aa ddbe 2105 1a3e d83a 453e
00000050: 5e16 a13e 3ea6 563e d562 ddbd 4ae6 0bbf
00000060: 9d93 e63e 5d43 cebb 9580 f0be 0d1c 1c3f
00000070: 9239 c93e 50f8 0dbf 3daf b4be 898f 76be
00000080: aee7 d0be 0c47 a93e 0e0d 01bf b431 283f
00000090: 8899 95be c4a5 d53e 67aa c63c 7c1b 9fbe
000000a0: 020d f23e 5eec 09bf 5870 bfbe 41ed ad3d
000000b0: 2b9f 0f3f c81a 9bbe 2d29 dcbe 106c e6be
000000c0: 4e1c 9fbe 39bc 79be b484 28be 04b8 cdbe
000000d0: 9c1d 603e 3320 913b 0d29 ecbe 0fc0 cebe
000000e0: 703e 193e 6715 25bc af00 003f 328a dbbd
000000f0: e39d 12bf 4029 06bf 4fd1 54be b91a 20be
00000100: 52f6 a43d 48db 23be 4d70 853e 937b 71be
00000110: 1fbb 043f fa3a 293e 35f7 5dbe c25c 213f
00000120: 2392 393e 4c37 f6be cb80 c9be 04dd e23e
00000130: 6b1c a53e 4c80 0d3f 7dfa 62bd dc65 fd3e
00000140: 8567 b43e f988 603e 6994 27be 025f 2e3f
00000150: 70d7 123e 88e0 3abe 7642 25bc 82d3 313f
00000160: 7312 f33e b7aa 55bd 0c76 313f 193e 9f3e
00000170: c860 c0be 0ca7 24bf c278 d23e e3d2 293f
00000180: a5dc d2be de6d 943e abdc f13c 1dd6 19be
00000190: e7bf 44be de71 493e af0a 203e ea21 f43e
000001a0: 8fac 843e f6cf a43e 63d0 1f3f e6c9 613e
000001b0: 0db6 d73d 12dc 83be 1eda 043f 8f54 d73d
000001c0: d929 e93e c4c7 2e3f bf56 22be c9cd fe3e
000001d0: 9a02 13be 1a17 233f 558b 0e3f cdbf 81be
000001e0: 1cfb cd3c 82f1 9dbe de60 92be 1f54 10be
000001f0: 612a 6ebb efb1 7cbe 03ed 2abf c2f8 dabe
00000200: 11e3 81bd b7af 67be 828e 063f 597a 133f
00000210: 57fa e63e 4121 a03e 0671 0fbf fd19 2b3f
00000220: d57c 1fbf 7aa5 6dbe f9a6 febe d465 823e
00000230: a2a6 16bf 1e93 b2be 70a7 e5be 2efc debe
00000240: 2858 a9be aae1 313f d4b6 6bbd 718d 5c3e
00000250: ae8f 33bf dd95 203f 95d8 1dbe 5ffd 25bf
00000260: eb8a f93e 6396 43be c15b 243f 1688 f5be
00000270: f21c 28bf 7cff 07bf e1f4 9c3e c9c1 a1bd
00000280: 7582 27bf c842 063e 1463 38bd e201 833e
00000290: 3e17 b8be c6cc 00bf 2eb8 f63e c801 aebe
000002a0: 4a20 ff3e 0bdd 123f 3a2b fdbe dec7 a6be
000002b0: 0cde b03d bf9b 2abf 30f6 5d3e 86dc 96be
000002c0: e0df a0be 00ea 0bbf ca27 a93e fcc2 e6be
000002d0: 5392 10bf 0600 3ebe 8fcc c9be 8a0b 30bf
000002e0: c6ff 913e 64b1 89be c0fe fd3e e5cc fe3e
000002f0: dd8b e7be b42a d3be 6787 80be 0a01 d43e
00000300: 0698 cbbc 2cab 81be 032f e03e 5ab1 2b3f
00000310: 5ff5 053f cd68 0abf ba90 16be ff65 0abe
00000320: 8783 1a3f 9435 bbbe d27d cfbe d34a 2b3c
00000330: d4f5 28be 1d31 893e 44f0 b13d b1a3 d7be
00000340: b9a1 033f 8a8d e13e b92e 1f3e 72ab 23bf
00000350: 7f05 aa3e f751 f03e 5a4f 493e f001 8cbe
00000360: 2a8d 413d 3746 8bbe bb29 2a3f 28aa 2e3f
00000370: 51e9 a9bd 3a0d f4be 185c d53e 31ff b83e
00000380: c8d3 bf3e 0907 08bf 055b 753e 8466 9abe
00000390: 9236 1fbf b99f fcbe 04e0 993e 2764 873e
000003a0: 7be9 1ebf 815b cd3e 27b5 0a3f fd5d 093f
000003b0: 5d2f cc3e 1c47 e3bd 1c0b f33e adfd 0d3f
000003c0: ea9c bc3e f81d 02bf 0159 7dbe 4e54 0f3f
000003d0: 7b4c 0a3f 94ea e63e fc84 97be ae07 10be
000003e0: 6407 07bf 6d54 cebe 7c19 0b3f c69f 14bf
000003f0: a24b 33be 2a8c 193e 6d1f d9be b272 283e

layers.1.weight f4 [256, 256]
0.0054448326 -2.5183102e-05 -0.003015399 0.004250521 -0.00045765814 -0.0008413522 0.0039629447 -0.00083112746
0.00028613277 -0.0039695133 -0.0036000102 0.0018540649 0.004040689 0.00065550907 -9.525474e-05 0.0040270276
-0.0006386346 -0.003363924 -0.0022240914 0.0034868014 0.00219629 0.0032996973 -0.0012714444 0.0025524732
0.0027134428 0.0018252345 0.0042886613 0.00072950835 0.0010300712 -0.002704062 -0.00061479333 0.0022721502
0.0039567635 0.002710818 -0.000112705595 -0.0023594815 -0.0028478785 0.0011997392 -0.0017904725 0.00197951
-0.0016602656 0.0012032375 0.00393358 0.0019393592 0.0034013835 0.0034859676 -0.0023646771 -0.0011034398
0.0018098062 0.0016851388 -0.00048591444 -0.0005216719 0.0025440666 -0.001743769 -0.0026702909 0.00012408974
0.0033382801 -0.0019887963 -0.0009013105 0.0014931263 -0.0032766357 -0.0010875913 0.0013772026 0.0018940767
0.003983841 0.0026813175 0.000662667 -0.0010015904 0.0034356855 0.00086459646 0.004338481 0.0033810267
-0.0029448057 -0.0033399332 0.00046703604 -0.003510338 7.7568446e-05 0.0010383703 0.00056846556 0.0039708293
0.0023323142 0.0015143788 0.004473797 -0.0022172865 -0.0035669392 -0.0007147334 0.0019803077 0.0005409299
-0.0004859411 -0.002181402 -0.003571773 -0.00024030209 0.0040456946 0.004181975 0.0019875935 -0.0009468124
-0.002930218 -0.0040704436 0.004161896 -0.00022242859 -0.0025187838 -0.0030643952 0.0031331973 0.004051958
-0.0006397342 -0.001061485 -0.0016218822 -0.0031494985 -0.0011761605 0.0012785945 0.0009806895 0.0019824528
-0.0024332332 0.0002917891 0.00037258564 -0.0038750852 0.0028457034 -0.0044129305 -0.00097044074 0.0038895155
0.0024170273 0.00021153124 0.0014022256 -0.0039446047 0.0023365088 0.00420669 -0.0011420071 -0.0037407398
0.0037876612 -0.0032532932 -0.0013939939 0.00029760343 -0.0009862265 -0.003723073 0.0017344326 0.00041627922
0.0031766829 -0.0036380645 0.004073786 -0.0010255788 0.0025081025 -0.0025839834 -0.0007682883 -0.002868183
0.004306592 -0.00068461825 0.0020432533 7.8922654e-05 -0.0033845925 -0.0025290898 -0.0006123276 -0.001784946
-0.002278256 0.0016190208 0.0042490577 0.0017755787 -0.0042544254 0.00318854 0.00017626626 0.004373252
-0.0018782218 -0.0004839237 -0.00090783526 -0.001217499 0.004900048 0.000754429 0.0022218963 0.0019514397
-0.001995351 0.0027417524 -0.0013429981 -0.0016095764 -0.0026836232 -0.0034942739 -0.0019994036 0.00032063178
0.0015882666 0.0035892553 0.0005937783 0.0017290919 0.0034699284 0.0013900372 -0.0046493337 0.0008501122
-0.0013396789 -0.0043588337 -0.0015178848 -0.0005253823 -0.0031102325 -0.0031897773 -0.002026883 0.001650693
0.004094343 0.0007166682 0.0035461886 0.0045293346 -0.0032498257 0.0021500227 0.0021940027 0.0032553172
-0.00014628214 0.0039726663 0.00056655915 -0.003730958 -0.00013426528 0.0027116681 -0.0034339603 0.0012157281
0.0044005937 -0.002904466 -0.0019190739 0.0002772524 -0.00052493287 0.004371072 0.0025238427 -0.0012927789
-0.000983535 -0.0024027792 0.0038054755 0.0018715806 -0.003380727 5.8690817e-05 -0.0017372197 -0.003033539
0.0020943834 -0.00046809114 0.0043869265 0.0037315532 -0.0004531673 -0.00056064053 -0.00056215766 0.0037005036
-0.00519672 0.0035718612 -0.0010028284 0.0036745823 -0.004507199 0.0038756332 -0.0008389573 0.0022023835
-0.0031065762 0.00071503024 -0.0007788287 -0.0006590554 -0.0021592001 -0.003348768 -0.0016486001 -0.0042124134
0.004958022 -0.0017929955 0.0030636883 0.0008943791 -0.0020581346 0.0019507852 0.0046498617 0.00046124385
00000000: 916a b23b 4d40 d3b7 009e 45bb f447 8b3b
00000010: d6f1 efb9 318e 5cba 97db 813b 05e0 59ba
00000020: 1704 9639 b112 82bb 26ee 6bbb 1804 f33a
00000030: c267 843b 78d6 2b3a 80c3 c7b8 28f5 833b
00000040: 0b6a 27ba 4875 5cbb 10c2 11bb d282 643b
00000050: a2ef 0f3b bc3f 583b 98a6 a6ba 6547 273b
00000060: 04d4 313b b53c ef3a e687 8c3b 7a3c 3f3a
00000070: 7403 873a a236 31bb 152a 21ba 5be8 143b
00000080: bda7 813b fba7 313b 5b5c ecb8 88a1 1abb
00000090: 79a3 3abb 9140 9d3a 4aae eaba abba 013b
000000a0: 459d d9ba f3b5 9d3a 43e5 803b 1932 fe3a
000000b0: bfe9 5e3b d574 643b b3f8 1abb 4ca1 90ba
000000c0: 0537 ed3a e0df dc3a 55c2 feb9 cfc0 08ba
000000d0: 5bba 263b 2e8f e4ba 0c00 2fbb 161e 0239
000000e0: 0cc7 5a3b 7756 02bb ec45 6cba 01b5 c33a
000000f0: d3bc 56bb 828d 8eba 4083 b43a ab42 f83a
00000100: e18a 823b 0bb9 2f3b d4b6 2d3a cc47 83ba
00000110: 3d29 613b 16a6 623a d129 8e3b 3794 5d3b
00000120: a4fd 40bb c8e2 5abb 84dc f439 b30d 66bb
00000130: 3eac a238 ed19 883a 1405 153a bb1d 823b
00000140: bdd9 183b 1f7e c63a ee98 923b e54f 11bb
00000150: 4fc3 69bb f25c 3bba 0dc8 013b 31cd 0d3a
00000160: e9c5 feb9 daf5 0ebb 6814 6abb 9af9 7bb9
00000170: bf91 843b f308 893b 4942 023b 8133 78ba
00000180: e608 40bb 5b61 85bb 8460 883b b83b 69b9
00000190: 2e12 25bb 05d4 48bb 5456 4d3b 4ac6 843b
000001a0: d6b3 27ba 8721 8bba 5695 d4ba d167 4ebb
000001b0: 6629 9aba 8396 a73a 7b8a 803a 0aec 013b
000001c0: e176 1fbb 45fb 9839 9957 c339 24f5 7dbb
000001d0: fb7e 3a3b 589a 90bb 2d65 7eba 3ee7 7e3b
000001e0: fd66 1e3b 7cce 5d39 e2ca b73a be41 81bb
000001f0: 1d20 193b 46d8 893b 66af 95ba 3327 75bb
00000200: 693a 783b 3435 55bb acb6 b6ba a807 9c39
00000210: 4544 81ba cdfe 73bb e755 e33a 0d40 da39
00000220: e52f 503b 986c 6ebb 657d 853b b76c 86ba
00000230: fa5e 243b 0c58 29bb f466 49ba 20f8 3bbb
00000240: 501e 8d3b f477 33ba 1ae8 053b 4783 a538
00000250: 0ad0 5dbb 16bf 25bb 9c84 20ba d9f4 e9ba
00000260: cb4e 15bb 5335 d43a ae3b 8b3b 89ba e83a
00000270: b568 8bbb d3f6 503b 1dd4 3839 7f4d 8f3b
00000280: aa2e f6ba 24b7 fdb9 cbfb 6dba 7d94 9fba
00000290: 9590 a03b e0c4 453a 3c9d 113b 73c7 ff3a
000002a0: 6fc4 02bb f9ae 333b 8a07 b0ba 6cf8 d2ba
000002b0: badf 2fbb 3000 65bb 6d08 03bb 781a a839
000002c0: 622d d03a b639 6b3b caa7 1b3a b2a2 e23a
000002d0: bd67 633b e931 b63a 7059 98bb 10da 5e3a
000002e0: 2a98 afba 8cd4 8ebb c3f3 c6ba cfb9 09ba
000002f0: 0bd5 4bbb 950b 51bb 74d5 04bb 115c d83a
00000300: d729 863b cade 3b3a 2c67 683b d06a 943b
00000310: 07fb 54bb 65e7 0c3b 42c9 0f3b 2957 553b
00000320: 5063 19b9 242d 823b 2485 143a 1783 74bb
00000330: 90c9 0cb9 3eb6 313b 4b0c 61bb 1159 9f3a
00000340: db32 903b da58 3ebb 6f89 fbba 305c 9139
00000350: a69b 09ba 363b 8f3b 0e67 253b 7672 a9ba
00000360: f5e9 80ba f277 1dbb 4965 793b d34f f53a
00000370: 308f 5dbb c92a 7638 6cb3 e3ba 57ce 46bb
00000380: ec41 093b 216a f5b9 35c0 8f3b 138d 743b
00000390: 1697 edb9 f3f7 12ba c35d 13ba 2684 723b
000003a0: 3f49 aabb e315 6a3b 5671 83ba 43d1 703b
000003b0: 20b1 93bb 56fe 7d3b 79ed 5bba dd55 103b
000003c0: b397 4bbb de70 3b3a 4f2a 4cba 76c4 2cba
000003d0: 5e81 0dbb 0177 5bbb d715 d8ba 4908 8abb
000003e0: e776 a23b f202 ebba 29c8 483b c474 6a3a
000003f0: c5e1 06bb 7db1 ff3a de5d 983b 1ad3 f139

layers.1.bias f4 [256]
0.051657252 -0.03614989 0.0030527303 0.059658937 0.04361511 -0.008299848 -0.040004477 -0.058490355
-0.019965969 0.054359265 0.009040088 -0.035849996 -0.0008628629 0.0073615173 0.023954382 0.04556884
0.059455145 -0.013509336 0.012632342 0.038012143 -0.010993236 0.01587795 -0.051642347 0.0015689046
-0.00266578 0.027915806 0.021525878 0.051138833 0.054625325 0.05323665 0.036851637 -0.03335385
0.046133436 0.023020852 -0.062400017 0.03606266 -0.0050730654 -0.010940409 -0.009139421 -0.041768316
0.009437697 0.0056305523 -0.031279393 0.02715361 0.048055053 -0.025212744 0.0030164619 -0.0110306665
0.03724661 0.03648647 -0.05938176 -0.05387099 0.0019450667 -0.019259656 -0.03391776 -0.031649303
0.02137982 0.051710334 -0.052738104 -0.019757595 -0.017998798 -0.030502778 -0.012270201 0.007944598
-0.015266508 -0.011981642 0.021239905 0.002895713 0.024067156 0.043766804 -0.029317353 -0.039506115
-0.023478292 -0.045834463 -0.040667973 -0.013091253 -0.0014165577 -0.040195215 0.02184716 0.05058181
-0.061335295 0.011339319 -0.024862917 -0.041259326 0.022023994 -0.059427094 -0.055560097 0.00886252
-0.016485097 -0.014427386 0.05865573 -0.021383826 0.030461367 0.020645667 0.046753846 0.04204914
-0.02079915 0.018626269 0.050230958 0.0130954245 0.017064366 -0.010794948 -0.044141002 -0.009984044
-0.050053116 0.058792423 0.055754278 0.0007577876 -0.01797879 -0.035267916 -0.019937744 -0.009090092
-0.0139253875 0.060101707 -0.035582326 0.042186145 -0.017009683 -0.045605835 0.014753296 0.009187801
0.055600516 -0.058616955 0.0051770704 -0.049399212 -0.009270538 -0.0045124507 -0.06060254 -0.023764271
-0.0239597 0.05993564 -0.020412514 -0.020861194 0.04090379 0.047377437 0.04472787 -0.011723056
-0.032817714 -0.04798616 -0.04889683 -0.006713525 0.061983276 -0.0008091142 -0.01098363 0.014050995
0.029879434 -0.013511451 0.04778501 0.029198708 4.330041e-05 0.029463792 -0.038788106 -0.006889675
0.026304597 0.021735268 -0.001671256 -0.019615471 0.008607046 -0.0004411433 -0.060955156 0.0506701
-0.03213055 0.045145307 0.036195375 -0.025094625 0.0056918766 -0.023666458 0.02623653 0.0010454156
0.049620144 -0.036314823 0.056092698 0.02861586 0.06276648 0.015469422 0.010758518 0.044041872
-0.05997451 0.009762208 0.021130111 -0.050373666 -0.040390853 -0.015401313 -0.03032963 0.054884627
0.023285218 -0.014526047 0.0007319947 -0.061594583 -0.017096521 0.031887107 0.00076318474 0.003774326
0.0028660446 0.010078689 0.009044622 0.009792257 0.0064626443 0.06042637 0.015282655 0.0498066
-0.003704261 0.041776318 0.031758204 -0.019571187 -0.019468717 -0.03875422 0.01478371 0.03902693
-0.033590082 -0.03766982 -0.031649247 -0.029225728 0.03890955 0.0507009 -0.023132637 -0.0049083973
0.016967073 -0.018500224 0.058477435 -0.029000346 -0.017892765 -0.047164313 -0.04339548 -0.004413881
-0.06179993 -0.060233705 0.005121224 -0.047278445 0.03549802 -0.050808705 0.06114125 0.001620388
0.026954604 -0.00483747 0.018449951 0.00044286606 -0.054686897 0.061753597 -0.0055247587 0.028860562
-0.027281692 0.009812286 0.017014455 0.059066676 -0.056913625 0.061014242 0.0031795122 -0.018292217
0.007695865 0.05798254 0.007660058 -0.018682525 -0.015367715 -0.04807883 -0.059172515 0.061477885
00000000: 8e96 533d e811 14bd 5110 483b ee5c 743d
00000010: c2a5 323d 16fc 07bc bcdb 23bd 9593 6fbd
00000020: ac8f a3bc d2a7 5e3d e11c 143c 72d7 12bd
00000030: c031 62ba e238 f13b fb3b c43c 64a6 3a3d
00000040: 3d87 733d 4356 5dbc e2f7 4e3c 9fb2 1b3d
00000050: f91c 34bc 7912 823c ed86 53bd b4a3 cd3a
00000060: 5eb4 2ebb b0af e43c 0a57 b03c f476 513d
00000070: cebe 5f3d ac0e 5a3d bef1 163d 0c9e 08bd
00000080: 6af6 3c3d 3a96 bc3c 2997 7fbd 71b6 133d
00000090: f53b a6bb 673f 33bc 83bd 15bc 4115 2bbd
000000a0: 92a0 1a3c 7f80 b83b d21e 00bd 3f71 de3c
000000b0: 60d5 443d f58a cebc d5af 453b f8b9 34bc
000000c0: e78f 183d d672 153d 4a3a 73bd d4a7 5cbd
000000d0: 9cf1 fe3a 6dc6 9dbc 59ed 0abd b3a2 01bd
000000e0: bb24 af3c 37ce 533d e903 58bd aeda a1bc
000000f0: 3772 93bc f6e0 f9bc f408 49bc 0f2a 023c
00000100: 6020 7abc a64e 44bc 4fff ad3c 01c6 3d3b
00000110: 7c28 c53c d244 333d f22a f0bc 2ad1 21bd
00000120: 8c55 c0bc ebbc 3bbd 7693 26bd b27c 56bc
00000130: caab b9ba bda3 24bd d1f8 b23c df2e 4f3d
00000140: b83a 7bbd 8dc8 393c 51ad cbbc 8aff 28bd
00000150: aa6b b43c d369 73bd fc92 63bd 1a34 113c
00000160: c10b 87bc d860 6cbc fe40 703d 222d afbc
00000170: 1e8a f93c 1a21 a93c f680 3f3d b83b 2c3d
00000180: fb62 aabc 1e96 983c fabe 4d3d 318e 563c
00000190: 92ca 8b3c 4bdd 30bc 32cd 34bd 1e94 23bc
000001a0: 7f04 4dbd 53d0 703d 995e 643d 44a6 463a
000001b0: 4148 93bc 1775 10bd 7b54 a3bc 9cee 14bc
000001c0: 4f27 64bc 352d 763d c6be 11bd 61cb 2c3d
000001d0: e457 8bbc 2fcd 3abd cfb7 713c 6e88 163c
000001e0: 5ebd 633d 5518 70bd 6aa4 a93b d456 4abd
000001f0: 74e3 17bc 2edd 93bb 5e3a 78bd 4aad c2bc
00000200: 2247 c4bc 137f 753d 2538 a7bc 18e5 aabc
00000210: bc8a 273d d80e 423d 9234 373d 1012 40bc
00000220: de6b 06bd 238d 44bd 0b48 48bd 21fd dbbb
00000230: 2de2 7d3d bc1a 54ba aff4 33bc 2536 663c
00000240: b7c5 f43c 225f 5dbc 37ba 433d 2132 ef3c
00000250: 769d 3538 0d5e f13c 47e0 1ebd c8c2 e1bb
00000260: bd7c d73c 290e b23c 0c0e dbba a0b0 a0bc
00000270: 9104 0d3c 4049 e7b9 1dac 79bd 738b 4f3d
00000280: 539b 03bd 49ea 383d 9a41 143d 3e93 cdbc
00000290: ec82 ba3b 29e0 c1bc feed d63c 5406 893a
000002a0: 7e3e 4b3d dabe 14bd 75c1 653d cf6b ea3c
000002b0: b68b 803d 7573 7d3c 7f44 303c 4065 343d
000002c0: d5a7 75bd abf1 1f3c 0e19 ad3c 9e54 4ebd
000002d0: e170 25bd ca55 7cbc d875 f8bc b4ce 603d
000002e0: a4c0 be3c a8fe 6dbc 55e3 3f3a 9a4a 7cbd
000002f0: 010e 8cbc 0e9c 023d 7610 483a af5a 773b
00000300: 40d4 3b3b 1621 253c e52f 143c b46f 203c
00000310: 97c4 d33b a481 773d 1a64 7a3c 0102 4c3d
00000320: 30c3 72bb a51d 2b3d e414 023d c153 a0bc
00000330: dc7c 9fbc bfbc 1ebd 6037 723c b4da 1f3d
00000340: c195 09bd ab4b 1abd a4a2 01bd cb6a efbc
00000350: 9f5f 1f3d bfab 4f3d a880 bdbc 9fd6 a0bb
00000360: 88fe 8a3c c88d 97bc 0986 6f3d 2292 edbc
00000370: d993 92bc 5e2f 41bd 75bf 31bd 51a2 90bb
00000380: ec21 7dbd 9eb7 76bd f1cf a73b 0ba7 41bd
00000390: 5f66 113d ca1c 50bd 3f6f 7a3d 3363 d43a
000003a0: e7cf dc3c a483 9ebb 5a24 973c 7a30 e839
000003b0: 5eff 5fbd 57f1 7c3d 0909 b5bb fc6c ec3c
000003c0: db7d dfbc b6c3 203c e661 8b3c e6ef 713d
000003d0: 431e 69bd 12ea 793d 5d5f 503b 8fd9 95bc
000003e0: 982d fc3b 1a7f 6d3d 3901 fb3b 180c 99bc
000003f0: dec8 7bbc 4fee 44bd e15e 72bd 3cd0 7b3d

layers.2.weight f4 [256, 256]
-0.0014995969 0.00454955 0.004544166 0.003541414 -0.0035328753 -0.0045385 -0.0041502803 0.0015411148
0.0027873756 -0.0040941956 -0.002611311 -0.0036823754 0.00091101386 0.001746775 0.004237176 0.0013678503
-0.004061416 0.00056481 -0.0020910408 -0.0037187638 0.0015416966 0.003978981 -0.0019895714 -0.0003472404
0.004764546 0.003055154 0.003243703 -0.0036028808 0.003129894 -0.0027746784 -0.0026983046 0.0010815504
-0.0032277845 -0.004893302 0.0031668677 -0.00479622 -0.0037722504 0.0006916978 -0.0010566782 0.0033617984
0.004200397 -0.0028086258 -0.003696423 0.0026207555 0.0017101065 -0.002010555 -0.0019054234 -0.0044238414
-0.0008602794 -0.002243551 -0.0005232844 0.0041172504 -0.0024090672 0.0023223653 0.004583374 0.0014052201
0.0031624476 -0.0028056237 -0.0017358445 -0.0024308246 -0.0005192458 -0.003870396 -0.0038084656 0.0044873827
0.003071087 0.0011884207 -0.003457226 -0.004484237 -0.00053170463 -0.0008830274 -0.00065807684 -0.0006833186
0.004381256 2.7578539e-05 -0.0030338715 -0.0023821217 -0.004138029 0.0006687791 0.0011413004 0.00321904
-0.00021180711 -0.0045475527 0.0029682987 -0.002893087 0.0035229826 -0.0045420127 0.0035774624 -0.004750067
-0.00096256414 0.00031510348 -0.0041352 0.002885888 -0.0048734797 -0.0015445865 -0.001237176 -0.0013819347
-0.0014779547 -0.0029697453 -0.00017616733 -0.0016883641 -0.0005338356 0.0029557855 -0.0034013174 0.0023426774
0.0003906142 -0.0015719222 0.002132357 0.000707272 0.0039411457 -0.0033533548 0.0032143244 -0.0036404645
8.858881e-05 -0.0043094163 0.00031631824 0.002429683 0.0032328162 0.0001866713 0.0025514557 0.0021719579
0.0006694822 0.0027785792 -0.0027207602 -0.0030903448 0.00017710647 -0.0008803709 -0.0017186321 -0.0015462881
-0.0038855972 0.0042502913 -0.0007883595 -0.0021024756 0.00010560675 0.0045758584 -7.523866e-05 -0.0008798307
-0.0016952639 -0.000401304 0.0008470628 0.0030583409 0.00058357057 0.0025620048 -0.0016228349 0.0041007292
-0.0019175763 -0.0036709977 0.0035420088 -0.00053223636 0.0015122188 0.003774054 -0.0041126157 4.5018805e-05
0.002663274 -0.0043145963 0.0026633823 -0.0031499756 -0.0014327167 0.004077068 -0.004441732 0.003568936
0.0022184046 -0.0027619374 -0.0010561144 0.0014885477 -0.00078594394 0.0015523226 -0.003920462 -0.0011513546
3.476473e-05 -0.00034343053 -0.0023175678 -0.0006826786 0.0014809779 -0.0012973176 0.0036617785 -0.00021011147
-0.003971321 -0.0043062777 0.0012528786 7.833555e-05 -0.00053733186 0.0027645796 -0.0025292793 -0.0035046109
0.00051960576 -0.003790091 0.0028613668 -0.0005947587 0.0008056945 -0.0039310427 0.0011250852 -0.0022740138
0.0005029134 -0.002577244 -0.003578139 0.0011837167 0.004585575 -0.0013049004 -0.00039276868 -0.00075540954
0.0041961013 -0.0034365703 -0.0002015098 0.00013991262 0.0041826367 0.00086599734 -0.0012039647 0.0020686944
-0.0029318973 0.003127809 -0.0026299017 0.0014621676 0.004277409 0.0023712902 0.00034751996 -0.0011069569
0.0044275047 0.00060290407 -0.003439937 0.004454775 -0.0029773614 -0.002271539 -0.0006320263 0.0039914697
-0.0033596386 0.0007714998 0.0005036044 -0.0016425016 0.002149443 0.0022923688 -0.0037027707 0.003358003
0.0043629506 0.0012448794 0.0036141092 7.4897194e-05 0.0024610583 -0.0015645326 0.0009775397 0.003920695
-0.0021533896 -0.0011429348 -0.0038685885 0.00021602686 -0.0042376025 -0.0031636881 0.0020151814 0.0014498206
0.005263267 -0.0054531097 -0.004728263 -0.00051613746 0.0009342982 -0.003042623 0.001371769 -0.0010097502
00000000: 1f8e c4ba 6414 953b 3ae7 943b 1117 683b
00000010: d087 67bb b3b7 94bb 13ff 87bb 3bff c93a
00000020: 67ac 363b 9a28 86bb 8722 2bbb 0254 71bb
00000030: 1bd1 6e3a 0bf4 e43a 02d8 8a3b 7149 b33a
00000040: a015 85bb c20f 143a d809 09bb 81b6 73bb
00000050: c112 ca3a 1d62 823b 7863 02bb d10d b6b9
00000060: e91f 9c3b fb38 483b 4e94 543b 4f1e 6cbb
00000070: e81e 4d3b 61d7 35bb 0ad6 30bb cfc2 8d3a
00000080: 3d89 53bb fe57 a0bb 398b 4f3b 9c29 9dbb
00000090: dc37 77bb 0e53 353a 3d80 8aba 9e51 5c3b
000000a0: 7ca3 893b ec10 38bb b03f 72bb fbc0 2b3b
000000b0: a725 e03a 84c3 03bb 66bf f9ba dff5 90bb
000000c0: 6084 61ba 8a08 13bb 062d 09ba 00ea 863b
000000d0: 71e1 1dbb d332 183b 2130 963b 5d2f b83a
000000e0: 1141 4f3b 8ede 37bb 4785 e3ba 784e 1fbb
000000f0: ff1d 08ba 78a6 7dbb 7397 79bb e50a 933b
00000100: 4a44 493b c8c4 9b3a a192 62bb 82f0 92bb
00000110: 1862 0bba f77a 67ba ca82 2cba bc20 33ba
00000120: a490 8f3b 7658 e737 ebd3 46bb 5f1d 1cbb
00000130: 4e98 87bb 0151 2f3a b097 953a 88f6 523b
00000140: 8a18 5eb9 a303 95bb ca87 423b f299 3dbb
00000150: d7e1 663b 2ad5 94bb dc73 6a3b 73a6 9bbb
00000160: 9654 7cba 7934 a539 9280 87bb 2b21 3d3b
00000170: b6b1 9fbb b973 caba bd28 a2ba 0922 b5ba
00000180: eeb7 c1ba 0fa0 42bb 8fb9 38b9 194c ddba
00000190: 1af1 0bba dab5 413b a3e8 5ebb 9b87 193b
000001a0: 5acb cc39 f508 ceba 04bf 0b3b 3868 393a
000001b0: ba24 813b f5c3 5bbb 6aa7 523b dc94 6ebb
000001c0: c1c8 b938 0136 8dbb 84d7 a539 513b 1f3b
000001d0: a8dd 533b 32bd 4339 5336 273b 6857 0e3b
000001e0: 3180 2f3a d318 363b c84e 32bb 6287 4abb
000001f0: a8b5 3939 b1c8 66ba b943 e1ba d2ac caba
00000200: 81a5 7ebb 0746 8b3b e9a9 4eba b0c9 09bb
00000210: 3179 dd38 15f1 953b 73c9 9db8 70a4 66ba
00000220: 9e33 deba 1c66 d2b9 6c0d 5e3a 726e 483b
00000230: c2fa 183a 4fe7 273b 4eb5 d4ba 695f 863b
00000240: 2f57 fbba 1f95 70bb 0c21 683b c785 0bba
00000250: a535 c63a 1f56 773b 1fc3 86bb 93d2 3c38
00000260: 538a 2e3b 7561 8dbb 248c 2e3b d26f 4ebb
00000270: ffc9 bbba ed98 853b f38b 91bb cfe4 693b
00000280: a762 113b 9f01 35bb 526d 8aba 5f1b c33a
00000290: ce07 4eba 4e77 cb3a 3877 80bb 0de9 96ba
000002a0: 58d0 1138 770e b4b9 56e2 17bb c9f5 32ba
000002b0: 5f1d c23a c10a aaba 73fa 6f3b 5e51 5cb9
000002c0: db21 82bb ad1b 8dbb a137 a43a 1448 a438
000002d0: bbdb 0cba f32d 353b 44c2 25bb 9dad 65bb
000002e0: 2736 083a 2d63 78bb c585 3b3b 95e9 1bba
000002f0: 3e35 533a facf 80bb 9877 933a 9f07 15bb
00000300: f2d5 033a fbe6 28bb 367f 6abb f126 9b3a
00000310: 9742 963b 3109 abba 85ec cdb9 ad06 46ba
00000320: 737f 893b 1538 61bb 604c 53b9 82b5 1239
00000330: 800e 893b 1904 633a 5ace 9dba ef92 073b
00000340: 1325 40bb edfb 4c3b 6e5a 2cbb 34a6 bf3a
00000350: 8229 8c3b a667 1b3b 5733 b639 4f17 91ba
00000360: 9a14 913b 350c 1e3a 9170 61bb 5cf9 913b
00000370: d61f 43bb 1ade 14bb 91ae 25ba e0ca 823b
00000380: 622d 5cbb 7a3e 4a3a 5204 043a 3549 d7ba
00000390: abdd 0c3b 913b 163b 2faa 72bb f111 5c3b
000003a0: 15f7 8e3b 392b a33a b1da 6c3b 2012 9d38
000003b0: b549 213b 0111 cdba ca20 803a 2c79 803b
000003c0: e21f 0dbb 87ce 95ba 2588 7dbb 4585 6239
000003d0: 96db 8abb e155 4fbb 2211 043b e807 be3a
000003e0: 7c77 ac3b 00b0 b2bb 8bef 9abb 664d 07ba
000003f0: b1eb 743a be66 47bb eecc b33a 9859 84ba

layers.2.bias f4 [256]
0.029927334 0.036261387 -0.02452192 0.03557622 0.023792481 0.019228073 -0.035219397 0.0049857195
0.017224424 -0.04345632 -0.05808895 0.010297573 -0.028611574 0.028064627 -0.021808669 -0.032327928
-0.01203499 0.026005074 0.06001123 -0.041467644 0.034268923 0.039849814 0.011024255 -0.007247938
0.01255555 0.004453401 -0.058144636 -0.031754978 6.8067144e-05 -0.024904987 0.041034643 0.02806249
-0.02654012 -0.0010661572 -0.03222597 0.0027262117 0.017376654 -0.060056053 0.05669821 0.025586989
0.03759488 0.0097893365 0.011030898 -0.044680852 0.042504784 0.04523834 -0.004947804 -0.031996816
0.033268996 0.045410957 0.0067173336 0.05481969 0.035823505 0.020054854 -0.062030446 -0.00972135
0.026658844 -0.0624666 0.013732593 0.019926682 0.025212104 0.052079353 0.023888983 0.015045049
-0.053789154 -0.05022442 0.045494597 0.034700554 0.011854398 -0.022999357 0.045200866 -0.022311589
0.030131344 -0.0072416696 0.03338569 0.022510514 -0.009136591 0.021488162 -0.032407284 -0.03586355
0.0267171 0.025809301 -0.009394665 0.0017092739 -0.029327327 0.04451048 -0.014406898 0.017777564
-0.012483757 0.043644127 -0.044492576 0.04112776 0.06133918 -0.04161648 -0.0535411 0.03236188
0.015299237 0.038850196 0.010515984 0.021874826 -0.029667009 0.05072494 0.017474674 0.00048343936
-0.0035323566 0.013130742 0.015822154 0.040883027 0.009625273 -0.020910203 0.028597157 0.061900172
0.02865311 0.046414517 -0.037087336 0.024879899 0.058821186 -0.04153267 0.0063850223 -0.019077467
0.011541073 0.042486336 0.01900913 -0.02162373 0.055868257 -0.050165057 0.02516329 0.028404381
0.0030855434 -0.04376698 0.047596402 -0.004497126 0.007547389 -0.018685522 0.044046815 -0.03067826
-0.0518584 0.013019126 0.004476771 -0.035139807 -0.020302502 0.004771387 -0.03084724 -0.027144818
-0.021209378 -0.0045559425 -0.04792513 0.011845799 -0.035872955 0.005378286 0.02564395 -0.01905129
0.041850496 -0.055512834 0.048062522 -0.001476293 0.0142859025 0.052706577 -0.061407246 0.009935865
-0.009329862 -0.032120887 0.027119078 0.042394936 -0.020063333 -0.012957416 0.033368923 0.014363567
-0.017744929 0.010988036 -0.04497662 0.056098323 0.022618689 0.042947803 -0.060988203 -0.045010153
-0.02462644 0.047223262 0.013468593 0.056958023 -0.04830766 -0.0002331078 0.0366505 0.054677673
0.04855544 -0.040491264 0.026711099 0.036046654 -0.03016236 -0.015416347 0.023713809 0.02232433
0.059291396 -0.049286574 -0.00029945996 -0.021201564 -0.046979763 0.04914649 0.03268297 0.04572996
0.014846852 0.0052860263 -0.03986457 -0.04202448 0.010146055 0.051216442 -0.01299997 0.00088104536
0.03409897 0.02545259 -0.02054425 0.033456393 0.027296918 0.03977486 0.032491613 -0.038902596
0.030756382 0.050205622 0.008878824 0.0384526 0.014249823 0.0011310392 0.03628536 0.04441476
0.037523624 0.008832383 0.020801164 0.017258225 -0.013333714 -0.055828054 -0.04484851 -0.045985308
0.05207562 -0.059042312 -0.058599614 -0.010130729 0.007626691 -0.04386908 -0.0012731291 -0.054421663
0.061171528 -0.028460322 0.03527145 -0.019609058 -0.036517344 -0.023306418 0.04501533 0.009358826
-0.014547447 0.0324353 -0.032702703 -0.036364827 -0.04041616 0.052001745 -0.0021142787 -0.038539495
00000000: 2b2a f53c d286 143d 32e2 c8bc 5fb8 113d
00000010: 73e8 c23c 3184 9d3c 3742 10bd 3f5f a33b
00000020: 3c1a 8d3c 41ff 31bd aeee 6dbd 27b7 283c
00000030: d262 eabc cae7 e53c 18a8 b2bc 4a6a 04bd
00000040: 682e 45bc 9808 d53c 56ce 753d fad9 29bd
00000050: 925d 0c3d 8f39 233d 149f 343c 1c80 edbb
00000060: cbb5 4d3c d6ed 913b 1229 6ebd 8211 02bd
00000070: 45bf 8e38 8b05 ccbc f113 283d 4fe3 e53c
00000080: aa6a d9bc 4dbe 8bba 61ff 03bd 3eaa 323b
00000090: 7c59 8e3c 56fd 75bd 623c 683d ce9b d13c
000000a0: 17fd 193d 7463 203c f1ba 343c 4503 37bd
000000b0: 7f19 2e3d d64b 393d 3021 a2bb 180f 03bd
000000c0: 1245 083d d700 3a3d 141d dc3b 9c8a 603d
000000d0: abbb 123d 144a a43c a313 7ebd 4c46 1fbc
000000e0: a663 da3c fadc 7fbd abfe 603c 483d a33c
000000f0: 9d89 ce3c 2951 553d d4b2 c33c 827f 763c
00000100: 0452 5cbd 1fb8 4dbd 8b58 3a3d 2b22 0e3d
00000110: f338 423c 2669 bcbc 8b24 393d cbc6 b6bc
00000120: 02d6 f63c 874b edbb 6fbf 083d f867 b83c
00000130: a4b1 15bc f107 b03c 80bd 04bd a8e5 12bd
00000140: d2dd da3c 076e d33c 15ec 19bc b709 e03a
00000150: dd3f f0bc 9f50 363d e90a 6cbc 41a2 913c
00000160: ac88 4cbc 2fc4 323d d93d 36bd 9575 283d
00000170: cb3e 7b3d 0b76 2abd ea4d 5bbd e48d 043d
00000180: a7a9 7a3c 6221 1f3d 3c4b 2c3c d632 b33c
00000190: 3a08 f3bc f4c4 4f3d 0c27 8f3c 2276 fd39
000001a0: 1c7f 67bb 5322 573c 769d 813c f674 273d
000001b0: 52b3 1d3c e04b abbc 9644 ea3c 098b 7d3d
000001c0: edb9 ea3c 261d 3e3d e4e8 17bd eed0 cb3c
000001d0: 7cee 703d 291e 2abd 7339 d13b 5948 9cbc
000001e0: c516 3d3c 2706 2e3d 09b9 9b3c 4024 b1bc
000001f0: 1dd6 643d e079 4dbd 3e23 ce3c 4eb0 e83c
00000200: d436 4a3b 0145 33bd 72f4 423d a15c 93bb
00000210: 1650 f73b 6112 99bc 6f6a 343d f950 fbbc
00000220: 7969 54bd 2c4e 553c e1b1 923b c2ee 0fbd
00000230: 6f51 a6bc 4c59 9c3b 5ab3 fcbc cf5e debc
00000240: 4abf adbc 044a 95bb 244d 44bd e214 423c
00000250: 85ef 12bd 553c b03b 4313 d23c 7311 9cbc
00000260: 6d6b 2b3d 6d61 63bd 35dd 443d 2c80 c1ba
00000270: 6b0f 6a3c dae2 573d 2a86 7bbd 0aca 223c
00000280: 47dc 18bc 3191 03bd d428 de3c 50a6 2d3d
00000290: dc5b a4bc 574b 54bc daad 083d 2b55 6b3c
000002a0: d05d 91bc 2a07 343c 6739 38bd 5bc7 653d
000002b0: d44a b93c 09ea 2f3d c4ce 79bd 915c 38bd
000002c0: 63bd c9bc 2e6d 413d 60ab 5c3c d14c 693d
000002d0: 41de 45bd 666e 74b9 d61e 163d b2f5 5f3d
000002e0: 12e2 463d 2bda 25bd 3cd1 da3c a8a5 133d
000002f0: 0e17 f7bc d994 7cbc 7643 c23c 83e1 b63c
00000300: 89db 723d b8e0 49bd d600 9db9 e7ae adbc
00000310: da6d 40bd d44d 493d 94de 053d 574f 3b3d
00000320: 3640 733c 6736 ad3b 0849 23bd dc21 2cbd
00000330: a43b 263c 55c8 513d d3fd 54bc f4f5 663a
00000340: 5dab 0b3d f381 d03c 6a4c a8bc 9209 093d
00000350: c99d df3c f7ea 223d ed15 053d 5458 1fbd
00000360: cff4 fb3c 69a4 4d3d 7d78 113c 7980 1d3d
00000370: 1778 693c 613f 943a f59f 143d 40ec 353d
00000380: 5fb2 193d b3b5 103c 3467 aa3c 1f61 8d3c
00000390: a675 5abc f5ab 64bd 12b3 37bd 175b 3cbd
000003a0: 3f4d 553d 5ad6 71bd 2606 70bd 5bfb 25bc
000003b0: 52e9 f93b 10b0 33bd 20df a6ba 40e9 5ebd
000003c0: ff8e 7a3d 9f25 e9bc cc78 103d 2da3 a0bc
000003d0: 3693 15bd 1aed bebc ff61 383d c355 193c
000003e0: 6a58 6ebc e1da 043d 45f3 05bd 49f3 14bd
000003f0: 6a8b 25bd c8ff 543d b68f 0abb 97db 1dbd

layers.3.weight f4 [2, 256]
-0.0028316553 -0.00074915873 -0.0010728613 0.004305031 -1.3295331e-05 0.00042075387 -0.0029661113 -0.0022504525
0.0035848082 0.0011619931 0.001286125 0.0022323937 -0.0023160465 -0.003043122 -0.0008074795 -0.003709579
0.0009974068 -0.002264908 0.00058859005 -0.0041164733 -0.004511975 -0.0037528642 0.0006008394 -0.0029107614
0.0007715634 0.005330633 -0.0024141236 0.003531859 0.0014070211 -0.0016196968 -0.0006188444 0.0018647669
-0.0035030893 -0.0003539955 0.0025168534 -0.0030744118 -0.0006747233 -0.0013264484 -0.003091227 -0.0001572656
0.001981568 0.0036634456 -0.001392092 0.00076831196 -0.0053079575 0.00089691527 -0.002285552 0.0037238863
0.004626574 -0.0023416649 -0.0010379528 0.0041736383 -0.0026319325 0.0021569224 -0.0026900514 -0.0037244728
-0.00022135468 -0.0005060431 -0.00012605084 0.0009255936 0.0034021994 0.0038491604 -0.00082177226 0.00029349173
0.0027899859 0.0014751272 0.0019699575 0.0018923233 0.0010074301 -0.0044449572 -0.003402175 -0.00311164
0.003724452 -0.0015130693 0.0035430803 0.0014774268 -0.002198019 -2.4894678e-05 5.2828076e-05 0.004418933
0.0036574989 0.0031489404 -0.0010469104 0.0043032523 -0.0025377485 -0.0050417986 0.0034674255 -0.0015994245
-0.0034617202 0.0038067382 -0.0002550414 -0.00012983271 0.0019123665 -0.001699 0.0012056617 -0.003632349
0.004990692 0.0045889206 0.0018928793 -0.0035683902 0.0011737145 -0.0014297402 -0.0040328754 0.0014017606
-0.004651227 -0.0010164687 -0.0016630152 0.0019096768 -0.0018206774 0.0032885643 -0.0043415483 -0.0034393552
-0.0045582764 0.0032126468 0.0036476795 0.0007675378 -0.0034320436 -0.0018606927 0.0020868604 -0.0008685909
-0.004665646 0.0028221284 -0.0036637099 -0.0014028331 -8.364764e-06 -0.0006889453 -0.0035233237 0.0025059835
-0.0024898883 0.0010801282 0.0041808016 0.0027286718 0.003919726 -0.0017921304 0.0030478581 8.5776104e-05
0.0029450106 -0.0006124533 -0.0036392002 -3.1392808e-06 -0.0022068387 9.866363e-05 0.0015886433 -0.0045141396
0.0033832456 -0.0013332989 0.00021778942 -1.0603837e-05 -0.0010841233 0.00066047726 -0.0032933997 -0.001410833
-0.003385868 0.0039785393 0.0049204025 0.00045381102 -0.00013406109 -0.0028148855 -0.004347219 0.0037680257
-0.0017099894 -0.004572772 -0.0031896434 0.002915933 -0.00309458 -0.0029927434 0.0024775476 -0.0027125988
-0.00035122427 0.0027559767 0.00045437933 -0.004257739 0.0024835106 -0.0031638741 0.0030009013 -0.003996524
-0.0004386817 -0.0045055435 0.0014480731 -0.0039366046 -0.004102612 -0.0045128507 -0.0034540037 -0.0047395793
-0.0032965092 -0.0050317254 0.005378466 0.001679806 -0.00027864872 0.0039807092 -0.0012998715 0.0015565963
-0.0036840895 0.0013671599 0.002593499 -0.0037467508 0.00015006831 -0.004639026 0.000155892 0.0037131645
-0.003813073 0.0020850408 0.00057835615 -0.0034712118 -0.0031470514 -0.0050908104 0.0033922056 0.001537041
-0.00096829364 0.004331544 0.0010115545 0.002089422 -0.0012599565 0.0021168776 0.0023485944 0.00420951
0.0044060466 -0.002886126 -0.004283214 -0.0010590503 -0.00087457546 -0.00430529 0.003692932 0.004126975
-0.0036841845 -0.00021389266 0.0032809793 0.004892911 0.0019076224 -0.0019525068 0.0045907684 -0.0020935303
-0.00047713876 0.0036066966 0.0013849596 -0.0010310228 -0.0010089079 -0.00094745937 0.0038153254 -0.0003206022
-0.0045023863 -0.0020231362 0.0026928845 0.0015909041 -9.943545e-05 -0.0015344686 -0.004965981 0.0038864939
-0.0052465536 0.0040382007 0.0041036257 -0.004181326 -0.0043515405 0.0026043353 0.0021830064 -0.0037724006
00000000: 4b93 39bb 3163 44ba 409f 8cba 3811 8d3b
00000010: 030f 5fb7 a198 dc39 1763 42bb 547c 13bb
00000020: 1aef 6a3b 054e 983a 3293 a83a 5a4d 123b
00000030: d0c8 17bb 1d6f 47bb 08ad 53ba 681c 73bb
00000040: 6bbb 823a da6e 14bb 9c4b 1a3a 7be3 86bb
00000050: 31d9 93bb 9df2 75bb a681 1d3a 79c2 3ebb
00000060: be42 4a3a 97ac ae3b 4636 1ebb c376 673b
00000070: cb6b b83a 024c d4ba f239 22ba 326b f43a
00000080: 1694 65bb 7998 b9b9 cbf1 243b 127c 49bb
00000090: eadf 30ba 39dc adba 2f96 4abb aae7 24b9
000000a0: 32dd 013b 6b16 703b db76 b6ba 8b68 493a
000000b0: 60ee adbb f71e 6b3a 33c9 15bb 720c 743b
000000c0: 849a 973b 9e76 19bb eb0b 88ba 04c3 883b
000000d0: 807c 2cbb 275b 0d3b 934b 30bb 4916 74bb
000000e0: 721b 68b9 faa7 04ba 842c 04b9 89a3 723a
000000f0: 6ff7 5e3b 3242 7c3b 346c 57ba cbdf 9939
00000100: 32d8 363b 0e59 c13a 671a 013b d507 f83a
00000110: bf0b 843a 01a7 91bb 06f7 5ebb a8ec 4bbb
00000120: f015 743b 2e52 c6ba 0633 683b 38a6 c13a
00000130: a40c 10bb ead4 d0b7 b793 5d38 b2cc 903b
00000140: a6b2 6f3b 745e 4e3b 7c38 89ba 4c02 8d3b
00000150: 5b50 26bb ac35 a5bb bf3d 633b c8a3 d1ba
00000160: 07de 62bb 787a 793b 14b7 85b9 b423 08b9
00000170: 5fa8 fa3a fbb0 deba 4b07 9e3a b40c 6ebb
00000180: f588 a33b a85e 963b 7d1a f83a a7db 69bb
00000190: 53d7 993a 1f66 bbba 3626 84bb 48bb b73a
000001a0: 5269 98bb 083b 85ba 88f9 d9ba 1f4e fa3a
000001b0: cca3 eeba f484 573b 8c43 8ebb ce66 61bb
000001c0: 985d 95bb 458b 523b e80d 6f3b 9734 493a
000001d0: 23ec 60bb 7de2 f3ba b5c3 083b 26b2 63ba
000001e0: 46e2 98bb 75f3 383b da1a 70bb 45df b7ba
000001f0: 6356 0cb7 569a 34ba 90e7 66bb 6d3b 243b
00000200: 652d 23bb 1793 8d3a 1bff 883b 84d3 323b
00000210: 0b71 803b ebe5 eaba 93be 473b b2e2 b338
00000220: 1401 413b 0c8d 20ba a67f 6ebb 6fac 52b6
00000230: 9ca0 10bb a2e9 ce38 063a d03a 59eb 93bb
00000240: 71b9 5d3b 16c2 aeba 675e 6439 22e7 31b7
00000250: 2419 8eba e123 2d3a 14d6 57bb b3eb b8ba
00000260: 70e5 5dbb 685e 823b 543b a13b 7ced ed39
00000270: c092 0cb9 f179 38bb 1e73 8ebb fbf0 763b
00000280: b921 e0ba 31d7 95bb 5609 51bb 3d19 3f3b
00000290: 70ce 4abb e721 44bb 5a5e 223b dbc5 31bb
000002a0: 8624 b8b9 9e9d 343b c339 ee39 8184 8bbb
000002b0: 65c2 223b 0059 4fbb c5aa 443b 46f5 82bb
000002c0: dcfe e5b9 3da3 93bb 45cd bd3a a2fe 80bb
000002d0: 346f 86bb 89e0 93bb 915c 62bb 794e 9bbb
000002e0: 3f0a 58bb 2ce1 a4bb d83d b03b f02c dc3a
000002f0: 9917 92b9 9c70 823b 7360 aaba b406 cc3a
00000300: c470 71bb 4632 b33a b1f7 293b 0c8c 75bb
00000310: a85b 1d39 f802 98bb f176 2339 9058 733b
00000320: c0e4 79bb 2ea5 083b d39c 173a 457d 63bb
00000330: c33e 4ebb d0d0 a6bb c44f 5e3b 8a76 c93a
00000340: 16d5 7dba a0ef 8d3b 2396 843a afee 083b
00000350: 2025 a5ba 50bb 0a3b e0ea 193b eeef 893b
00000360: 9960 903b 2925 3dbb 345a 8cbb d5cf 8aba
00000370: c443 65ba 6413 8dbb 1e05 723b 933b 873b
00000380: 5c72 71bb 6048 60b9 b305 573b b654 a03b
00000390: 3009 fa3a 42eb ffba 286e 963b 9c33 09bb
000003a0: 7b28 fab9 545e 6c3b 8887 b53a 6223 87ba
000003b0: 553d 84ba ec5e 78ba 8a0a 7a3b 8016 a8b9
000003c0: c188 93bb 9896 04bb 1b7b 303b e285 d03a
000003d0: 0088 d0b8 3920 c9ba abb9 a2bb 8cb4 7e3b
000003e0: 48eb abbb e252 843b b577 863b 8103 89bb
000003f0: 5e97 8ebb 7fad 2a3b c510 0f3b 613a 77bb

layers.3.bias f4 [2]
-0.056464728 -0.031725064
00000000: 8f47 67bd 24f2 01bd
